Crafter-TurtleBot/LF_wo_Fire/results/NovelGridworld-v0_c0_b0_e2.npz (npz, 3870 bytes, 2 tensors)

layer1 f8 [37, 10]
00000000: e81f e3b3 d03c ce3f 12ef 913c 614c 9fbf
00000010: 323c 87af 7730 d4bf a3b3 6de0 ad1a b6bf
00000020: 65df 0341 f651 d83f 21ed 3a78 44d6 d7bf
00000030: 0bd9 4fae 7a49 d93f 6e5b 0f3b 3c43 d4bf
00000040: a5ef 7d3a e528 d33f 2913 adc5 06eb 983f
00000050: 67bb 0049 f9ec ce3f 5546 ff39 031f ccbf
00000060: c2d1 0501 873d cdbf e45e 2002 6c5e b23f
00000070: fdef 1dd8 5aae d63f 578d bf39 ce61 c7bf
00000080: 435d 4b7e 4243 b3bf 44c0 9335 2172 d3bf
00000090: 1136 4b00 83a4 d33f 0f39 6a16 d3bb c03f
000000a0: 04b0 9d29 89de c5bf 83c5 0afc 94bc c13f
000000b0: 8cd4 ee33 b5c5 b3bf c694 03c6 c766 b13f
000000c0: ec6a e9d4 6745 d73f a379 f286 c371 bdbf
000000d0: 9ce1 8fba a10b ad3f aeab a0b4 ec4e cebf
000000e0: 8566 3e27 3fc1 d33f 8d1c 432c 3ef0 cf3f
000000f0: 1801 2ecb 68d2 95bf 1ec5 932c 1f51 90bf
00000100: 9446 125e 6de6 c7bf bb9c 00a3 f917 c7bf
00000110: e2a3 158c 92cc b8bf bf85 e602 78b9 8a3f
00000120: f4ab 20ef 3a3d d5bf f3dc 3f31 c316 c43f
00000130: b1d1 3fea 31a5 d73f bd1f 1343 7df5 c73f
00000140: fadc 11e6 800a b23f 4382 e6cd 5bbb d0bf
00000150: ede9 bb1f d789 d3bf 4fb0 11f7 ca0e d83f
00000160: 33d1 a1a2 6832 a03f a803 a6da 1412 b9bf
00000170: ac50 ddff 8e6f a4bf 9cb3 3598 03d9 d23f
00000180: 9075 c4b6 77cf c93f 6b9e 634f e5ef d33f
00000190: 0026 1ccb e7b0 3abf 8c1c 1d28 a33f 2d3f
000001a0: 9fee 7b64 5903 c7bf 6d72 80ea 2d1f a5bf
000001b0: 8a70 bc72 2943 7dbf f2ee 71b5 c856 c03f
000001c0: b812 e462 1733 a93f 7cf1 bebe 73fc d13f
000001d0: 44d1 2912 28cf 90bf 2df3 6460 59fa b93f
000001e0: 4f03 97d2 ed40 a8bf 6b4e ee1c 3b20 9c3f
000001f0: bb41 e48e 180d c0bf da86 fbe5 ddec b33f
00000200: dba5 48b8 3f90 c73f 9c5b 0fd6 b625 b5bf
00000210: 9f4b ed40 2f1f d03f 2983 e952 9a9b d63f
00000220: d0ce 89b1 5e99 d63f 6c6f 2e6d 9295 b23f
00000230: ca4a 4937 eda5 c5bf 8128 083f f2d7 663f
00000240: 5f85 4c09 0a96 753f d4b7 bd58 d38d b33f
00000250: d537 c9b8 6cc2 bd3f 8494 34c8 ad4c d4bf
00000260: c33e 6d23 3a8a 83bf 2c41 03dc 8a29 c53f
00000270: f406 e416 3ba6 883f a486 5a0c 09fe ba3f
00000280: d5be 6d08 0624 883f 17b7 b86f 8466 cebf
00000290: ff13 8c0a a5bf c4bf 43d9 b58a c8dc c53f
000002a0: ec6d 3ba7 6f02 6cbf 81fe b3b3 87ec b23f
000002b0: daca c177 1d2a c0bf 82b9 d306 8d73 c33f
000002c0: 449a d25e 130a c33f 0bba 4bb8 df63 dd3f
000002d0: 4c8e 3e4c 3675 d43f 13df 40c6 43a7 83bf
000002e0: 502b 1b38 3a5d b0bf 5849 7de9 5fc1 78bf
000002f0: 4aab 892a 0ebf b8bf 8657 9381 a07d b2bf
00000300: 8a73 8076 ce76 adbf 53e8 53ad 7992 b53f
00000310: bbf1 004e 77e7 bbbf ca94 df94 7125 bf3f
00000320: 4465 9254 0dd5 c03f a875 0e3e 5f1c c13f
00000330: 9f89 9328 0f8d c6bf 2929 fd74 0848 a03f
00000340: 31de 1683 c286 c5bf a3f4 5f25 e282 a93f
00000350: dec3 f08a c945 b73f 0cb0 89c7 c0ce 9ebf
00000360: 11d7 5205 c71c 943f a4ff d97c c541 d03f
00000370: 81ce 5f59 eac9 d7bf 0462 172f 5387 bd3f
00000380: 1302 d8e9 979f d93f 93e0 796e 21c7 cabf
00000390: d1fe 847e 26c3 a53f 3626 6163 e641 d1bf
000003a0: eed2 3251 8e2b 17bf 9ef5 3572 6026 6ebf
000003b0: 34e2 fd96 4135 91bf 0c01 85a5 9bda 98bf
000003c0: ea4e 332f beb5 aabf 6cad e349 f492 c9bf
000003d0: 9d29 4f67 0ffb d43f c403 215c 95f3 d43f
000003e0: 1bce e7b3 6a06 d6bf 2de8 6dd4 e374 ba3f
000003f0: ca20 131f d692 cb3f 5144 7085 69e2 ca3f
00000400: aa76 3af8 6618 d1bf 848e ee6d b949 c43f
00000410: ac8d 9a78 5bd1 b03f 002b 62ac 862d c4bf
00000420: ff93 ed20 9933 943f ca2c 4d7b abf6 cd3f
00000430: 208a 235b f62a d4bf 12fa f30c 4a4d 93bf
00000440: 01dd bb4b 7cd7 683f f2bb f743 4ccc ba3f
00000450: e23a 3960 c2eb 36bf c289 6c4a 3604 a3bf
00000460: 6c54 0d60 e538 653f 4664 1af5 6882 b6bf
00000470: c8a3 4c71 49d2 d73f e8fa 41db 7d8c c73f
00000480: 3749 081f 2a2c d2bf 2413 6044 99b1 a8bf
00000490: f5d1 32fc 3a41 b9bf f01c 9d76 ba83 c93f
000004a0: 5602 39df 303e b6bf 0bfa 1899 bd7b bd3f
000004b0: 2cd4 6e78 6384 a83f d142 63a0 dfee d6bf
000004c0: 6cf3 555c 1f4c d33f 72c7 33a1 a68a d03f
000004d0: 99e5 59d9 a437 b63f 164d bc83 e604 84bf
000004e0: ee97 372c 752c 87bf 6853 1f42 1988 cf3f
000004f0: 0e1a aa5d c204 b9bf 1334 4f67 128e b7bf
00000500: 2af7 9e65 995c bdbf 7d3c b861 1fad b83f
00000510: c192 18a9 f255 e03f 5034 adc7 f81f cf3f
00000520: 8247 ef7b 68f6 d4bf b035 62de b613 bfbf
00000530: 6e77 cc07 10ab a43f 1228 d727 738d ca3f
00000540: c3b1 d994 3773 9d3f ee62 51e1 ea9a eabf
00000550: 9b2a 0321 6dc7 d4bf 5c07 7f1e d5e7 b13f
00000560: f3d1 f01e f264 f13f ee46 1e05 582c c63f
00000570: 1394 4605 431d d5bf 9a24 8a71 46e3 63bf
00000580: ea95 bab3 7d08 b93f a4de 6fc5 fe1f ca3f
00000590: bf03 4f20 182d bebf ab6e 1082 b103 aabf
000005a0: bbc1 1f30 6244 e3bf 4c6a 4fdf ede3 acbf
000005b0: cc9f 0feb ad3b f03f 48b7 6b9e 5a02 e03f
000005c0: 7e5c 798f 5378 e1bf 85a9 782b 1e13 903f
000005d0: e91c 3f08 5452 933f 0084 a15b 7584 df3f
000005e0: 004f 4d7d f905 dcbf bccd 3928 16ee a6bf
000005f0: a042 1941 2c72 d13f 95fd 53a0 5f62 dc3f
00000600: 6405 667e e501 c13f e9db d95d d8e8 e83f
00000610: 47d7 66c0 54d1 c73f 70eb c2df 0a42 d6bf
00000620: 4b7b cc0f 4570 833f 3483 9bd5 4ce4 d4bf
00000630: 2df8 1ee9 716e e33f c1aa 57a7 4e8f af3f
00000640: 046d 5de7 53c2 c5bf 619b e038 746b be3f
00000650: ffb0 0e62 f156 cb3f a46c 6882 d8f3 d23f
00000660: a624 f15b 03bd d3bf 1209 eaaf b569 d2bf
00000670: 6497 27a6 2a38 d4bf c58f 6eb6 fd29 853f
00000680: 1585 ba4d a3c9 d9bf 906b d640 4c86 cf3f
00000690: dcd6 2dc8 6b93 c8bf 2c1e c384 a70d c1bf
000006a0: f335 25a5 85b9 db3f f877 6e21 9e91 823f
000006b0: 2dc2 eb6e f1b5 d2bf c87f e18b 017c c93f
000006c0: fe84 fea8 90b4 b33f d7f0 db28 a8f7 a83f
000006d0: 0fa3 bf65 00a5 bc3f 6f9c 014f ebc7 943f
000006e0: 0a86 a0b6 0f78 b03f c2dd b8a2 e735 8a3f
000006f0: 1ca1 6478 fe8e de3f 3f9c 3437 85f9 c23f
00000700: 8df1 fba4 0b4e d2bf 3209 4878 3d8c d33f
00000710: 594c 51f1 4dd4 c1bf 1b83 cb5c 0201 9b3f
00000720: 1403 02a4 bd74 bfbf 2447 d38d 0972 90bf
00000730: 7e6d 02c3 815f b93f c048 7ff4 1d6c 7bbf
00000740: 7962 5d8a 4612 d03f ae5c af67 6af9 c63f
00000750: e9b6 fa38 59ab a43f b2ba 01c7 5ce3 ccbf
00000760: cf73 0733 9546 c2bf 4975 9d62 5b96 b33f
00000770: d513 b277 5891 cfbf d716 265e 0aef c63f
00000780: b4b1 5d0f 4419 c0bf b0a5 c986 b981 be3f
00000790: 8c70 b146 cdb2 babf 2f73 6c65 7612 c8bf
000007a0: 9061 16c6 b3f9 ca3f b073 2fc0 dd06 c53f
000007b0: c894 ba44 4c24 bb3f 5cf3 3e69 b18c c7bf
000007c0: f52e a399 c15d df3f 258b ed4e b6ce c7bf
000007d0: 5934 7379 aca5 ccbf 5386 ff94 83cc bb3f
000007e0: bb53 82de 676b babf 7d6b 3ee0 0102 d63f
000007f0: 0c41 6871 2bdc ad3f 30cf 2766 c53d d2bf
0.2362309339862343 -0.030564803430464478 -0.3154582227843462 -0.08634459237300844 0.3800025591767649 -0.37245284787396044 0.39510981581351307 -0.31660371558739697
0.2993710585794765 0.0243340547706509 0.2416068655452037 -0.21969642955677907 -0.228440165995961 0.07175326396861298 0.3543917761342071 -0.1826722890828971
-0.07524505217894721 -0.30384092552322195 0.30691599873247905 0.13073195070723684 -0.17085375339536324 0.13856756502859122 -0.07723553197759453 0.06797455391240978
0.3636111811844518 -0.11501714748962981 0.05672936823242766 -0.23678358859737386 0.3086698420753254 0.24951913033712395 -0.021310460473160736 -0.01593445500924872
-0.18671958058671534 -0.1804191633138766 -0.09687152786285894 0.013049066151156972 -0.33186219551379215 0.15694465546378175 0.369457701453281 0.1871792390359114
0.07047277085245077 -0.2614354620691623 -0.30528810595538297 0.3759028828415056 0.03163458810095889 -0.09793215120408993 -0.039913624509297335 0.2944954859183839
0.2016439096850431 0.3115170741352588 -0.0004072729017115806 0.00022314898165573906 -0.17978970915270495 -0.041253504634572426 -0.007144128710731343 0.12764843806859677
0.04921792108692585 0.28103345515753353 -0.01641523943767821 0.1014762745225652 -0.047370368916296195 0.027466701165009526 -0.12539965607767364 0.07783305039222502
0.18408962724906427 -0.08260672308038725 0.25190335598488817 0.3532472428978957 0.35311095559812333 0.07259478726922247 -0.16912617873693697 0.002788518082756986
0.005270041660680873 0.07638283649950434 0.11624793540360596 -0.3171801047449849 -0.00954099102605655 0.16533027403648626 0.01203581012351005 0.10543877173997857
0.011787459499572087 -0.23750358061936858 -0.16209853186606435 0.17080027363744862 -0.003419130394701977 0.07392166268618362 -0.12628525111684646 0.15196383317329426
0.14874498491299637 0.4592208194507356 0.319654058892614 -0.009596375930513134 -0.06392253751543575 -0.006043791443362721 -0.0966652730800607 -0.07222941554513626
-0.05754704662852024 0.08426628572115762 -0.10900064138781478 0.1216650951824533 0.13150183324322928 0.133678345967309 -0.17617978554978905 0.03179956844413063
-0.16817504311414802 0.04982668596492459 0.09090861932851577 -0.030085575274299045 0.01964102716438904 0.25401436989340653 -0.3716989395900115 0.11534614467326071
0.4003658088331871 -0.2092019833978652 0.04250450415065433 -0.2696472139838052 -8.83870709909686e-05 -0.0036804088319388325 -0.01680471881943131 -0.024271423318396976
-0.05216783834626233 -0.1997971878803172 0.3278234967116534 0.3273671531388198 -0.34414165085692766 0.10334609924567024 0.21541859166450755 0.21003455176881627
-0.26711439362575595 0.15849988811270432 0.0656945390169798 -0.15763934533273272 0.01972808135487369 0.23409026642398195 -0.3151222124126054 -0.01884952262934731
0.0030324390080483936 0.10467983874671896 -0.00034974570755689886 -0.03714151056762517 0.002590606687969335 -0.08792739852869244 0.3722098928870392 0.18397496419853288
-0.28394558935646635 -0.0482299705472882 -0.09865158707800233 0.1993325308960503 -0.08688645791790725 0.11516938197835473 0.0478850445282791 -0.358329683903361
0.30152114884531644 0.2584625791779366 0.08678655916619106 -0.00977497186207769 -0.011315265094662377 0.24634090164786504 -0.09772887026529295 -0.09201159498407234
-0.11469420176487391 0.0963916410039349 0.5104916861206094 0.24316320180733664 -0.32753955939289636 -0.12139456681526073 0.040367604209889815 0.20744170613608098
0.028759830913644324 -0.8314108277073424 -0.32467201446403643 0.06994373316322594 1.0871449669476732 0.17322826623836057 -0.32991099848942546 -0.0024277091836820254
0.09778581273948075 0.20410141602018428 -0.1178755835417311 -0.05080942833612075 -0.6020976009295319 -0.05642646170573026 1.0145701582023205 0.5002873510509085
-0.5459382822254069 0.015697928813247514 0.01886874485333304 0.4924596209366996 -0.43786465870401514 -0.04478520623242896 0.2725935588578441 0.44350424439468245
0.13287037536432955 0.7784234841373038 0.18607577700248099 -0.3477809128923388 0.009491481346740513 -0.32643433437447134 0.607232051195529 0.061640222480340075
-0.1699929122649807 0.11882711781127632 0.21359078681906138 0.2961331628336643 -0.3084114454146153 -0.2877020090019339 -0.3159281370739022 0.010333997850302876
-0.40293200102503707 0.24628594556710626 -0.19199893259399559 -0.13322919828918722 0.4331983673808672 0.00906680621647736 -0.2923549254619811 0.19909686403388904
0.07697395444712993 0.04876447199601024 0.1118927238855003 0.020293881127511456 0.06433199127834413 0.012798127797494344 0.47747766263138813 0.1482397574957037
-0.2860135184453377 0.3054345774290993 -0.13929151805004628 0.026371037400966118 -0.12287507299516803 -0.016060017854051215 0.09911356936429702 -0.006694905292493114
0.2511154509752838 0.17948656141991165 0.04036978550480603 -0.22568855015875539 -0.14277901641517451 0.07651301534265999 -0.2466230949832197 0.1791699371062154
-0.12577105284016243 0.11916694203104927 -0.10429079986482942 -0.1880634303314763 0.21074530765760047 0.1642720402150224 0.10602261236143129 -0.18398110999069217
0.49009742740302836 -0.18599585393811782 -0.22380596094299923 0.1085893858685492 -0.10320138151503404 0.343872517574418 0.05832038649907831 -0.2850202081310611

layer2 f8 [10, 5]
00000000: 60b1 9b98 412f b5bf ecec 8a6b 92ef c5bf
00000010: 5048 272d 5cb4 e03f d889 7f8d dce3 ccbf
00000020: 24d2 1de2 e5f7 d83f 722b 1858 52bc d73f
00000030: ac78 d2e1 971e e03f 5a32 ba78 baa6 b1bf
00000040: c2d2 1fca 27cb e6bf 6bc0 8072 4ef6 c13f
00000050: 9058 bac0 7ad3 de3f 1202 d4e1 ffc6 d1bf
00000060: 4c0f 5392 4b57 e8bf 71a6 2c75 fd30 b33f
00000070: 1b7e f552 a4ff c03f 616b 2cb4 0ee5 c33f
00000080: 6a5b 211f b766 bfbf 5fd0 f2f2 3b1e b03f
00000090: 5012 56ed d550 d5bf 537f e5c8 2295 ddbf
000000a0: e704 495f 583c e7bf d265 7aaf a697 ee3f
000000b0: b061 1b69 598c bcbf cf1b 62e6 6cc2 993f
000000c0: 51fb b276 ea98 dabf 6a97 dd84 25ae d73f
000000d0: af28 fd9b 142b e8bf f56e 6f01 d1d1 bd3f
000000e0: 32bd 5bdc 80a0 c73f 5373 fe8d 389e e23f
000000f0: 1128 7e19 7e1e d4bf 0c32 caba 46ab 7e3f
00000100: 58f0 c15a 9d40 b33f ee38 c605 03a6 d73f
00000110: 2997 74a3 4c61 d2bf 9f10 5449 8af7 b13f
00000120: 4f25 d7a4 b1c9 f1bf 086a 9b53 123d c9bf
00000130: 1e2a dc94 d37b cc3f c028 0e42 6bcd d73f
00000140: 8871 65da 84eb c3bf c9ff 76d2 e242 ea3f
00000150: 2aa9 a307 ee64 eb3f 012e 743e ae85 d9bf
00000160: 4041 d8ef 56ec e6bf 1aef 65de 1f3b e1bf
00000170: 842c 20be 42a4 e2bf cfdd 9552 f9d9 e13f
00000180: f259 057a ae79 ce3f e63f e37e 0d95 e5bf
-0.08275232291970758 -0.17137365580661112 0.522016609373404 -0.22570378216830878 0.3901304920357538 0.3708692417428018 0.503734532412428 -0.06895032355732536
-0.7122992465725348 0.14032917586291957 0.4816576845272573 -0.2777709679940311 -0.7606561525248963 0.07496627913192257 0.13280157137613532 0.15542777822050893
-0.12266106138245694 0.06296133691177051 -0.33305881669392523 -0.4622275316123609 -0.7261163579024953 0.9560120990092236 -0.111516559754256 0.025155736505009515
-0.4155832442447052 0.37000406241565165 -0.7552588507326358 0.11648279461899931 0.18458567390141806 0.5818140767401964 -0.31436111917048587 0.007487560546576077
0.07520469156037402 0.369507556570979 -0.28718868219799504 0.0701834134125101 -1.1117416800573954 -0.19717625696542052 0.22252888458781767 0.3719127793380146
-0.15562496818428095 0.8206647978440681 0.8560705327229574 -0.3987842187786726 -0.7163500484912575 -0.5384673446382948 -0.5825513566391156 0.5578581440922167
0.23808842618991793 -0.6744449117923039
