Crafter-TurtleBot/LF_wo_Fire/results/NovelGridworld-v0_c0_b0_e0.npz (npz, 3870 bytes, 2 tensors)

layer1 f8 [37, 10]
0	0x3fd11732038a75e5	0.26704073282038926
1	0xbfb9bf186e349ba9	-0.10057213488162965
2	0xbfb63a8cc8ea9eca	-0.08683090119540818
3	0xbfc6941c2138e1fb	-0.176394954892899
4	0x3fc235f931a2d3c4	0.1422721378673072
5	0xbfd83739737d7126	-0.37837063101121016
6	0x3fd25bac55c01bee	0.28684528707566315
7	0xbfc004a43164f182	-0.12514164363700436
8	0x3faadab00954404b	0.052449704302603616
9	0xbfa4fd7574004ece	-0.04099623719244293
10	0x3fcec469dad07f73	0.24036906418131884
11	0xbfd5ad040b6d5b7e	-0.3386850463479546
12	0xbfab237abe295ca6	-0.053005061829645414
13	0xbfb029d254663619	-0.06313814697770005
14	0x3fc7dba53e4f784b	0.1863905481577056
15	0xbfc72524933f5164	-0.1808210104924327
16	0xbf9d07007dd0424d	-0.0283470227041696
17	0xbfc2790bcf8d0ba0	-0.14431903490375664
18	0x3f7c6d0278e6a06e	0.0069398972104083145
19	0x3fb887480c4c182f	0.09581423092103657
20	0xbfc870be60facd95	-0.19094066367470633
21	0x3fc97c996aec807e	0.19911496849909222
22	0x3fc0adf60ccf2a3d	0.13030887246562087
23	0x3fb694d48414a2e8	0.088208467718356
24	0x3fc599ac9b1608ee	0.16875226566850848
25	0xbfbcc684fff3746c	-0.11240416764072031
26	0xbf94b01a4ce5e230	-0.020203028624992736
27	0xbfc62a24fa175949	-0.17316114627346682
28	0xbfa454e2cd4978a3	-0.039710128364036444
29	0x3fb9da4aa0a3d31a	0.10098711416123898
30	0xbfbbd68a1d7154eb	-0.10874236315551726
31	0xbfb3d4a2e046ec66	-0.07746332145227228
32	0xbfbdce92501acc3c	-0.11643328147583615
33	0xbfc31f70f9133853	-0.14939701234692623
34	0xbfb53742062ff486	-0.08287441874559151
35	0xbf610e5e9951785a	-0.0020820472368959066
36	0xbfc782fadbc78c4c	-0.18368468982143538
37	0x3fa78a897ac3fa90	0.0459788286552697
38	0x3fd21a871315c87c	0.28286911834505424
39	0x3fc044f0b26ad34b	0.12710388862401553
40	0xbfa025b1441b622e	-0.03153757053741334
41	0xbfc2adae2996d0a2	-0.14592530279845045
42	0xbfbf71ec1e04b6d8	-0.12283206684943637
43	0x3fd1cea60301013b	0.27823782246925405
44	0x3f811b3e3efe5cc7	0.008352743432438093
45	0xbfbacf06349d255a	-0.10472143921392299
46	0x3fa011dde216367b	0.03138631234024288
47	0x3fd61910850de727	0.34527981751999665
48	0x3f943a652d70ae78	0.01975401010365238
49	0x3fb9f9c7466c6935	0.10146756619761706
50	0x3fa94419ee3b00fb	0.04934769661986312
51	0xbfada650fc3c2bab	-0.05790951804200203
52	0xbfc80ac6773627ab	-0.18782883473278153
53	0xbfad67ac5fc95148	-0.05743158978717361
54	0xbfa19546515f63aa	-0.034342000420742494
55	0x3fb8b04f0c88a735	0.0964402585601903
56	0x3fc1a7a01f4c01f3	0.13792802360696008
57	0x3fc397df02bd5cbb	0.15307223924421529
58	0x3fa809dd8b1d3803	0.046950267059045835
59	0x3fc2a0474a7364b1	0.1455163110283926
60	0xbfc15b7987cf538d	-0.1356040871748089
61	0x3fc950134aee51cd	0.19775620611893743
62	0x3fb7a07cbf97896b	0.09229259183442699
63	0xbf978cbc2af21a99	-0.022997799035261755
64	0x3fb4297cf0f412ad	0.07875805742885218
65	0xbf8971b56343e26f	-0.012423913089592646
66	0x3fc7d01df07b15c8	0.1860387253019964
67	0x3fcffed80ec78baf	0.2499647209325224
68	0x3fd72df580062f4f	0.3621801138149196
69	0xbfce55fcbf6e918d	-0.2369991240240207
70	0xbfcd97ee3069e43a	-0.2311990486521454
71	0xbfb7ecfbfdd1ff7e	-0.09345984408173355
72	0x3f913aa9d0cc6fc2	0.01682534539132497
73	0x3fbd25c3ec84b4b8	0.11385750316977095
74	0x3fb35738651c6a1b	0.07554962605028274
75	0xbfd546d34586bd5f	-0.33244783200912836
76	0xbfa9c61dad8528bb	-0.05033962958494117
77	0x3fc0d8b6c856273c	0.13161358625466757
78	0x3fa7b7fca3deeb9f	0.046325583461530366
79	0x3fc176b9f0d1df70	0.13643574007778225
80	0xbfa2b6bffcf13b50	-0.03655052149462412
81	0xbfa0e5f4acc0e3ff	-0.033004423225470696
82	0x3f9f6816aa360113	0.030670503748752753
83	0x3fb141eaf3d110f5	0.06741207554393099
84	0x3fa0b0fba63a15c1	0.032600273171776724
85	0x3f9408d245394794	0.019564900851328185
86	0xbfbc39c01824da50	-0.11025620068981223
87	0x3fafc7c8a465368f	0.06207110411433547
88	0x3f948208ebdea3ff	0.02002729358324373
89	0x3fc7c48f27822387	0.18568601063841703
90	0x3fc93a9a103a180e	0.19710088531809372
91	0x3f9f2b8a1cf1bf8e	0.030439527527448322
92	0xbfaf96addd504919	-0.06169646574575633
93	0xbfbae1b6f2eecc26	-0.1050066321466124
94	0x3fb1d2c00d7f7ecf	0.06962204293767658
95	0x3f8a0a209af3f18b	0.012714628914630285
96	0xbfacf1651090dab9	-0.056529196045109704
97	0x3f7d5b6fd6487ed1	0.007167279113246842
98	0xbfba17ebddc3b89d	-0.10192751087353931
99	0x3fbd60a22a1d8033	0.11475575950817145
100	0xbfb555f987b1a3cb	-0.08334312022056094
101	0x3fc9c47471e0334a	0.2013078266176314
102	0x3fab303d9d7d11a6	0.053102422213245945
103	0x3fb9e4e0b4d97bf6	0.1011486474539963
104	0xbfc456f2a3063b2c	-0.1589034362809455
105	0x3f9c83bd9732c47d	0.02784630046216251
106	0x3fbf2acb32555b00	0.12174673060267693
107	0xbfc5ae5b4bfb41ee	-0.16938344202073047
108	0xbfa046e957a2c590	-0.031791011760456844
109	0x3f936a43354c0a2c	0.0189600468902517
110	0xbfcbe55a19034ae7	-0.21793676587420593
111	0x3f9abd54183f43e4	0.02611285589211211
112	0x3fc3c980016ce3d3	0.15458679265591843
113	0xbfc374249e6cb3d5	-0.15198190436913586
114	0x3fb085b98ec97df2	0.06454047904980323
115	0xbfcb9d4e0c66c0fa	-0.2157380638650535
116	0xbf7a0e84d591f5ab	-0.006361502536603873
117	0xbfced7126a7f1288	-0.2409384746553267
118	0x3fc7ed13857d97b1	0.18692249315352918
119	0x3fb1929a401be1c0	0.06864322724493999
120	0xbf709396fe2808b6	-0.004047002616518627
121	0xbfc04fd0d8dd3ffb	-0.1274357851893909
122	0x3fcacdc19f17fe40	0.2094041849922963
123	0x3fd4b26a05b6f3dd	0.3233895355040753
124	0xbfd38c7f91ef4439	-0.30545033694676565
125	0x3fca033f6f4deb23	0.20322411474975252
126	0x3fd1201935bae44b	0.2675841355044823
127	0x3fac7382ded5505c	0.05556878061420953
128	0xbfc93c7cf37d9df3	-0.19715845002359308
129	0x3fc22add1a8da181	0.14193309589905925
130	0xbf9e74fa9f488f58	-0.029743114444627267
131	0xbfb96aac19b1d442	-0.09928393962202711
132	0xbfc9e25aecf2fcb2	-0.20222031183036432
133	0x3fb72b85064a6d31	0.09050780681211702
134	0x3fc0aedf07c66bd6	0.13033664588587496
135	0xbfba3df3d8b028e0	-0.10250782051312823
136	0x3fb5e8b76f5097e0	0.08558222262999449
137	0xbfc81498ca511ef9	-0.18812856558564997
138	0x3fc0dfa56ffacfd7	0.1318251415992779
139	0x3f7f5b7ef5e2b1c0	0.007655616702475887
140	0xbf952bda6ebebdce	-0.020675099381774413
141	0xbf9e00766b38ffaf	-0.02929863957820061
142	0x3fc2b4a47c2d1433	0.146137772209984
143	0x3fbce427cffa0944	0.11285637691074607
144	0x3fb52d8c367fe591	0.08272625284725722
145	0x3f972e6666c37f04	0.022637939474292615
146	0x3f8a33974f176d53	0.012793714619809526
147	0x3fb7771a0264a884	0.0916610961764111
148	0x3fa039a7de570d62	0.03168987835990823
149	0x3fbcb059f9d04bd2	0.11206590985265955
150	0xbfa6d3a9882fbddc	-0.04458360469277142
151	0xbfd947ad3d302978	-0.3949997994938239
152	0x3fc4f9021ec79464	0.163849129704576
153	0x3fd7070eee915df6	0.3598058061374724
154	0x3fb4f58409d26ec9	0.08187127342028612
155	0xbf90dc4f8f3192fb	-0.01646541892513918
156	0xbf96f84046d725e3	-0.02243137771964666
157	0xbf89da3d2a3bf99e	-0.012623288966548792
158	0x3f85d30814a42626	0.010656417016906405
159	0xbfc6b7d4a482cb7b	-0.17748506577262532
160	0xbfb5c333dd45fd41	-0.08500980522329817
161	0xbfc4fb026beb70db	-0.16391020078197624
162	0x3fa4f12674dc2638	0.04090233017457162
163	0xbfa8f80dee8881e7	-0.04876750504286403
164	0x3fb4d76ebcffbe8b	0.0814122401641219
165	0xbf9d690b321485ec	-0.028721022540713223
166	0x3fc4c169cf29cd4c	0.1621525060214516
167	0x3fa1f9402fa82b55	0.035104757134908716
168	0x3fd70cad9f9ad4ab	0.36014881693274486
169	0xbfd3f3df70b7d1b7	-0.31175981528874835
170	0xbfbb39e9ffd048ae	-0.1063524484200424
171	0x3fc2f85555aa9433	0.14820353205610245
172	0x3fda9a140396ea1d	0.4156541857770735
173	0xbfa4ed9baa17d28c	-0.04087530566531425
174	0x3f7d67df404f90a7	0.007179138255171725
175	0xbfa30ca491be51e7	-0.03720583228201573
176	0x3fcc0498173f5418	0.21889020094991518
177	0xbfa82ef092d73b31	-0.04723312180032336
178	0x3fbc9f1b9b6b82d0	0.11180279297287687
179	0xbfaaeb1e3df5afec	-0.05257505899757561
180	0xbfcac74e9f82837b	-0.2092073706490075
181	0x3faa645be17ff173	0.051546927716091505
182	0x3fbafb42f5fd9b67	0.10539644723540463
183	0x3fcccdc6ab4c01bc	0.2250297867212917
184	0xbfa55bbae3155397	-0.041715469570284096
185	0xbfb9fb7db1fb8331	-0.1014936980750576
186	0x3fb7af37a35ece3c	0.09251735437902026
187	0x3fa9622553b608e2	0.04957691809524235
188	0x3fb03de5de46be92	0.06344448734921063
189	0xbfa3c5c6c4bd2eb6	-0.038618289485922316
190	0x3fc90f92f8aff626	0.1957877840322208
191	0x3fabaa426d28e6f4	0.054033351731460316
192	0x3fd389b71d0bf435	0.3052804740580684
193	0x3fc5db0af3c643e6	0.17074715521860567
194	0x3fbd9a51d3abaca3	0.11563598077525454
195	0xbfd11f86be3afc15	-0.26754921509922386
196	0x3fb9596b55010725	0.09902067971509305
197	0x3fb38270676172b1	0.07620909236852459
198	0x3fc1dbf5757b911a	0.13952511059245226
199	0x3fc709c83b3b0723	0.1799860276424222
200	0xbfb0df151e8365bd	-0.06590396876290235
201	0x3fc156f0906ffcce	0.13546568920717167
202	0xbfb7aa4ed73bbded	-0.0924424434158408
203	0x3fd4917d5173c4e0	0.32137997583693156
204	0xbfcc07421e9cd7a6	-0.2189715051151186
205	0xbfd2867002a75040	-0.2894554162896874
206	0xbfd15e3d3c594222	-0.2713769044248996
207	0xbfc2bd7233a61f94	-0.14640643617553606
208	0xbfc78cb42a1280db	-0.1839814382010506
209	0x3fd494b95637a105	0.32157739085825227
210	0xbfab7b71f619fd10	-0.05367618683976094
211	0xbfcc4107875011db	-0.22073454005307167
212	0x3fc77335c84f22f8	0.18320343285292728
213	0xbfb8af3d4b9b16a1	-0.09642394157261915
214	0xbfca06f618e6383b	-0.2033374425486175
215	0x3fc26e2ac659c7b0	0.14398703274815494
216	0x3fba3c22f351c62c	0.10248011055389189
217	0xbfb24e3ef5853c95	-0.0715064381995368
218	0x3fcd9e7460a890c5	0.23139815063144034
219	0x3f95bbc9de570c72	0.021224168963965125
220	0x3fd1001ad1fbc7bc	0.2656313944454458
221	0x3fb52885c90834e6	0.08264957578667839
222	0x3fd19d58bd708333	0.2752286767954956
223	0x3f7e5e5525e816e4	0.007414181337031176
224	0xbfcc00b77b9fe0c7	-0.21877187286714259
225	0x3fd9c568046f2a62	0.4026737254431848
226	0xbfb6f833043fd42e	-0.0897247205137581
227	0xbf8f271b409951ca	-0.015211308392431361
228	0xbfc1108e72fcf98e	-0.1333177625146615
229	0xbfab14a753ff236d	-0.05289194965695896
230	0x3fa60fe24a058fcc	0.043089934860091356
231	0x3fa1dddb0f7055ba	0.03489574969732297
232	0x3fbabe3a477a2aa7	0.10446514363335756
233	0x3fd2fc8be3969942	0.2966642115155943
234	0xbf5e3ab024f604a6	-0.0018450470123243883
235	0xbfc9f2da7dd861d9	-0.20272380013262994
236	0xbfc8e12db29dd3ed	-0.19437190267095109
237	0xbfbb3b488697be7e	-0.10637334142642804
238	0xbfd0de3f8c09c235	-0.2635649554786455
239	0x3fc22702d0ae2da9	0.14181552113983045
240	0xbfb4f7c76336b673	-0.08190580532274243
241	0xbfaa2d22fd1f4708	-0.0511256155001672
242	0xbf346101da328b65	-0.0003109578630732717
243	0xbfcd63a16c7f92e6	-0.22960298345346714
244	0xbfc21fef034319cc	-0.1415995374611171
245	0x3fbc6560889a203f	0.11092189154635522
246	0x3fba082c3b3db5a1	0.10168720671000255
247	0xbfb2a6c1e79f0b37	-0.07285701660934484
248	0x3fd30cb3081ec7b3	0.29765010636321704
249	0xbfcb79fc22838874	-0.21466018376583273
250	0xbfad09d1ff8581ae	-0.0567155479827791
251	0xbfa36e28a796df00	-0.03794982000129998
252	0xbfdd6335f5b3e16e	-0.4591803454818749
253	0x3fd462c251f1be78	0.31852777483343386
254	0x3faed5c2a7b1cf74	0.060224612207917
255	0xbfc5fb3aecd723d4	-0.17172943653557005

layer2 f8 [10, 5]
0	0x3f99fd70fe55e024	0.025380864642528547
1	0xbfc39c148e6c3785	-0.15320069269403916
2	0x3fd10022eef6dbd3	0.2656333287845289
3	0xbfc2a02cd9d5800d	-0.14551315914559418
4	0x3fe273c261b40e28	0.5766307743328456
5	0x3fc8d08bfabd9b07	0.19386434310145992
6	0x3fe4dca12d2048d6	0.6519323235864032
7	0xbfd0711e58cba6b2	-0.2569042079108882
8	0xbfe0e31d2574637c	-0.527723858979797
9	0x3fcba48c7e03792b	0.21595913079267723
10	0x3fd175dbde3715ad	0.2728185339040817
11	0x3f942dbe1de5674a	0.019705744337762433
12	0xbfe027731f00e2db	-0.5048156362091406
13	0xbfc0c7acf05cb263	-0.13109361397200123
14	0x3fc7d1c6e90f2a26	0.18608938579412032
15	0xbfad939984afdf2e	-0.05776672119821878
16	0xbf99469ede9bca7a	-0.024683458649585856
17	0xbfb1446292b22599	-0.06744972306673559
18	0xbfd31d9cc3f9dc58	-0.2986823953464799
19	0xbfc6a0f8a4538662	-0.17678745292419068
20	0xbfde0858b1062c72	-0.4692594269515161
21	0x3fe28ebdd6b29eeb	0.5799245065035995
22	0xbfc5410d7b96c4e5	-0.16604774984947493
23	0x3fc4ae6337d5e135	0.16157188631383126
24	0xbfd561efc52f7cf7	-0.33410257583996333
25	0x3fd01482ceeaa34c	0.2512518902463412
26	0xbfe2f47e92e570dd	-0.5923455113475274
27	0x3fd2a1c6d17f22ad	0.2911240621438463
28	0xbf86e7ce00a9716a	-0.011184319873046095
29	0x3fe55b9a30261811	0.6674319210440008
30	0xbfda7140807506f7	-0.41316235108034455
31	0x3f98bbba93cea006	0.02415362860816119
32	0x3fbdba9f92ef0523	0.11612889611480574
33	0x3fd8f3be7b4c518b	0.38987695732910116
34	0xbfc11db536f8c7ef	-0.1337191122452732
35	0x3fac405b35cdbc7b	0.05517849952490735
36	0xbfe635d05e30614a	-0.6940690841320614
37	0xbfd0e39904839235	-0.2638914627152958
38	0x3fc357ecd9213def	0.15112076379817505
39	0x3fd5bd75c21b51b2	0.33968872028097075
40	0xbfb284f2f23e5b9a	-0.07234114088201551
41	0x3fe48de7d77dbda0	0.6423224648296362
42	0x3fe0e64ea272e5a0	0.5281136677578395
43	0x3f8737f163f7d792	0.011337171424184143
44	0xbfe8f87da00180b7	-0.7803333401789335
45	0xbfe1b6f318a1c356	-0.5535827141849079
46	0xbfce29423d843d3f	-0.23563411716211566
47	0x3fd471316112f59e	0.31940874557388976
48	0x3fc08515019c4b43	0.12906134203566397
49	0xbfe584cc5c8e12c6	-0.6724607284273467
