Crafter-TurtleBot/LF_wo_Fire/results/NovelGridworld-v0_c0_b0_e1.npz (npz, 3870 bytes, 2 tensors)

layer1 f8 [37, 10]
000000 e5 75 8a 03 32 17 d1 3f a9 9b 34 6e 18 bf b9 bf
       0.26704073282038926 -0.10057213488162965
000010 ca 9e ea c8 8c 3a b6 bf fb e1 38 21 1c 94 c6 bf
       -0.08683090119540818 -0.176394954892899
000020 c4 d3 a2 31 f9 35 c2 3f 26 71 7d 73 39 37 d8 bf
       0.1422721378673072 -0.37837063101121016
000030 ee 1b c0 55 ac 5b d2 3f 82 f1 64 31 a4 04 c0 bf
       0.28684528707566315 -0.12514164363700436
000040 4b 40 54 09 b0 da aa 3f ce 4e 00 74 75 fd a4 bf
       0.052449704302603616 -0.04099623719244293
000050 15 4b f8 28 5b 3f c8 3f 3d 42 d1 c3 1d 13 d5 bf
       0.18943347454531848 -0.32929176447672487
000060 9f 98 67 76 54 d0 b7 bf 67 71 75 67 7c 82 a6 bf
       -0.09302261248339726 -0.043964278821223605
000070 09 59 5f 30 ee 34 d3 3f 64 51 3f 93 24 25 c7 bf
       0.300105616797183 -0.1808210104924327
000080 65 6c bd 21 a0 c9 92 bf bf 0e 3f fa 33 67 c6 bf
       -0.01834726530010435 -0.17502450675066503
000090 62 78 1e bc 90 95 9c 3f 49 5c 7c 0c 83 6f bf 3f
       0.027914296609758422 0.122795286701476
0000a0 7b a4 af 30 05 67 d0 bf f6 9e ff 02 03 ab ce 3f
       -0.2562878585291128 0.239593864883538
0000b0 21 3f bf 64 15 34 bd 3f 83 bb 35 ff 99 ee ba 3f
       0.11407598218579242 0.10520327072820916
0000c0 66 42 09 7b e3 da cc 3f 6c 74 f3 ff 84 c6 bc bf
       0.22542994983315906 -0.11240416764072031
0000d0 e1 6a dc 80 42 12 9d bf 9f 52 f5 32 ab 8e c7 bf
       -0.028389968028117777 -0.184041404611567
0000e0 f0 cb 1c bd f8 60 90 bf 69 ea 88 63 9e bd ba 3f
       -0.015994917433271583 0.1044558518414448
0000f0 fe bc a8 46 31 17 c2 bf dd 73 c1 92 c7 4c b1 bf
       -0.1413327784552862 -0.06757781346227838
000100 a6 70 81 dd 82 bb b5 bf 22 21 6c 27 4e da cb bf
       -0.08489244373180557 -0.21759964871331144
000110 1c 5c 7d 3d b2 69 c2 bf dc ca c9 4c 2b 78 72 bf
       -0.14385059359003172 -0.004509133472867712
000120 f8 a8 20 5b 73 c6 cd bf e8 97 ac a8 23 a8 74 bf
       -0.23261873197163374 -0.0050431626248492525
000130 40 9c bc 34 3c 42 d3 3f c1 81 dc ef e2 d9 c4 3f
       0.30091767454218044 0.16289936744671077
000140 2e 62 1b 44 b1 25 a0 bf a2 d0 96 29 ae ad c2 bf
       -0.03153757053741334 -0.14592530279845045
000150 d8 b6 04 1e ec 71 bf bf 3b 01 01 03 a6 ce d1 3f
       -0.12283206684943637 0.27823782246925405
000160 c7 5c fe 3e 3e 1b 81 3f 5a 25 9d 34 06 cf ba bf
       0.008352743432438093 -0.10472143921392299
000170 7b 36 16 e2 dd 11 a0 3f 27 e7 0d 85 10 19 d6 3f
       0.03138631234024288 0.34527981751999665
000180 78 ae 70 2d 65 3a 94 3f 35 69 6c 46 c7 f9 b9 3f
       0.01975401010365238 0.10146756619761706
000190 49 97 f9 35 81 39 90 3f b7 15 58 60 63 fb b0 bf
       0.015844363135691073 -0.06633587934637473
0001a0 33 04 cd 16 ca c7 c5 bf 58 c8 01 ac c7 96 b0 bf
       -0.17015958894083524 -0.06480071973217727
0001b0 90 d6 e6 73 80 fe 79 bf c2 6b 9d d1 f9 20 b6 3f
       -0.006346227425117271 0.0864406716113271
0001c0 f3 01 4c 1f a0 a7 c1 3f 86 ee 89 6c 6e a0 c4 3f
       0.13792802360696008 0.16114597606416597
0001d0 01 27 cb 82 0a d6 ac 3f 96 83 67 87 69 21 c4 3f
       0.05632050367928621 0.1572696601060925
0001e0 ea 89 92 1d c6 d3 bd bf 34 5b 56 9c 1c 57 c6 3f
       -0.11651266309721789 0.17453343995722437
0001f0 fb a5 39 8c 13 70 b5 3f 9c dd ca 0f 98 2e 68 bf
       0.08374139951197172 -0.00295190524624518
000200 12 51 4a df 72 5f b3 3f 6f e2 43 63 b5 71 89 bf
       0.07567518187926606 -0.012423913089592646
000210 85 70 fd fb c9 17 c9 3f b8 90 c9 c2 85 3f d0 3f
       0.19603848270606164 0.2538771059246403
000220 2f ad 41 4b da 71 d6 3f 70 ae cb 77 4c b7 cc bf
       0.35069901799461695 -0.22434383248706835
000230 cd b0 9b 8f d4 9f d1 bf 57 7f b2 5f 44 b1 b4 bf
       -0.2753802683280469 -0.08082988106116083
000240 45 c1 3f 48 16 bb a8 3f fb 35 5c ca 2b 01 aa 3f
       0.04830236083933185 0.050790184452221575
000250 79 df e4 ee 9d 1e 9d 3f 34 78 83 24 d8 68 d5 bf
       0.028437106805739163 -0.33452418866898204
000260 6e 45 6d 5f 44 9f b8 bf c2 62 51 7e f3 ce b5 3f
       -0.09618022279507496 0.08518907388623645
000270 1d 10 0b eb f9 30 9d 3f 66 42 51 dc 11 8d c5 3f
       0.028507142039203005 0.1683676076668405
000280 50 3b f1 fc bf b6 a2 bf ff e3 c0 ac f4 e5 a0 bf
       -0.03655052149462412 -0.033004423225470696
000290 13 01 36 aa 16 68 9f 3f f5 10 d1 f3 ea 41 b1 3f
       0.030670503748752753 0.06741207554393099
0002a0 c1 15 3a a6 fb b0 a0 3f 94 47 39 45 d2 08 94 3f
       0.032600273171776724 0.019564900851328185
0002b0 50 da 24 18 c0 39 bc bf 8f 36 65 a4 c8 c7 af 3f
       -0.11025620068981223 0.06207110411433547
0002c0 ff a3 de eb 08 82 94 3f 87 23 82 27 8f c4 c7 3f
       0.02002729358324373 0.18568601063841703
0002d0 6a 84 39 ac 69 ea c6 3f 9a 13 bd 8e 4e 93 b0 3f
       0.1790287104550175 0.06474772438839552
0002e0 32 de 02 f3 2d 86 b4 bf 82 27 8c 87 e0 1b ad bf
       -0.08017241652384469 -0.05685331015236185
0002f0 86 7f d3 67 b1 88 c1 3f 8b f1 f3 9a 20 0a 8a 3f
       0.13698403901707595 0.012714628914630285
000300 b9 da 90 10 65 f1 ac bf 66 05 30 41 ae 6b ad bf
       -0.056529196045109704 -0.05746216340777259
000310 f1 a4 82 f4 02 72 af bf 51 3e a3 7d 22 b0 c1 3f
       -0.06141671404595595 0.1381877053704437
000320 b5 b3 8e 49 2a 5f b9 bf a9 79 d8 32 40 09 cd 3f
       -0.09910835548244175 0.22684481127448677
000330 c8 4d 37 9e 9a 49 95 bf 6c f2 7d 1c 97 30 b3 3f
       -0.020788589388599538 0.0749601788101672
000340 ca a5 c9 83 42 62 c2 bf 7d c4 32 97 bd 83 9c 3f
       -0.14362365183778386 0.02784630046216251
000350 00 5b 55 32 cb 2a bf 3f ac 48 5b 42 5a 2a c8 bf
       0.12174673060267693 -0.18879249801699893
000360 52 44 0b 0e d4 59 73 bf da 77 f7 62 1e 5a b6 3f
       -0.004724338855070691 0.08731260219744233
000370 f1 12 24 69 24 ca d1 bf 90 ab 9f fd 0d 7b 6a bf
       -0.2779627825514544 -0.0032325051552013
000380 be 3c ec 63 46 4f ce 3f ad b8 8a 54 fc 1e ce bf
       0.2367942798523241 -0.23532060745259767
000390 ee 73 65 ac 6c d0 9c bf 53 90 60 be 98 ce cb bf
       -0.02813882639144432 -0.21724232955705478
0003a0 b6 d3 7c dc 4e 8d a9 bf 98 bc 52 b2 0f 79 cc bf
       -0.04990621987818804 -0.22244449813067457
0003b0 84 25 de 3a 7d 1c bb 3f 6c 42 9b 3e be a7 b5 3f
       0.10590346038056536 0.08459080723265239
0003c0 b6 08 28 fe 96 93 70 bf fb 3f dd d8 d0 4f c0 bf
       -0.004047002616518627 -0.1274357851893909
0003d0 40 fe 17 9f c1 cd ca 3f dd f3 b6 05 6a b2 d4 3f
       0.2094041849922963 0.3233895355040753
0003e0 39 44 ef 91 7f 8c d3 bf 23 eb 4d 6f 3f 03 ca 3f
       -0.30545033694676565 0.20322411474975252
0003f0 4b e4 ba 35 19 20 d1 3f 5c 50 d5 de 82 73 ac 3f
       0.2675841355044823 0.05556878061420953
000400 f3 9d 7d f3 7c 3c c9 bf 81 a1 8d 1a dd 2a c2 3f
       -0.19715845002359308 0.14193309589905925
000410 64 58 e0 bc 84 4f 99 bf 6e 73 c4 b7 c3 10 b7 bf
       -0.024717401531312425 -0.09009955631741004
000420 4d 3f ea 55 df 3f cb bf 9b d5 87 81 60 19 c0 3f
       -0.21288673110074754 0.12577444386230927
000430 d7 64 38 83 42 bf b2 3f e0 28 b0 d8 f3 3d ba bf
       0.07323089316959695 -0.10250782051312823
000440 a8 d2 76 e3 84 d1 b5 3f 39 09 e9 cf 2b 61 c6 bf
       0.08522825768779774 -0.17484042789335222
000450 25 ed cf 50 b4 9c c1 3f f2 09 e3 6e e1 e5 97 3f
       0.13759473749073795 0.0233378623895621
000460 39 f8 53 2b 9d 4e 8a bf 91 fa 70 73 35 4e b4 bf
       -0.012845256695524042 -0.07931837147132571
000470 fe 1f 58 ec 03 c9 c1 3f 19 72 ae 7b 82 7a bb 3f
       0.13894700088735584 0.1073380996662724
000480 a0 d2 1a 69 ff c4 89 3f 04 7f c3 66 66 2e 97 3f
       0.012582774539035058 0.022637939474292615
000490 53 6d 17 4f 97 33 8a 3f f7 49 1f 3f fd e6 b1 3f
       0.012793714619809526 0.06993086615629084
0004a0 af 6c d6 20 75 8b a3 3f 70 67 61 44 23 43 c2 3f
       0.0381733515343624 0.14267388190165375
0004b0 db 5a 76 b1 4c b0 b7 bf 52 e0 38 2f 28 79 da bf
       -0.09253386814667001 -0.41364483462848967
0004c0 da c4 94 d8 85 89 cc 3f ff 59 c3 a1 27 b2 d1 3f
       0.22294686389208246 0.27649870679070426
0004d0 80 08 8e 43 92 f7 fc be 0d 8e 85 3f af 59 92 bf
       -2.7625155982765204e-05 -0.01792024445729905
0004e0 4d 5b 4b 46 47 61 b1 bf 17 eb 73 9a 65 2e a9 bf
       -0.06789060083552308 -0.04918210516367177
0004f0 97 78 49 c6 fa dd a2 bf 7d e0 f3 b0 ae 0c c3 bf
       -0.03684981985564766 -0.1488245357538779
000500 41 fd 45 dd 33 c3 b5 bf db 70 eb 6b 02 fb c4 bf
       -0.08500980522329817 -0.16391020078197624
000510 38 26 dc 74 26 f1 a4 3f e7 81 88 ee 0d f8 a8 bf
       0.04090233017457162 -0.04876750504286403
000520 8b be ff bc 6e d7 b4 3f ec 85 14 32 0b 69 9d bf
       0.0814122401641219 -0.028721022540713223
000530 4c cd 29 cf 69 c1 c4 3f 55 2b a8 2f 40 f9 a1 3f
       0.1621525060214516 0.035104757134908716
000540 ab d4 9a 9f ad 0c d7 3f b7 d1 b7 70 df f3 d3 bf
       0.36014881693274486 -0.31175981528874835
000550 ad 4f a2 3d ba e0 bb bf d9 e5 f6 7c e3 5f ba 3f
       -0.10889781956421869 0.1030256443108536
000560 8a a3 7d aa 8d 4c e0 3f c2 6c 00 d6 a7 89 be bf
       0.5093448953531248 -0.11928795790338412
000570 49 67 c4 63 11 9f b9 bf 28 f5 16 20 e6 db 9b bf
       -0.10008343396876031 -0.027206035336111573
000580 18 54 3f 17 98 04 cc 3f 3a 77 b2 d2 6c 85 7a 3f
       0.21889020094991518 0.006474900331481065
000590 69 9d 31 7c 96 28 a8 3f b5 7f 18 74 af c1 aa bf
       0.0471846605876703 -0.05225895206626722
0005a0 a2 61 7d 71 fc 0e cc bf 05 0b 53 78 87 54 6d 3f
       -0.21920733968250966 0.0035803457163593477
0005b0 44 6d 43 da fb 03 cd 3f 07 92 64 2d 16 8d bc 3f
       0.22668407590286155 0.11152781112884479
0005c0 9d ea e8 e9 80 c4 c4 bf 31 83 fb b1 7d fb b9 bf
       -0.162246813024315 -0.1014936980750576
0005d0 3c ce 5e a3 37 af b7 3f ee c3 97 11 7f b9 b7 3f
       0.09251735437902026 0.0926741998625997
0005e0 7d 36 52 58 9c 81 97 bf a8 ea 0c fe 77 e8 ac bf
       -0.022955363169379062 -0.05646109558297968
0005f0 7a dc c4 fa 21 89 c2 3f 09 ba d7 20 fa 7e a7 3f
       0.1448099588830905 0.04589063311492587
000600 9a 35 f9 9d 80 15 d6 3f b7 cf 50 74 6d 6f cd 3f
       0.34506240298363766 0.22996299914814042
000610 67 a5 9b 20 8a 4d c1 3f 5b 77 22 04 43 2d d1 bf
       0.1351788195818628 -0.2683875599267275
000620 86 59 f6 7f e4 c1 a6 3f d0 9f 20 b2 a2 4c ad 3f
       0.04444803297080839 0.05722530769736489
000630 95 c3 5a b1 14 45 c4 3f e2 c8 2b 1c ef 63 c3 3f
       0.1583581796635626 0.15148724437273758
000640 bd 65 83 1e 15 df b0 bf ce fc 6f 90 f0 56 c1 3f
       -0.06590396876290235 0.13546568920717167
000650 ed bd 3b d7 4e aa b7 bf e0 c4 73 51 7d 91 d4 3f
       -0.0924424434158408 0.32137997583693156
000660 a6 d7 9c 1e 42 07 cc bf 40 50 a7 02 70 86 d2 bf
       -0.2189715051151186 -0.2894554162896874
000670 22 42 59 3c 3d 5e d1 bf 94 1f a6 33 72 bd c2 bf
       -0.2713769044248996 -0.14640643617553606
000680 db 80 12 2a b4 8c c7 bf 05 a1 37 56 b9 94 d4 3f
       -0.1839814382010506 0.32157739085825227
000690 e1 62 56 c9 a7 73 b8 bf a1 36 e7 0c 91 d1 ce bf
       -0.0955147615953922 -0.24077046518362002
0006a0 cf 7b 67 c1 0d 0d d2 3f 23 8b e6 12 5a 81 b4 bf
       0.28204673659450646 -0.08009875260772197
0006b0 66 32 eb 4f c6 a3 d1 bf e3 7d ef fb a9 47 c4 3f
       -0.27562101177753673 0.15843701173342514
0006c0 08 0f db b2 2f 62 b6 3f 6a bf f3 f2 f2 39 7c 3f
       0.08743570438951676 0.0068912019917063225
0006d0 c1 7a 71 f1 60 78 c2 3f d4 d7 10 35 a8 39 9c bf
       0.14429866589758514 -0.027563694228056893
0006e0 99 24 d8 90 f7 45 d1 3f 4c b8 47 95 11 f0 b3 3f
       0.26989545006706234 0.07788190741095596
0006f0 a1 9c 24 69 a6 57 d8 3f cb 46 01 67 53 8f b2 3f
       0.38034973399994426 0.07249947800417116
000700 61 bc 6d 88 e6 4b d4 bf b4 aa ae ff 96 21 d9 3f
       -0.3171326000510302 0.3926751610658059
000710 98 57 92 62 c7 87 b7 bf b3 ba cc 7a f6 68 a5 3f
       -0.0919155707982483 0.04181642769832674
000720 04 de 9e 0d 4a e3 c6 bf 0b 6d a5 28 20 69 c0 bf
       -0.17881131806437633 -0.12820817932775017
000730 55 51 d1 d1 12 00 7a bf f5 94 6b 47 b5 d3 6f 3f
       -0.006347726358473989 0.0038851299863035212
000740 2e 18 ed 55 eb e8 c4 3f 60 8e 47 dc 45 40 cb 3f
       0.16335813232052615 0.2128989530166221
000750 6d 32 01 42 01 23 a5 bf ea 2c 97 68 bf 66 cb bf
       -0.0412826912948717 -0.2140731106468146
000760 4a a3 97 81 40 ca cc bf 8e 2c 41 81 2c 8b c5 bf
       -0.22492224052191495 -0.1683097487569722
000770 09 d2 5d 48 d5 4a d1 bf ce fb 6c 8e bf 86 c8 3f
       -0.2701924521163908 0.19161219076519703
000780 73 b6 36 63 c7 f7 b4 bf 08 47 1f fd 22 2d aa bf
       -0.08190580532274243 -0.0511256155001672
000790 65 8b 32 da 01 61 34 bf e6 92 7f 6c a1 63 cd bf
       -0.0003109578630732717 -0.22960298345346714
0007a0 cc 19 43 03 ef 1f c2 bf 3f 20 9a 88 60 65 bc 3f
       -0.1415995374611171 0.11092189154635522
0007b0 a1 b5 3d 3b 2c 08 ba 3f 37 0b 9f e7 c1 a6 b2 bf
       0.10168720671000255 -0.07285701660934484
0007c0 b3 c7 1e 08 b3 0c d3 3f 74 88 83 22 fc 79 cb bf
       0.29765010636321704 -0.21466018376583273
0007d0 79 a5 3a 33 19 bf b8 bf 00 df 96 a7 28 6e a3 bf
       -0.09666593075475828 -0.03794982000129998
0007e0 45 62 7a 76 d7 f2 de bf 49 1f ab 45 33 4b d3 3f
       -0.48357187814830055 0.3014648609500808
0007f0 d2 5e d5 2b a8 8b c5 3f d4 23 d7 ec 3a fb c5 bf
       0.16832449093157337 -0.17172943653557005

layer2 f8 [10, 5]
000000 7a 7d e7 4a 32 1a a1 3f d9 e6 f3 99 62 ce c0 bf
       0.03340298809393523 -0.13129837529395763
000010 41 35 46 f4 13 ea cb 3f ef 64 d2 e9 d2 dd be bf
       0.21808099200681322 -0.12057226379910778
000020 2e 76 24 fd b5 ab e0 3f 92 07 d2 42 27 1c d2 3f
       0.5209608024776509 0.282968344930958
000030 a4 0e 49 96 00 8e e3 3f 01 a7 b8 71 f7 88 d1 bf
       0.6110842643033334 -0.2739847765502504
000040 6c bc 88 94 a5 63 e0 bf 15 3f 16 11 28 78 c4 3f
       -0.5121639157349711 0.1599168857032899
000050 e8 2c 74 d2 dc 28 d8 3f bd 54 bc 9f 37 15 b2 bf
       0.3774940543377867 -0.07063625001713354
000060 45 34 63 e0 d8 4e e2 bf 6d 68 6a 48 7e 2d a4 bf
       -0.5721248991554907 -0.03940958627681899
000070 9b 62 d4 a8 36 63 c0 3f 5c 74 26 d9 c7 40 a1 bf
       0.1280277561534334 -0.03369736219176708
000080 85 9a 17 85 04 e9 ac bf 29 aa ec be d5 6f bb bf
       -0.056465283629042275 -0.10717521582834223
000090 25 3d ca 9f 9e 2d ce bf 53 a9 a4 7e 44 78 cd bf
       -0.23576720049138902 -0.23023277457952904
0000a0 46 93 30 a6 7d 20 df bf f5 1a ba 62 f6 14 e2 3f
       -0.48635808209865095 0.5650588920842369
0000b0 12 d7 9d 48 e7 53 cb bf a3 89 35 6b 52 fe cc 3f
       -0.21349803014498342 0.2265112899286353
0000c0 e6 4f e8 21 25 50 d9 bf 26 c8 56 9b 80 b9 d2 3f
       -0.39551666556621823 0.2925721661550845
0000d0 67 0f 68 cb dc 72 e3 bf c7 39 2b bb e6 26 d2 3f
       -0.6077712986739073 0.28362434652526897
0000e0 f7 50 db 81 c4 3c 55 3f 7d 73 00 41 ed 16 e6 3f
       0.0012962264076366561 0.6902986783567112
0000f0 d7 df 11 5d c3 f6 d7 bf c7 8b d1 92 82 1d 9a 3f
       -0.37443622673845084 0.025503196917622064
000100 bd 9a f2 ed 9d a0 b9 3f 78 e4 96 f2 df 44 d6 3f
       0.10010706958073974 0.34795378389714626
000110 1f 1a 42 5d ac 22 ba bf ff 86 c0 e8 26 87 ba 3f
       -0.10209157254039568 0.10362475569175088
000120 96 37 3d ed 79 f1 e5 bf b9 b6 c8 2d 1f 2b d2 bf
       -0.6857270845009562 -0.2838819453344104
000130 ca b4 3e 98 21 85 bf 3f de d0 07 21 f8 62 d2 3f
       0.12312517134587889 0.2872906038821962
000140 90 72 61 cc 95 ce 72 bf 2d 41 53 d9 28 c1 e3 3f
       -0.0045915462015641145 0.6173290485985824
000150 82 31 45 8d 92 6e e0 3f 69 c5 53 5b 3a 5c 75 3f
       0.5134976157365119 0.005214908557932809
000160 ad bc b9 01 00 83 ea bf d2 80 5c 6c 46 fd dd bf
       -0.8284912141515598 -0.46858368475114986
000170 ea f0 d3 de a0 d9 d3 bf 9d e5 04 7d 3e 10 d2 3f
       -0.31015798340355494 0.28224146088504104
000180 2a 2e 88 3d 8f 50 cb 3f fd f2 37 c1 5b 7d e7 bf
       0.21339598183145486 -0.7340525411414941
