Crafter-TurtleBot/LF_wo_Fire/results/NovelGridworld-v0_c0_b0_e3.npz (npz, 3870 bytes, 2 tensors)

layer1 f8 [37, 10]
0	0x3fd42fc8f554ac74	0.315416564541642
1	0xbfbd0ec49a1ff202	-0.11350659144222422
2	0xbfe28473b0e28d97	-0.5786684469971303
3	0x3f8dd40044a35358	0.014564516157784688
4	0x3fe2d235116289cd	0.5881600703763127
5	0xbf9db0fe897af3a8	-0.02899549211609878
6	0x3fe2a567ff0485a3	0.58269119079721
7	0xbfe36d2da9f95fce	-0.6070774383360857
8	0x3fe971e664c06667	0.795153805523296
9	0x3fc12d34abc25e14	0.13419206988031418
10	0x3fe0a3697b6bfe08	0.5199477587302122
11	0xbfb5de155019dc9a	-0.08541997151938788
12	0xbfdfff855357703d	-0.49997075213264336
13	0x3f9e67a52e3ac316	0.029692250200869706
14	0x3fd75a7bb4057a59	0.3648976572057215
15	0xbfb6b41690097210	-0.08868542686963843
16	0xbfcba3b9dbb1465b	-0.21593402125522485
17	0xbfd6f98d3c9d70da	-0.3589814273780242
18	0x3fe3d66834c8e04b	0.6199227362585672
19	0x3fca7b4600dc3c5a	0.20688700716025005
20	0x3fcc3a65446cd00e	0.22053209153239134
21	0x3fc54af383bcf67e	0.16634982998396092
22	0xbfd9d04399af0975	-0.4033364296739344
23	0xbfb5f052706e0ad8	-0.08569827313298661
24	0x3fd73141584f1156	0.36238130210792485
25	0x3fbe6eb00fc6aa84	0.11887646088750087
26	0xbfbb5a6bd2c4e86e	-0.10684846778613785
27	0xbfbb7ff8d5824e66	-0.10742144787428173
28	0x3fe080d9dad727de	0.5157288812854366
29	0x3fdbde2b374d52d7	0.43543510819044456
30	0x3fb60ea527693e1b	0.08616096698937563
31	0xbf8eb0b4aa86c8b9	-0.014985476926856799
32	0xbfcad153416a2781	-0.20951309866023496
33	0xbfb46e51e81d163e	-0.0798083488162655
34	0x3fb7708509b578ff	0.09156066405327933
35	0x3fab369a6c4407fd	0.05315096446612697
36	0xbfd2b1a2dae9fea4	-0.29209205034565344
37	0x3fc3d995b3ec3067	0.1550776604202639
38	0x3fe05980920e6a87	0.5109255650198329
39	0x3fd0e89ae00e6b89	0.2641970813798982
40	0x3fe048bde4095f84	0.5088796094741928
41	0xbfe5d83e0d80c93e	-0.6826467765552378
42	0xbfe22b58f782768f	-0.5677914461300179
43	0x3fe05c8a38956128	0.5112963776728394
44	0x3fa206d528453033	0.03520837894993214
45	0x3fd87b6c6188cc96	0.38253316426125517
46	0xbfa7d8ffec96cff7	-0.046577451353556336
47	0x3fdc9cbc5b31419b	0.44706639199741866
48	0x3fdfdd3eb317dc9a	0.4978787182767036
49	0x3fe3419f5dbb6cbb	0.6017605620103476
50	0x3fc67c9aaeba549f	0.1756776192820881
51	0x3fc1edffd84a0954	0.14007566510197
52	0xbfd73047e6a5d59d	-0.3623218300266105
53	0x3faf88885518e7b4	0.061588535678722606
54	0x3fcca77a28ee5555	0.2238609981401775
55	0xbfc18ea66a283707	-0.13716583426906245
56	0xbfb6fcbe18e0d4cc	-0.08979404551867559
57	0x3fa10e52549dfa83	0.03331239016460066
58	0x3fca79a6feb45233	0.20683753430115956
59	0x3fbbc274151a13da	0.10843587413007985
60	0xbfb2c0dd63c0c034	-0.07325538335203491
61	0x3fc1e9a3a8b1ba94	0.1399426053717049
62	0xbfb4c834630d39d8	-0.08117988031629098
63	0x3fc35870a4ba93a2	0.15113647502326183
64	0x3fd05d0fb6885939	0.25568001580667815
65	0xbfc5c9a24ba438de	-0.1702158803313471
66	0x3fc4d860c2e192ab	0.16285333171540137
67	0x3fda3547833dcc9e	0.409501913228448
68	0x3fd4162e6869d3bc	0.31385383793468313
69	0x3f97d0894d3bbe27	0.023256440485907384
70	0xbfa182586b64e147	-0.03419758139574696
71	0x3fb646bb6a85db39	0.08701678610473786
72	0xbf5f6c248fce9afe	-0.0019178731010726642
73	0x3fb8aac6badb9243	0.09635583936648921
74	0x3fd05755962ffa0d	0.25533046404589826
75	0xbfadf8a9051a9421	-0.05853775203039669
76	0x3f8e8b190f5d2b98	0.014913745671625553
77	0x3fce54a386f002f0	0.2369579705118876
78	0x3fc274580b42e244	0.14417553472391564
79	0x3fb95d7e8addef77	0.0990828599005321
80	0x3fc9a8ee1369dd97	0.20046783397604592
81	0xbfe797042e758f21	-0.7371846110731647
82	0xbfd19dfbc1dbe280	-0.2752675431397975
83	0x3fc7f5d7f5bf71b1	0.1871900510731286
84	0x3f9f6d1f9070cb33	0.030689709845499635
85	0x3fd5b527d15f0e25	0.33918185659806205
86	0x3fa0bca82381d253	0.032689337095608416
87	0x3fce4e91c71a85b7	0.23677274915557486
88	0x3fcdc57b171cc8ba	0.2325891363958073
89	0x3fe2266314e5ea23	0.567185917679414
90	0x3fe653df64927f7b	0.6977383579542072
91	0xbf9bc73056eee260	-0.027127032571771514
92	0xbfd0664096e40eaf	-0.2562409852546165
93	0x3fbbf099dd862331	0.1091400304632202
94	0xbfd3aea7876840c9	-0.307535059198028
95	0x3fd392ea3bee7dc2	0.30584197857566775
96	0xbfc4d567209f0871	-0.16276253788788922
97	0x3fd9f1514f4f1a91	0.4053538584234185
98	0xbfa54c7013beda79	-0.04159879914316362
99	0x3fdd85743aebbdd7	0.4612703872107579
100	0x3fdcd10ed460a603	0.4502598833083484
101	0x3fcab7fb9a542f4d	0.2087397101935217
102	0xbfca968d9dedebcb	-0.20771951877017467
103	0x3f9b58d59a3e958e	0.02670606378491907
104	0xbfd3abdd7b17656c	-0.3073648168625229
105	0x3fd3eb2575e7ee3b	0.31122719301467655
106	0xbf46dc083991abef	-0.0006976165924589254
107	0x3fda958da534cdc0	0.4153780091612269
108	0x3f8f916af0bcfde7	0.015414081069706277
109	0x3fdb00bc5f82ad58	0.4219199116439163
110	0xbfda7dfdcbca8fbe	-0.41393990422715976
111	0x3fc5549747c8ad6a	0.16664401059220363
112	0x3fe167330252e131	0.5438475652108875
113	0xbfd10691902a7da4	-0.26602591589650104
114	0x3fca23e442b1f10b	0.20422032600971138
115	0xbfcf13454106236f	-0.2427755897045034
116	0xbf9fcbf143e5ffcd	-0.031051416176978642
117	0x3fc386e07448c7f1	0.1525536124987066
118	0x3f709b8a72180653	0.004054585269388139
119	0xbf71d5448690f3ae	-0.004353778532331027
120	0xbfd1c9531049c4d6	-0.2779128703178463
121	0xbfdd6362052e61e0	-0.45919085031485274
122	0x3fe63cc65053e5dc	0.6949187821293736
123	0x3fcdd8751a09ba9a	0.2331682564867677
124	0xbfe2feebaad80068	-0.5936182343284715
125	0x3fd516658edfa78d	0.32949198677544517
126	0x3fbd287b89341f42	0.11389896487901033
127	0x3fe80c1e12a40ec7	0.7514791835860358
128	0xbfe68ed8ae21134b	-0.7049373055420828
129	0x3fd706030a08bb6d	0.35974193553823036
130	0x3fc1651298b7ca96	0.1358969922726671
131	0xbfda5de619120d28	-0.4119811291531783
132	0x3fc0431b4978bf97	0.1270479305981069
133	0x3fc20eff38a09936	0.14108267083174447
134	0xbfc93bb94bd436f5	-0.1971351261385547
135	0x3fc1495116d16e11	0.1350499497810778
136	0xbfb14ab199e8a5be	-0.06754598624743033
137	0x3fe036ad1679fc60	0.5066743315691262
138	0xbfcc0e8fafd98b3a	-0.219194374908591
139	0x3fc3fb82ddbd202d	0.15611301257217872
140	0x3fb87c735257f08d	0.0956489635499926
141	0xbfd5987c543bd0ca	-0.3374319861025127
142	0x3fdd1cadcd1fd0e6	0.45487542182605833
143	0x3fbea9bbb7e55783	0.11977742423672848
144	0xbfcc14f9f53c54f1	-0.21939014887235644
145	0x3fb0de65917a2d1b	0.06589350511255924
146	0xbfd2abcae45f8d3a	-0.29173538496089046
147	0x3fe35bd80a0274c9	0.6049614139079945
148	0xbfd2e86c99c72847	-0.29543604867342704
149	0x3fc69eb54fbec28e	0.17671839135939077
150	0x3fca7605db1bc273	0.20672677229551403
151	0xbfd0e5212a5592cc	-0.2639849580212228
152	0x3fd840f5db24d3f5	0.37896486664550305
153	0x3fbf8fa4d91e8509	0.12328558254968781
154	0x3fd227b94369e5ca	0.28367454131474956
155	0x3fc809b75d482d79	0.18779651694090285
156	0x3f939667650f7300	0.019128432791933214
157	0x3fdceb76641e013c	0.45187148835249835
158	0xbf88a993718279ad	-0.012042190457859226
159	0x3fbcbfb1a32beab0	0.11230001672439971
160	0xbfd088be9488c512	-0.258346219113336
161	0x3ff40db3c219ae3e	1.253345258907657
162	0x3ff135f80627b314	1.0756759872849146
163	0x3fea5ce4d56df2a2	0.8238395851654625
164	0xbfe6afa86f18dda0	-0.7089426202646116
165	0xbfddc14fc2171e70	-0.46492380098468455
166	0xbfd401a013b87de8	-0.3125992004952125
167	0x3f71040f9bc81073	0.0041542634685392986
168	0x3fc30b48f4ce770f	0.14878189042513454
169	0xc0002f28fadb0b2b	-2.0230273817154703
170	0xbff61751207caf21	-1.3806926030183109
171	0x3fb6b1c610b3a64a	0.08865011127240865
172	0x40047f87a4cb69ea	2.562270438630766
173	0x3ff29469b9790544	1.161233639243009
174	0xbff6b6821c35fea2	-1.4195576765049869
175	0x3ff4b39ef74491cc	1.2938527735615137
176	0xbfd82bffdbb53aa6	-0.37768551307537235
177	0x3fec8b4f136a4d5a	0.8920054797367059
178	0xbfef6c5d46293340	-0.9819780702906442
179	0xbfd080960a31a123	-0.25784827228064183
180	0xbff80e4dfdf979a5	-1.5034923478011504
181	0xbfce3dfa4a4a4f36	-0.236266409182116
182	0x40046b0b389339d9	2.552267496102314
183	0x3ff8b0760af30467	1.5430813243586046
184	0xbff945c0fad0c7ea	-1.5795297429544868
185	0x3ff5d53824b3f159	1.3645554956156813
186	0xbfd5035ffba57b11	-0.32833098959774626
187	0x3ff4f4e0cc87c220	1.3097846974816392
188	0xbff51822e0629d93	-1.3183926358268294
189	0xbfc6783a83c69067	-0.17554408487660852
190	0x3fbbe8f5ea38261a	0.10902344673390765
191	0x3fecfcbf07732d2d	0.9058528085237519
192	0x3fc9f671391dd901	0.2028333214654552
193	0x3ff4cedd7b0a9e9c	1.3005041891391675
194	0x3fb903b8daec0511	0.09771304459356524
195	0xbff17099188925e9	-1.0899897535731446
196	0x3fc01e285f893c30	0.12592034020278353
197	0xbfe250b42a01a425	-0.5723515339315141
198	0x3fea2818ba5ab93e	0.8173946037038957
199	0xbfbb53f8009bc9b2	-0.10675001158578004
200	0xbff24323881cae7b	-1.1413913075329265
201	0xbfba2fd46f84aefc	-0.1022923252355063
202	0x3fe25ad4858fbf11	0.5735876663802363
203	0x3f9aa900f0b3db69	0.026035322848624008
204	0xbfb15857e473169a	-0.0677542622316544
205	0xbfc1d79258f84925	-0.1393912252829718
206	0xbfd3b09eadbd0379	-0.3076550194419308
207	0x3fb2dec6badce54c	0.07371179639894371
208	0xbfead0d99800cc79	-0.8379943817912042
209	0x3fd1e31f35de505f	0.27948742161357204
210	0xbfd6519cce772d49	-0.34873123324060323
211	0xbfb8fdba2bb31742	-0.09762157027134058
212	0x3fe06bdf25a37045	0.5131679282308218
213	0xbfcef4b4e71d2a2a	-0.2418428543554268
214	0x3fc0b2e94eb4cd65	0.13045994132117325
215	0x3fba334073101247	0.102344539729594
216	0x3fc76a1e17c2ef5e	0.18292595062473088
217	0x3fc5839a66af5566	0.16807870878134706
218	0xbfa72acef2e26b95	-0.04524847712419625
219	0x3fc46f4109b014de	0.1596452042869378
220	0xbfcc225bc144c3b8	-0.21979853569930952
221	0xbfb5a5ab63510ae6	-0.0845591657135106
222	0x3fe359eebd3e863a	0.6047280975510099
223	0xbfbfb96b4488dbd2	-0.12392301963050947
224	0x3fcde1bf605366ef	0.2334517689076203
225	0xbfa1363e4286ffbb	-0.03361696779347719
226	0xbfd3713d98bae89d	-0.30378665843057623
227	0xbfb39b440ba96dfa	-0.07658791813576463
228	0xbfc12f0475285aab	-0.13424735756480763
229	0x3f95eb54ec74d2d1	0.021405531818532723
230	0x3fc2feeed2886fa3	0.1484049346917092
231	0xbf8fca7bc668871a	-0.015522925369683405
232	0x3fd64ca07a9d4414	0.3484269330411405
233	0x3fbc07932ee83062	0.10949058432760375
234	0x3fd8750f6f9e0760	0.38214479351164776
235	0x3fa86ee5ac597dcf	0.04772107819439563
236	0xbfbf627cbaba7b21	-0.12259654578018032
237	0x3fbd3b638fed4a1f	0.11418745292511588
238	0xbfbbde142d78cc9b	-0.10885740385201574
239	0x3fc2e864c2dbf8f6	0.14771708979237247
240	0xbfe191d063abdd46	-0.5490495630937537
241	0xbfad9b8b85142d6a	-0.05782733916756906
242	0x3fb7ee2b40019729	0.09347791969920806
243	0xbfd60864660c2f11	-0.34426221814713737
244	0x3fe56186d156bb37	0.6681551064155887
245	0x3fd7fe0ebaff9609	0.374881441703423
246	0x3fd7df0fd5782730	0.37298961493125926
247	0xbfde4bc71533d375	-0.4733751017623072
248	0x3fdbac356ee0c50c	0.43238578632288305
249	0xbfd49e0f95bcf991	-0.3221472704207367
250	0xbfdbde60c17643f7	-0.435447873046598
251	0x3fc14d386bfb96b2	0.13516907951923468
252	0x3fa1fdc777f4973d	0.035139306443211706
253	0x3fbb9d25f7794f99	0.10786664287416982
254	0x3fdfe1e622af92f1	0.49816277873314535
255	0xbfcd04367e6f25c9	-0.22669106648963425

layer2 f8 [10, 5]
0	0xbfd9a5621bcdd24b	-0.40071919169648557
1	0xbfd88aafb26e4534	-0.38346474099042216
2	0x3ff042bbcce2d44e	1.0162923816071898
3	0xbfce9bf28324c849	-0.23913413432598166
4	0x3fdd04ac74a95adf	0.4534102572701339
5	0x3fe8744d5f37a8b2	0.7641970500674431
6	0x3fdcc8b7ad60649f	0.44975082331945687
7	0xbfc9a7f046ee9278	-0.2004375788066175
8	0xbff1cf6bc8af1569	-1.1131399001327174
9	0x3fc04d05bc09f0e9	0.12735053712447744
10	0x3fe93575b7c30595	0.7877758587930425
11	0xbfe2f6ba892a8bd3	-0.5926182440783755
12	0xbff5ec42554025f3	-1.370180447588038
13	0x3fc8374523f10e1c	0.18918670897447576
14	0x3fc2526533bf5ffa	0.1431395056413292
15	0x3feb855ef677e21e	0.8600306333383434
16	0xbfdf6dee5e76f93d	-0.4910846636302216
17	0xbfb40aa1323eacf6	-0.07828719593696917
18	0xbfe24ce9d633cc34	-0.5718888457908009
19	0xbfe9abab50bdc9a1	-0.8022057129840513
20	0xbff27113def49420	-1.1526068410105452
21	0x3ffacb6f232b9325	1.674666535743378
22	0xbfcabe2fae36ed6f	-0.20892902380533537
23	0xbfb024cf3feb3207	-0.06306166944995804
24	0xbfd07d9bd5897ab2	-0.25766654828286584
25	0x3feafc17f748bb88	0.8432731466071894
26	0xbffb1150667c861e	-1.691727066361984
27	0xbfdc761a111d2c40	-0.4447083632591706
28	0x3fe21d3885f8dc42	0.5660669914858618
29	0x3fdb27092ea4f8d0	0.4242575603019647
30	0xbfdf2453f963c2d5	-0.48659228662931514
31	0x3fd33da87d2de96f	0.3006383154348872
32	0x3fbe7dfe3d55024d	0.11911000249256994
33	0x3fcfa004a34b84b1	0.24707086537731507
34	0xbfdf1a6f8c8d36fc	-0.4859885094236771
35	0x3fba339cdbaf8d13	0.10235004771634619
36	0xbff9f9d1fd629cef	-1.6234912774905828
37	0xbfd65e2bfae5889b	-0.34949779035208345
38	0x3fd5301dda59f738	0.3310618049944085
39	0x3fe0fed7ade37080	0.5311087032564643
40	0xbfd59528ec03b2ba	-0.33722899482999547
41	0x3ff222c21ccb70df	1.133485901335966
42	0x3ff1f2eb56acf8f7	1.1218064676064026
43	0xbfe7c9d17684334e	-0.7433860125325766
44	0xbfe6d78e6dea428a	-0.7138130327967513
45	0xbfea1ae4b593cd50	-0.8157828852112434
46	0xbff41b19353296c2	-1.2566158369094613
47	0x3fe9dfc68cea0b2e	0.8085663559180369
48	0x3fe3634b8c8b87cf	0.6058709855099041
49	0xbfe33d136b288a93	-0.6012055485665136
