Crafter-TurtleBot/LF_wo_Fire/results/NovelGridworld-v0_c1_b0_e0.npz (npz, 3870 bytes, 2 tensors)

layer1 f8 [37, 10]
0	0x3fa7e6c4695b2517	0.046682489262432174
1	0x3fe0118abb2401ee	0.5021413474169643
2	0xbfdcb43dbd7ba071	-0.4485010481280432
3	0xbfbe1646d8a48534	-0.11752741612555867
4	0x3fec1d35bfae5041	0.8785656684654058
5	0xbfbbff7b05bc439b	-0.10936707391762328
6	0x3fd171f0a74fe580	0.27257934893676605
7	0xbfec238901d26d58	-0.8793377910218778
8	0x3fd0459beb914ce1	0.2542486000504152
9	0x3fcec46bf92804a4	0.24036931672893502
10	0x3fccd440b0f58e0b	0.2252274383600795
11	0x3fd915e883461d77	0.3919621736499361
12	0xbfd1697beefb599e	-0.27206323946065847
13	0xbfbca9ce92d5478c	-0.11196604809563676
14	0x3fe7a6f65121051d	0.739131124930427
15	0xbfd646a7e5a10a10	-0.34806249069893713
16	0x3fb1adab1749a8e3	0.06905621832416702
17	0xbfe75f8f2117abca	-0.7304149290406425
18	0x3fd06a5919e63da2	0.2564909699367154
19	0x3fbc07c2b5149311	0.1094934169855828
20	0xbfd24df31e835cc1	-0.28600767116354225
21	0x3fe07b13f7f8d607	0.5150241702273782
22	0xbfbfa417b5f6df88	-0.12359760467995617
23	0xbfc09dfdbb2d42c1	-0.1298215068768709
24	0x3fea044585976627	0.8130214318472938
25	0xbfcc716325083894	-0.22221030529221208
26	0x3fb6ad1273c88451	0.0885783703493115
27	0xbfe88c99cf63bbd2	-0.767163186128409
28	0x3fcdf1f4d88f48af	0.23394642423824538
29	0x3fc6b849379a1e9d	0.1774989625448499
30	0xbfcc493645e812d4	-0.2209842530575289
31	0xbf946ae8116bd61c	-0.01993906599360261
32	0x3f8f5741fee9baf8	0.015303149787738488
33	0xbfbfc629dcce6ec7	-0.12411748543530186
34	0x3fa05a723889e97b	0.03194004955453785
35	0xbfc4e7e57211297e	-0.16332691259078652
36	0xbfd6bf64f8a8577d	-0.3554317882820824
37	0x3fc559b88325e809	0.1668005600329823
38	0x3fe86a19598e3e9d	0.7629515408643389
39	0x3fc05cb3039edee1	0.12782895733629743
40	0xbfc71155c997901a	-0.18021652549134687
41	0x3fb3381d35d64432	0.07507498325709674
42	0xbfd148cc33202c03	-0.2700682162546288
43	0x3fda1efe08073bd7	0.4081416204834886
44	0x3fdd4d20034d031e	0.45783233949991764
45	0x3fd029c60808d5bd	0.25254965576763394
46	0x3fb54d722a132f7d	0.08321298148365304
47	0xbfb00642e8bbe963	-0.06259554082854417
48	0x3fdbc84337373e96	0.43409805671851964
49	0x3fd3d218b8e4f2a5	0.3096982770546595
50	0x3f8e9c1990c045d2	0.014946174364044138
51	0x3fd38859f37c3043	0.3051972272667209
52	0xbfbbc84926350c4b	-0.10852486784737995
53	0x3fb04dd64e7e3c7a	0.06368770042739583
54	0x3fc65758c9d315f9	0.1745406136962371
55	0xbfc3651d22df480e	-0.15152324869865236
56	0x3fa946fa1858502b	0.04936963603191232
57	0xbf9117d7be46646a	-0.01669251536222697
58	0x3fc70ea6bcbffcb8	0.1801346227293601
59	0xbf4f20ce133313ef	-0.0009499555802895391
60	0xbfd31af0a4dab9dd	-0.29851928805410727
61	0x3fcc8578c6310690	0.2228232352954831
62	0xbfafdb903f140ed2	-0.062222011280054126
63	0x3fb34d3edf7a0af1	0.07539742427801933
64	0x3fd53b46077a4de5	0.3317427704834855
65	0xbfcc077741f992b5	-0.218977839674286
66	0x3fd2a6b9b20db6f1	0.29142610919994555
67	0x3fb9e7d345418d0f	0.10119362297841782
68	0x3fdde826f79b52b9	0.46729444675774406
69	0xbfaac2a6c993ea1a	-0.05226632319132225
70	0xbfd4efcdb0024f9d	-0.3271364420736463
71	0x3fad084bdb9c05e0	0.05670392089633558
72	0x3fb71baaa327c0a0	0.09026590808184887
73	0x3fb14b5a4d62455a	0.06755604161505371
74	0x3fcfc4afa878c5a0	0.2481898853889506
75	0xbfad7f85f4811fc3	-0.05761355027840367
76	0xbfbe0b11d77aa4e9	-0.1173564101287813
77	0x3fc6366ce314630f	0.17353592956421734
78	0x3facf73bcd486275	0.0565737426842973
79	0x3fa14af63c322cfb	0.03377503857435645
80	0xbfbb5a012e3939ed	-0.10684211138252638
81	0x3fba2c7209c6689d	0.1022406839241818
82	0xbfe11bd1ff618f5c	-0.5346460330879199
83	0x3fd8a08fc896eaf1	0.384799905670362
84	0x3fe1c1b379393d40	0.5548951499603518
85	0x3fd76e3144ca6418	0.3661006137641052
86	0xbfbd3ebfdc2c0dee	-0.11423873067183596
87	0xbfe8f3d02b0e16d3	-0.7797623482626598
88	0x3fe3fa0f000f9d7a	0.6242747307959882
89	0x3fd53bebf8d09b56	0.3317823343117444
90	0xbf97072b5677864c	-0.022488286163826296
91	0x3fb48c56b6eb24d5	0.08026639905723994
92	0xbfe6fb8fd86c84d7	-0.7182082392720542
93	0xbfc673cf2c5b8d64	-0.17540921846294133
94	0xbfafea446590dad4	-0.0623341917020547
95	0xbfced38918b9300a	-0.24083055216976873
96	0x3fb0007dc586aba4	0.0625074965707158
97	0xbfdb951b5a2dfdae	-0.4309757595692315
98	0x3fc54c268b753d82	0.16638643083068066
99	0x3fb74ec0ec09ed17	0.09104543459573154
100	0xbfb620daee0e5deb	-0.08643883048932081
101	0x3fc843e21e51fb71	0.18957163315277684
102	0xbfe48196c0ae2982	-0.6408189547812955
103	0xbfb908ea4a7af949	-0.09779228514068906
104	0xbfc0bf7d8309196c	-0.13084381960124902
105	0xbfcce884fcf776d6	-0.22584593154799987
106	0x3fb8f146dd7505f5	0.09743159205120107
107	0xbfdf3762320497e4	-0.4877553451973411
108	0x3fcca6024d6c2326	0.22381619243994882
109	0x3fba536ea93a0136	0.10283557540424657
110	0xbfdaf8ce1f66d35b	-0.4214358622223721
111	0x3fcce8f0cb3d573b	0.22585878299531167
112	0x3fec67b63198a8b5	0.8876601189306458
113	0xbfc283c38000ca72	-0.14464610815192064
114	0x3fcaaf6cdb20166d	0.2084785528133354
115	0x3fb73a9d647de982	0.09073814109243553
116	0xbfa63f49e4d50e1b	-0.04345160406458267
117	0x3fd89c9e3be6af67	0.3845592102977577
118	0xbfb6340dc89be54f	-0.08673177859954716
119	0x3fbc4729d6642617	0.11046086773071583
120	0x3f8d906e62d71e50	0.014435636893622178
121	0xbfe54a846f0e2941	-0.6653463524865303
122	0x3fd7220a76d2c546	0.3614526901611338
123	0x3fd4b4fd64c1ed14	0.32354674186326915
124	0xbfed18b2fe6c0d44	-0.9092650384122085
125	0x3fd93b5ae734063b	0.3942477472156473
126	0x3fd43da7499c5fdc	0.31626302898939485
127	0x3fe70c77b6812839	0.7202719273129851
128	0xbfeb0131e8682065	-0.8438958682245469
129	0x3fe043ef7259aa5a	0.5082928880122595
130	0x3f74554271a83c00	0.004964122339983668
131	0xbfd70caeaa0cdcfe	-0.3601490650793976
132	0x3fc02e1790e1a4f7	0.1264066178730798
133	0x3fd13fc40ecb1869	0.26951695866262654
134	0xbfc5bc0a6668cdc8	-0.16980104446848387
135	0x3f63c7962baa42fe	0.002414506246460112
136	0xbfa93621e8f20f17	-0.04924112289975662
137	0x3fce42601245f0e5	0.23640061275717197
138	0xbfbbae4c40a97757	-0.10812832430516771
139	0x3fc3be40d7a7df20	0.15424356966081465
140	0xbfc809357df3a9b5	-0.18778103494635237
141	0xbfd3d150e9284257	-0.3096506382871999
142	0x3fd17bf552a13c66	0.2731908137256539
143	0x3fcc4f72692c83e1	0.22117452750629155
144	0x3f93ccebb65581a0	0.019336398128304233
145	0x3fb9b619755b5e2e	0.1004348670497783
146	0xbf9190af2111e39f	-0.017153488534379254
147	0x3fd81b06f9590f18	0.3766496119535403
148	0xbfb516c14a0bf01f	-0.0823784642961418
149	0x3fc394b1859484bb	0.15297526380985524
150	0xbfcbf60a3344a22a	-0.21844604018521468
151	0xbfd993c372e828d1	-0.39964376660703943
152	0x3fd3e315ae6123fe	0.31073514966243454
153	0x3fccf3f0b0ee9246	0.22619446410421257
154	0x3fcd282809a128bd	0.22778797598068037
155	0x3fd4b2d4f8d5274e	0.3234150342947161
156	0xbfb0ca852d2c92ea	-0.0655902133262988
157	0x3fd8f6ad21c2d471	0.3900559262941164
158	0xbf95351a603366a1	-0.020710384484891823
159	0x3fad2bca5013205a	0.05697471835588948
160	0xbfb00ac9b080120b	-0.06266460951889756
161	0xbf8a622b90bcd4ff	-0.012882557253400593
162	0x3ff3ed481a2269ce	1.2454300900341084
163	0x3feb1894a7dbbec8	0.846750572060011
164	0xbff27ab700de9880	-1.1549596818890961
165	0x3f7d22c6ca5dc36d	0.007113243604053615
166	0x3fa091e41a65c7b9	0.03236306020961827
167	0x3fe7b18ea8f14699	0.7404244708688622
168	0x3fc78857c6aa2bb4	0.18384835434366453
169	0xc001372aa994035f	-2.151936840848449
170	0xbfca79e7ae0099d3	-0.2068452453251682
171	0xbfdeaecc7e14da9f	-0.4794188720001475
172	0x3ffbe5aeb97a6a02	1.7435748334161194
173	0x3ff12d21bec40726	1.0735185100351798
174	0xbff5f2f75da26399	-1.3718179376212218
175	0x3ff2c677744c5209	1.1734537642379357
176	0x3faab40c26ad6651	0.052154903146128924
177	0x3ff311376af7aea8	1.191703241197425
178	0xbfe937ecf49b9245	-0.788076856374183
179	0xbf937c5fc7da2823	-0.019029137204178547
180	0xbfd424584440cd23	-0.3147183100256418
181	0xbfec1ff3197b68bc	-0.8789000985809916
182	0x3ff646f60462fd0b	1.3923244639734687
183	0x3ff7c46b2b39a81a	1.485453766678353
184	0xbff97e14e3110d08	-1.5932816381253492
185	0x3ff1deca0d10abf3	1.1168919096332928
186	0xbfcb02bb74fb8f62	-0.21102088176769046
187	0x3ff63f68cc8ec632	1.3904808035407652
188	0xbff0960434061476	-1.0366251022508357
189	0x3fbff94725f509c8	0.12489742924393632
190	0x3f6790b10e9738a3	0.0028766115326340365
191	0x3ff27264705afc3a	1.1529278172381638
192	0x3fd7dda5d2dae362	0.3729033049708531
193	0x3ff1b803240d728e	1.1074248703290865
194	0x3fe014813a608341	0.5025030269790492
195	0xbff70ee0e0d27a37	-1.4411324293247512
196	0x3fc4adaafbc823d8	0.1615499238398843
197	0xbfe42a7331a3e53d	-0.6301818818603021
198	0x3fc7b87aba52a4a4	0.1853173646716516
199	0xbfc5cddca2522148	-0.17034490514584832
200	0xbfb9274e0c891d05	-0.09825599485440158
201	0xbfdfdebc6bd0d12b	-0.4979697277915586
202	0x3fdbe974e960e236	0.4361240653120463
203	0x3fc675692e623df1	0.17545809521514813
204	0xbfec83582adb3576	-0.8910332524334723
205	0x3fb4be94fa78b280	0.0810330497267362
206	0xbfc40b6b41f4234a	-0.15659847946542477
207	0x3fee1e7a8a234d96	0.941220540810195
208	0xbfeb3e205ad04291	-0.851333787317417
209	0x3fe61b68efb6fe78	0.6908459360056005
210	0x3f985bec9ae45a24	0.023788163141114663
211	0xbfcf7945d1de0003	-0.24588845012112878
212	0x3fdf9e194101c90c	0.4940245756944399
213	0xbfc592c68cb4aae5	-0.16854173536679365
214	0xbfd296073c0b6927	-0.29040699828842026
215	0x3fd45a5f6b5b2049	0.318015913810545
216	0xbf809ba21c9aaca2	-0.00810934686463433
217	0x3fe11ec687044e6e	0.5350067746207523
218	0xbfc07da4625a4715	-0.1288342933881316
219	0x3fce461150697122	0.2365132944713731
220	0x3fc38b34bbcdd6f4	0.15268572969551253
221	0xbfd220f8d22715a0	-0.28326244852754634
222	0x3fdd21f68596091e	0.4551979355384378
223	0xbfbebb4cc93067c4	-0.1200454703506742
224	0xbfc7ea5d24f54ffe	-0.18683971695520535
225	0x3fd78dd143bc3f83	0.3680308495977373
226	0x3f82e2f2ddd871c4	0.00922193278807349
227	0x3fdbebe5db7f8f81	0.4362730639970707
228	0xbfd3d4f5cbef529a	-0.3098730556060133
229	0x3fd08cbe5fa0cee7	0.25859031046569075
230	0xbfbc4cc8c8fb9996	-0.11054663569266263
231	0xbfc47e76a773a417	-0.16010935951570168
232	0x3fd5252c4eeac07b	0.33039386469591364
233	0x3f9cc5e67cf3995e	0.028098679901540684
234	0x3fbf36b1c2fc3032	0.121928320030009
235	0x3fd300ff57854be1	0.2969358782476644
236	0xbfcaa62920d1429e	-0.2081958208314249
237	0x3fde2446957f1faa	0.470964094155074
238	0xbfca77ba396da2f1	-0.20677879146685244
239	0x3fbd6422ee936507	0.1148092110119202
240	0xbfa4e63e1fd26a45	-0.04081911219073623
241	0x3fa857e45a344ce6	0.04754556275488557
242	0xbfd593a052f46a99	-0.33713539219903904
243	0xbfc9bc7e92394af3	-0.2010648931487463
244	0x3fd3509c752c25ef	0.3017951149236912
245	0x3fde73647f0feb6c	0.47579300316254236
246	0x3f8ec418b987f2ea	0.01502246204562981
247	0xbfd2a417c4faa3fd	-0.2912654327033691
248	0x3fe063d281ca76fb	0.512185338495072
249	0xbf81ec5cf9097c7b	-0.008751608228690913
250	0xbfd03e7a8622b329	-0.2538133916776127
251	0x3fd2640fafc8667b	0.2873572556141892
252	0xbfc33d113aaa7a2a	-0.15030112614199825
253	0x3fd1c2ef6ed58091	0.277522905575105
254	0x3fcda8287893e372	0.23169427764494405
255	0xbfc72292783dde31	-0.180742558204416

layer2 f8 [10, 5]
0	0x3fc5dbd1690303f7	0.17077081325081142
1	0xbf91dbdb8671c8eb	-0.017440252381171566
2	0xbfae0fa950a92ec5	-0.0587132369006134
3	0xbfd7bd10e51155b5	-0.3709146725644488
4	0x3fc87ab91c43c63c	0.19124521141161377
5	0x3fd1b3c9f0852e2d	0.2765984391050747
6	0x3ff56308f7bbd86b	1.336678474149745
7	0xbfe69f5fc67b68b5	-0.7069548489191876
8	0xbfeda5d9fbcfcf06	-0.9264955442617697
9	0xbfc150c3db131d06	-0.13527725407605135
10	0x3fe11da7b0fc9a23	0.5348700005313883
11	0xbfd736128fb61650	-0.3626753238134812
12	0xbff3453b7241eb76	-1.2044023955520209
13	0x3fbaebb249e691b2	0.1051589422627959
14	0x3fcb8882ec502db5	0.21510349787454933
15	0x3fe7cb8ae4858368	0.7435965026198632
16	0xbfc826a45e69faee	-0.18867926225717419
17	0xbfd9f38fd908ff13	-0.40549083895528887
18	0xbfe19d2b7c033cb2	-0.5504357740518542
19	0xbfe53e7c47193bba	-0.6638776196140193
20	0xbfefba5c4af840a2	-0.9914990867855702
21	0x3ff864fee868bbd6	1.5246571615677929
22	0xbfe052ca4d603bb3	-0.5101062308548222
23	0xbfa49df0e7b5b741	-0.040267494473353434
24	0xbfcea35654906ec3	-0.23935965661154598
25	0x3fe30df449711722	0.5954533991250381
26	0xbffa07db00ed171f	-1.6269178425004112
27	0xbfd6663660ab2bfa	-0.34998855057045797
28	0x3fd9582c1546492b	0.39600660398095283
29	0x3fe2ab797335fc3b	0.5834319353306293
30	0xbfe29000db05a37f	-0.5800785329603143
31	0xbf73d6de3adbde20	-0.00484358604966631
32	0xbfbb7872adb7207c	-0.10730664006325868
33	0x3fd9f8cc713ba377	0.4058104615965514
34	0xbfe02117840945be	-0.5040395335037642
35	0x3fcd87ef8dd0df1c	0.23071093010525423
36	0xbff6eb81bfefcc1e	-1.4324967858817739
37	0xbfe9eba2aeae50fd	-0.8100140964257033
38	0x3fd91d603151ca68	0.39241795364720256
39	0x3fe023e8421df011	0.5043832103106088
40	0xbfe36b55c69600e8	-0.6068524244911062
41	0x3ffebdebf1636902	1.921367590830926
42	0x3fd412ee62c6117d	0.3136554684245068
43	0xbfe27dc823507094	-0.5778542222719971
44	0xbfe2f436e3334f29	-0.5923113286503155
45	0xbfe1855b95b26ce7	-0.5475290225762394
46	0xbfe369117b781cfd	-0.6065757190234816
47	0xbfc23fac4b4c4b39	-0.14256814648305197
48	0x3fee89f379dd4ad7	0.9543397312321201
49	0xbff2d2c0432fe46b	-1.176452887010124
