Crafter-TurtleBot/HF_wo_Fire/PG/results/NovelGridworld-v0_c0_b0_e3.npz (npz, 11774 bytes, 2 tensors)

layer1 f8 [83, 16]
00000000: 4458 95c2 8116 c13f 00c2 8161 60c0 c03f
00000010: 1f2f f831 3e6d c7bf 8521 c279 43f9 75bf
00000020: 69b4 96cf 60c7 bc3f 0256 d8cf 421d b7bf
00000030: 9525 1adb fdd7 e33f 618e 617b d747 b6bf
00000040: 1fbf 88a1 a2e0 e03f 6df7 d1ef 71fa e2bf
00000050: 6e32 4de9 e502 c03f 7fc0 67ba f3b9 d6bf
00000060: 966e 9d27 d679 d43f 103a 5649 ebe2 e13f
00000070: 9dd2 0d73 60e8 bc3f ebba 8e3a 7614 d03f
00000080: 5613 c7cf 456e 843f 62a9 f2ac 47bf cd3f
00000090: 609e 7a11 5f38 ca3f b8eb bebf dc34 683f
000000a0: 1779 10da fca4 c3bf bf01 ea7f 7a35 c0bf
000000b0: 152f c35f 7c3b c5bf e574 7f4a 83f6 cf3f
000000c0: 58b9 e93d d782 e0bf 85e2 8376 78b1 c73f
000000d0: 931f cee8 d308 a23f 0c98 57dd 5265 c1bf
000000e0: 31c7 6648 2adc a93f 4849 be19 01ae e2bf
000000f0: 4cbf 12e0 e024 ca3f e51b 28b4 48ae e0bf
00000100: ba3e 18c0 bf0b 9bbf 60b6 14f4 31ee b33f
00000110: 5e37 ebbd ae15 c73f 9e90 2546 4bc4 b2bf
00000120: 56f9 99d4 e1e4 9a3f 4422 517c 29c4 b9bf
00000130: d91e e647 4f4c 96bf b0de 9192 57bf bc3f
00000140: de04 2dff f6e6 e4bf 5cd8 2f9b bef0 be3f
00000150: 730a c31d 547f b23f 4097 451f 2a76 c03f
00000160: 9aef ba1d 76a5 d3bf bcad 966a 55c1 e4bf
00000170: 0350 8302 1bcd a83f 02c8 d267 0254 cabf
00000180: 8d0d 0a25 e217 d13f 159a f454 9906 c13f
00000190: fa22 0ce9 cd01 b83f 9e95 6af0 96d4 d3bf
000001a0: 7584 7ea7 364c b5bf 0fb0 7897 9b42 b0bf
000001b0: 29db c4ab 6c4c e9bf 10aa 8d8c 4360 b5bf
000001c0: 3118 f3b3 b242 f5bf 0f0b ee2e 51f4 e33f
000001d0: 817f cb10 d021 b0bf b1c5 e0ea f035 ce3f
000001e0: 41b2 cdd7 a12a f2bf e087 b87c 1a27 ebbf
000001f0: 716c c807 bf8c 813f 9a49 0205 63c0 94bf
00000200: a46a 8ec5 008f af3f b0dd 14c1 66e7 c63f
00000210: c53b 39a6 9624 c73f 9a9d d759 e80a cf3f
00000220: 5d6c 5cc4 bb62 d43f 1fc8 1d5a eef6 b33f
00000230: 0ddf 4580 198e 9a3f b3b8 7802 aac0 b2bf
00000240: 22d6 a88c 961e dd3f 8acf ee1c bc66 e1bf
00000250: 875f c5d7 2fe2 bc3f 3dc7 ff4b 914f cfbf
00000260: d9d2 2ff7 5dd3 ce3f 7d9f c57e 904c e03f
00000270: 9db3 9635 7cd4 b83f a376 a163 c89a c83f
00000280: 0e10 b32c 5414 8b3f 3b05 8e74 c5d0 d63f
00000290: 00cc 71e5 4702 c93f c7a2 62b6 11cd 6a3f
000002a0: 6b84 7c38 08a0 ac3f 1266 ba70 7b39 c6bf
000002b0: c577 1de7 90df a3bf 8932 8725 0d06 c03f
000002c0: a310 da8b 35b4 d1bf ec6d 3640 a91d d83f
000002d0: 1bdd da30 7209 ce3f 1c01 8110 2cc6 bebf
000002e0: 5322 6c28 b7a5 aa3f 631a 6f28 5f62 d2bf
000002f0: 3374 8cb4 9b95 c43f 271b 3132 4429 cdbf
00000300: 710b d80d 46ad 9fbf 5ede 367b 1de9 b03f
00000310: 0f01 eb05 0cfd 5b3f 94cc 5e19 b088 c33f
00000320: 8fbc b7b7 bca7 a5bf 20fb ed28 341f a0bf
00000330: 1567 d152 3b34 c7bf bc4f eb55 3fb3 bb3f
00000340: f113 20d1 e4f9 e2bf 13ff 6b2a 7361 d33f
00000350: fc4e 36b7 d684 9e3f d557 ee56 f597 cfbf
00000360: 6269 9839 5d2e d8bf ff9f d859 847e debf
00000370: 0c91 872e 6e73 ad3f a4ed c9ba 0a7e d0bf
00000380: bfc0 0f38 c3c2 ce3f df1a c158 fd93 b7bf
00000390: 6f15 d2e0 dd25 a6bf 383b 1598 d6e4 d0bf
000003a0: 4899 9203 6511 b93f 0686 d0f9 e80d d2bf
000003b0: b59c 699a 0bd8 d0bf 83eb ff86 67fe b23f
000003c0: f84c aec6 da87 e5bf a81f 1f79 b9b9 dc3f
000003d0: 8a94 9f8a 922d aebf 75a7 a0a3 ee3e d33f
000003e0: 0e14 0028 9484 e2bf 062e 0fbf 9b42 d1bf
000003f0: 1e8d 1daf 43e5 b0bf 1dc3 2537 0192 c93f
00000400: 7b01 77c5 ac14 aebf 0530 394f 690e d73f
00000410: 5b30 1850 c0f7 bf3f bc00 76cb 1eaf a53f
00000420: 30c0 988f e958 aabf 3a5d 7497 9452 c13f
00000430: e1bd 22cc 353c b43f 4769 b1cd 5d47 a53f
00000440: 3a53 42d2 88cb ca3f c944 48df 2f00 d6bf
00000450: 879d e304 8978 ca3f d237 f4a2 5392 9abf
00000460: aef7 0593 909e b13f a414 37b2 b4f2 bf3f
00000470: 0c2b 44e1 1bdd c33f 0611 75a0 f49d a23f
00000480: 8667 535f e835 ca3f 4efd 03a9 f09e d73f
00000490: e674 d9fb 6f84 c83f 37a4 d2f7 990f a93f
000004a0: 1f30 0d14 d567 a33f 5abf 1c97 4662 a93f
000004b0: 7d5f 6fb1 68e7 bf3f 8376 17cb bda3 cabf
000004c0: a004 a923 5845 a23f 7ff8 b924 9f88 d03f
000004d0: eeab 7ff4 6c76 c13f 2e06 6134 69dd a4bf
000004e0: 5248 4445 d882 b33f c286 7c7c 77e8 6dbf
000004f0: bbdf 2b80 d7e7 a8bf 5d00 defd d0bd c2bf
00000500: a1b2 be17 5e2e babf 86d6 759b 062d a13f
00000510: ae79 e951 ce64 b13f 1c1d 2eb5 9a52 b2bf
00000520: 6709 e3fe f7b1 b73f a444 10e9 09d8 c7bf
00000530: 74c5 775b 80f8 b13f 5606 d77e 70bf 973f
00000540: 9eda 27bf bf39 90bf 4acc 085c 1a16 623f
00000550: e47b 3127 ed98 bdbf 4e50 e184 7698 b5bf
00000560: 6390 b0df 7a21 c63f 194b afae c9fa c9bf
00000570: e4dd 2493 526c be3f bf98 53ff 43b3 c7bf
00000580: 6db3 a453 3fdb c53f 54f7 5fbd 8d16 c0bf
00000590: 812d 60db c029 c7bf a12b e758 c3fc b7bf
000005a0: d2c0 f137 402e babf 2273 fed3 fa78 acbf
000005b0: 3de6 ed20 31f0 7ebf bc33 0983 9aa9 7cbf
000005c0: 0a10 6126 c8fe cabf a4e3 0eed 135e d63f
000005d0: 5a13 09a0 e18d cbbf cc86 c4a6 8c71 ba3f
000005e0: bdd9 b022 aa84 b5bf d220 015d f159 bcbf
000005f0: 478b ac14 31b4 a63f ddb9 8e8c 64c8 d43f
00000600: 61a8 68e6 2d62 d13f 35ae f5aa e9df d63f
00000610: b2cf 06e8 71b6 cf3f 83d0 e0ff a1bd bebf
00000620: 3b34 9c8a 27bd c43f dcb0 3c5c 6982 c23f
00000630: 63fa 89b1 85a8 bc3f 1e7e 7b15 5593 c43f
00000640: 145a 7f30 337d adbf 5860 ffd0 1c17 7e3f
00000650: 787b 78fb cf11 b73f b626 9622 7d7c bc3f
00000660: bcb1 7e86 908f b8bf f83e 8a32 bd85 c7bf
00000670: a528 0ef4 eced b5bf a69a db46 538c c3bf
00000680: 52ae 6fb0 a555 b8bf 3a37 b3da d355 e23f
00000690: 10d8 ff14 b978 b13f 3813 d2cf b0e6 cbbf
000006a0: bcb4 1faa 3beb c73f 105d bc85 acd5 c1bf
000006b0: b07a 0a9f 171a 85bf 745f 1085 17ca b23f
000006c0: 8521 a75f 1b54 c43f efc1 49cc 2dab b93f
000006d0: 4e80 c489 ac69 c63f f2b5 248a 2b8b a6bf
000006e0: 4c36 1b59 912e d33f 7ca3 1876 d98f cc3f
000006f0: 5ea8 0139 8c9f ae3f 8f28 27f2 113a 9ebf
00000700: e59a 5af4 0dee c2bf 56f2 fe09 62c0 de3f
00000710: f5b1 7b16 c9fb c3bf 7541 4057 5424 a9bf
00000720: 4651 3367 2dda afbf 8a9f d94b acf5 c9bf
00000730: 712c f893 59d3 903f f52a 1d37 b0a8 b03f
00000740: f874 7ada e4a0 bb3f ce18 27ca eefa d83f
00000750: 87d8 2bac 4d95 c2bf 56fb c779 1c15 c1bf
00000760: f666 2c34 f21f a9bf 6231 451d 1d02 72bf
00000770: 84c2 edd3 8d93 a33f 2204 9526 db47 b63f
00000780: 3972 5c00 7d0c b73f 4073 519f 7cc5 b5bf
00000790: 7e6c 3a20 da01 c5bf 7d7d de8e 7fb9 8bbf
000007a0: 5331 fef7 488d ac3f 5e6b c51c 3c0b aebf
000007b0: a638 41ad 6eff a03f 1533 d3a2 423b 9bbf
000007c0: e5e8 56c6 89df b63f 41a6 220f 1e0a a4bf
000007d0: dd7b 0d4d 061b cebf abb2 7fa4 ddfc c43f
000007e0: 82c7 0d1d 0189 dcbf 6ee8 e2fb 2a91 bf3f
000007f0: d508 1135 904b bbbf b9cd e689 7d64 c13f
0.13349935532704837 0.13087086449696983 -0.18302133026042441 -0.005364669396051962 0.11241726940234432 -0.09029023718206733 0.6201161650980561 -0.0870337177489602
0.5274212985004602 -0.593071907423775 0.12508844272305758 -0.3550996132244179 0.31993631237649234 0.5589500839576562 0.11292078789649414 0.25124889105329257
0.009975953486795735 0.2323999018165735 0.20484531739679124 0.0029548942092935924 -0.15347252509759166 -0.1266320347385896 -0.16587786365413906 0.24971047532645865
-0.5159717759359337 0.18510347163080013 0.03522360054836251 -0.1359046536228451 0.05050785192305652 -0.5837407591628017 0.2042504400355888 -0.5212749022183486
-0.026412006473093476 0.07785331925398387 0.18034919999484605 -0.0733077093369183 0.026263741112864857 -0.10064944539147641 -0.021775473368989082 0.11229464844097481
-0.6531939491179874 0.120860970389772 0.07225537993057589 0.128606095570996 -0.30697396186200765 -0.6486003000076646 0.048439830834155394 -0.2056887633276006
0.26708272568813457 0.13301388405052764 0.09377753200181962 -0.3098504398170351 -0.08319417561735228 -0.06351635406525723 -0.790579162107723 -0.083500119986333
-1.3287837056427743 0.6235738674734835 -0.06301594171554649 0.23602115124371673 -1.1354082517456308 -0.8485233722642498 0.0085692333460001 -0.020265147381516614
0.061637901416550706 0.1789368098049926 0.1808040916098134 0.2425203741724829 0.3185262124622506 0.07798661899667579 0.025932692007216086 -0.07325232086506865
0.45499194847374913 -0.5437908711523829 0.11282633798452767 -0.24461570940871438 0.24082541055363185 0.5093462444319666 0.09699226673428858 0.19222359528332786
0.013222367872352005 0.356492389510169 0.1953821058592382 0.0032716127344268628 0.05590844811946102 -0.1736292171888612 -0.03881504842023235 0.12518467266490443
-0.27662409455684606 0.3768103720737759 0.23466327081198632 -0.12021136668136417 0.05204555862843976 -0.28725413273460826 0.16081568065502125 -0.22782185030720223
-0.030934424014059162 0.06605705507433288 0.0017082803166630944 0.15260888327393174 -0.042295358110885244 -0.03148806571606699 -0.18128148597571028 0.10820384833942759
-0.5930046162108039 0.30282286780128337 0.02980361455190826 -0.2468249010532292 -0.37782984375521356 -0.47647198461572765 0.05752128904330975 -0.2576929878339007
0.24031868207339888 -0.09210189263204026 -0.04325765008347104 -0.2639671788391982 0.09792167031500754 -0.2820990027995268 -0.2631863601622613 0.07419440313235097
-0.672833812759932 0.4488357241466425 -0.05894144003085795 0.30071607569936215 -0.57868392765579 -0.2696904531300962 -0.06599829697875179 0.19976821129559932
-0.05875148687801165 0.36025459992083625 0.12487413363868553 0.042351686798612204 -0.051459597376720345 0.13533265490762308 0.0790437339189718 0.04156010757351907
0.2093363787322689 -0.3437614136210639 0.2068034433243435 -0.025948817082330163 0.06882575597225468 0.12479714728313468 0.15518520831422966 0.03636135538775602
0.20477013258533477 0.3690759325545131 0.19154166982017456 0.048947154523667206 0.03790155286569096 0.04957790941841607 0.12462477046881122 -0.20812199036202025
0.03568530497842315 0.25833872400824726 0.13642656267560888 -0.04075173153297516 0.07621528330881347 -0.0036508878437338807 -0.04864381255714486 -0.14641773601397548
-0.1022700126620273 0.03354664466580197 0.06794442653470043 -0.07157294200270709 0.09255933735679421 -0.18628047828727745 0.07019808037855119 0.02319122099084433
-0.01584529499265363 0.0022078051408925036 -0.11561472136371226 -0.08435765022415007 0.17289672777508533 -0.20296593694237045 0.11884037105925632 -0.1851582524024646
0.1707533987440927 -0.12568828341312133 -0.18096171104148698 -0.09370060844882612 -0.10226823201969928 -0.05561050260369017 -0.007553283604346425 -0.006997684061002592
-0.210900324573345 0.3494920554181198 -0.2152673751280883 0.10329512664295776 -0.08405555102294833 -0.11074741860022932 0.044343503736192384 0.32473100401230487
0.27161738873349434 0.3574165505912988 0.2477552779142776 -0.12008106705690307 0.1620225359733086 0.1446048450828873 0.11194644531676938 0.16074622677750566
-0.057595824880696395 0.007346260608720533 0.09011554612560058 0.11127454847715054 -0.09594062121931918 -0.18376889198088242 -0.08566170652753387 -0.15271988830428035
-0.09505687291646694 0.5729769965634894 0.06824833643608508 -0.21797762057772174 0.1868662434275502 -0.1393333104140102 -0.01030367330650725 0.07339617727882147
0.15881673975514957 0.1002682327032358 0.17509991385395768 -0.04403053342171494 0.2997172708681759 0.2231399370805568 0.0598110026920302 -0.029518394856304083
-0.1478898471006779 0.48049212433014554 -0.15612138364612319 -0.04910529675555867 -0.06221143612643458 -0.20280984595887858 0.016431235939347425 0.06507397981219383
0.10792379697746302 0.3903157209537199 -0.1451813784294169 -0.13345676370951293 -0.049071854466275086 -0.004396547057990171 0.03823512279530397 0.08703393642373716
0.09003430613342624 -0.08504465951541551 -0.16411902021068053 -0.013537403628844253 0.0557654192662961 -0.05867946482859197 0.03319879403044128 -0.026593247592972952
0.08934842197678312 -0.039139689776970694 -0.2351997257455584 0.163966851541223 -0.44586208188331267 0.12330883645600618 -0.10662175460405206 0.13587922318911952

layer2 f8 [16, 5]
00000000: a619 8cec 9776 d9bf b10e 6146 5fcc a7bf
00000010: fbc3 eb70 1def d23f 8d4a 03b6 8550 86bf
00000020: e061 5bdc a389 d53f 2e08 ab55 ecdf e6bf
00000030: e99b 2b79 0262 cc3f 524b ac36 7abd d03f
00000040: 675a fc76 5dfc ce3f 4128 34e3 5a79 a2bf
00000050: 8b75 ed36 192a d9bf e9d0 f298 91a4 b4bf
00000060: 76fe 477b cb5d d03f 8797 e1c1 11a9 b23f
00000070: d04f 7560 6eef b5bf b5bf 1db9 b948 e93f
00000080: 6218 795d 4a05 e6bf 9699 0f86 a833 973f
00000090: 4513 efc1 0e75 a2bf 7445 c174 2cb7 d0bf
000000a0: 8476 6f84 9384 cdbf ba25 0309 c880 e03f
000000b0: 02f1 08ef e47b e03f da03 c6e8 141f a3bf
000000c0: 29d9 3c1f 98be e5bf 112d 8b15 ee73 ae3f
000000d0: 6fe8 60eb 0a5d dabf 0e2e 501b c42a d3bf
000000e0: 8881 367f 7483 dabf fb66 e020 43a0 d43f
000000f0: 8719 404b b80e e7bf 0ef6 4fa5 bc44 e23f
00000100: 0012 f5c9 5ab9 bb3f cde5 58e4 a54b c1bf
00000110: b3b8 dbf0 4c7f a73f c505 779c 5ab3 a53f
00000120: b836 197b 4f6e d9bf e8a7 6c85 d045 e03f
00000130: 46ed 4727 ec3b cd3f 999e 0b0d e945 c1bf
00000140: 7ab1 eb29 807c d0bf 607d 4ca5 19e5 ec3f
00000150: b6e0 5e39 e5c2 e2bf 2a6d be27 2774 a63f
00000160: 31a0 2943 bbb9 da3f 3114 4d8e 3fe4 efbf
00000170: 7d84 3adf 503c e93f 7eb9 3d61 7650 e6bf
00000180: dcce ec62 a1ff dc3f 7041 4034 bb74 a8bf
00000190: 0597 8f09 2eae d9bf b0e7 ddb2 5d00 7b3f
000001a0: b85f bfa5 9fbf d83f 8f42 6cfb 105e c6bf
000001b0: 1c3a 1df8 ee29 e4bf 9a66 96af d9e2 cfbf
000001c0: dee9 719e 099d dcbf 00d4 8ffc bc63 c03f
000001d0: 66c6 f334 b53d c3bf a83c 47a7 2918 e73f
000001e0: 934f 77c1 f5b2 e7bf 2da6 3654 2352 de3f
000001f0: 7f84 0915 b90a d7bf 5c07 0e52 c5fa d73f
00000200: ed4c 6899 8613 cabf 7788 0b48 6def f3bf
00000210: 7882 b919 dd72 f23f bd15 73f6 e228 e4bf
00000220: 50f3 57e4 b2d6 d33f 77dd 79ad 1b4c d63f
00000230: 88aa e5e0 47aa bc3f 2bf4 cc87 f2de c3bf
00000240: e902 1e9a ace2 c5bf a505 088e 7cdb e33f
00000250: dede c5cd c671 c1bf dc36 16ad c1f1 8abf
00000260: 4117 a479 dfaf cf3f 25d7 c752 5166 c2bf
00000270: 85d4 87c8 37a8 c5bf d631 982a 840d e43f
-0.39786336994475346 -0.04648111089821095 0.29584442164838237 -0.010895771615115702 0.33652588385805693 -0.7148343728260949 0.22174101749916922 0.26156478251612214
0.2420765715584878 -0.036082115397292565 -0.39319448818226793 -0.08063611969084018 0.2557247833173969 0.07289229377201255 -0.08568467955529901 0.7901276221800716
-0.6881458116192898 0.02265799825900102 -0.03604932896954564 -0.261180032747766 -0.23060840574810382 0.5157203842183471 0.5151238125468185 -0.037346509375317985
-0.679515896807776 0.059478225831833716 -0.4119288729303951 -0.2994852320414062 -0.41427338050018436 0.3222816296634929 -0.7205468625768824 0.5708907345539858
0.10829703741644181 -0.13512109422462829 0.045893101121565215 0.04238398704502403 -0.39735781689965277 0.5085222822137867 0.22839118879333337 -0.13494599472982285
-0.2575989159947977 0.9029663303844409 -0.5862909431953287 0.04385492668299158 0.4175861507305881 -0.9966123370474006 0.7886127815182956 -0.6973220729103529
0.4531024423661003 -0.047765588882728305 -0.40125609334641893 0.006592145929852508 0.38669577776226616 -0.1747456767702897 -0.6301188322048037 -0.24911042283638524
-0.44708481286184376 0.12804376918907678 -0.15032067380484476 0.7216995494035432 -0.7405957010873742 0.4737633058926772 -0.36002947859203255 0.3746808339420704
-0.20372087946507325 -1.245953828264218 1.1530428891057038 -0.6299910367458136 0.3099791746060889 0.3483952707387838 0.11197327843334837 -0.15524131422890383
-0.17098004842048134 0.6205427907990965 -0.13628468558794443 -0.01315642652005116 0.24755471648694008 -0.14374748746893676 -0.16919610301525637 0.6266499359058411
