Crafter-TurtleBot/HF_wo_Fire/PG/results/NovelGridworld-v0_c0_b0_e0.npz (npz, 11774 bytes, 2 tensors)

layer1 f8 [83, 16]
0.1625499542690825 -0.04239185535801958 -0.08462278897823793 -0.13405314835644647 0.09257646353708913 -0.25891463125810005 0.23985841696305038 -0.08371397757730417
0.05328834423951908 -0.04365638480536786 0.15362231550039024 -0.2283022688077107 -0.03459931903123226 0.024822997425838267 0.09338735331278963 -0.11835154450523952
0.02357856391435692 -0.11109357010687856 0.04571260977953695 0.08065125252545398 -0.12080864951723816 0.12270235528032641 0.029964086510307335 0.08500971077221822
0.03730746784199358 -0.0846384912076992 0.0014558122896731562 -0.08250195159823226 -0.05193698432849381 -0.0042266373854985655 -0.08504544543801675 -0.07431712137538958
-0.07542700291374523 -0.09277337177821847 -0.07367883482224631 -0.0013901203283994401 -0.1226407435967742 0.02573046560085999 0.18218695769974189 0.08144992816544219
-0.021056687444686157 -0.09742993638818748 -0.08201127720872037 0.1857710268479572 0.005576875604728475 -0.0699193557623394 0.02095569689509748 0.23053295084514622
0.01318915850028239 0.06774684260037053 0.032947973040819985 -0.03866444373184309 -0.12540766453065472 -0.03834534540843331 -0.022929120942496193 0.06439026047290457
0.09209039356755913 0.10220173092914546 0.03134728141896872 0.09715686488258941 -0.08280593173124368 0.13752014592383033 0.0563013621648275 -0.03271993945327838
0.034511836217216096 0.029782852096601697 0.1090386452716134 0.16169491450893028 0.23832557657776413 -0.147852854879745 -0.12029637537485724 -0.08035762253197068
0.03283706995344225 0.08915258796155705 0.003809243168379056 -0.227238458706302 -0.023430941086776187 0.16140273897110935 0.0005494501099100658 0.0785947534315811
0.004880503565786246 -0.045139339410845775 0.0435098160437145 0.05079453343105392 0.02987251130687859 0.006252147864409091 -0.10352979317177066 0.08120404846605704
0.003961179742226634 0.1024780594120407 0.17756520356471492 0.027648003845651775 -0.0758325696516514 -0.1292097596982737 -0.006876005554547043 0.007880634060719621
-0.03774284424379418 0.004785376728287589 -0.06805393382894989 0.07661896966903543 -0.04907873603398741 0.13440718206964977 0.044288961473192376 0.06515370734888987
-0.12018218850171145 0.018592137419937965 0.0812866308351739 -0.10468224080917028 -0.029221277307048512 0.0035799115826957045 -0.15071920653591178 0.03459323744632286
0.09287819731456835 -0.09434413119476545 0.038477419940427526 -0.1440418175312232 -0.004247383939512306 -0.1773540568258066 0.12309158488382213 0.04488266495602221
-0.002702061944903671 -0.08508504150051296 0.1398128770813578 0.21591746783137136 -0.2039400044252629 0.13568663002852685 0.17865788044105185 0.03710160374235708
-0.1496179154621022 0.12187813262992327 -0.04437831885258304 -0.06278586254788342 -0.16575941134699274 0.05227961806857626 0.11896010185565743 -0.06062294407760046
0.06383763745289533 -0.13607684465597303 0.07058025255203432 -0.00029749293987463754 -0.010913394026177895 0.03217404991178347 0.07486286503477725 0.06665739894910881
0.07726621144600966 0.02684843354111713 0.013303190447203695 0.0705201929673217 0.05731452329623948 0.08653103546433352 -0.038800292214245094 -0.29549764026033387
0.13795921534522268 0.21459271592348522 0.05814770267442737 0.007201581882440348 -0.045535357252668725 -0.015110840463428412 -0.03872738060691516 -0.10837810143274365
-0.056758490518383886 -0.10943791192689965 0.02730925583578417 -0.03256059657247673 0.05435650451495562 -0.019176163046996278 0.10826435199299088 0.02343839066279632
0.240460534609978 -0.208152653374507 -0.07100833156128118 0.09895104155222692 0.2775198002205151 -0.027291212383638623 0.004793294720720716 -0.02484121535463319
0.14614640467118684 -0.031536135023664195 0.07464736271552735 -0.035102785846632414 -0.13968147006297804 0.03441633350812292 0.05523170868477896 0.14194998199566794
-0.012123136122758504 -0.06776429006909536 0.06177105532137405 0.026424328781544507 0.030806994495315845 -0.008025161822665404 0.12736370447286163 0.04055709458456185
0.2006994360727517 0.14747308454867755 0.07019221192869651 -0.15614415238392995 0.039644532269891 0.03582175885832234 0.10579909340597074 0.1261693087674722
-0.05184508919310214 0.0684183756432434 -0.05632896755077279 0.21071736761277265 -0.14550028398593118 -0.1667951753401041 -0.19702712615549792 -0.10037728244553865
-0.13952698215379883 0.22621629864726403 -0.036802243833765264 -0.1874085794100042 0.13983936201582986 -0.05009883377961533 -0.12541601738790376 0.07155265150455191
0.1428057017617227 -0.050404016241939915 0.1344169207879118 0.03218874762389578 0.17608593428864402 0.10151730349494495 0.13099310314410847 0.05518490060737908
-0.1338843411109746 0.2688531372061718 -0.059906497670095496 -0.021825290877931263 -0.07687872359056701 -0.022325441176605596 0.026636431622454944 0.022153740227691888
0.07255640270644281 0.19671491959265194 -0.013222704577340448 -0.13535258500421973 -0.12977627422872703 -0.07307605202491996 -0.18376686390113406 0.09055878814896942
-0.05468604312879179 -0.03413503601132233 -0.00020761721399667563 -0.1532990073922047 -0.0945417529575954 0.07405921132365523 0.06789348996542377 -0.048644439021557836
0.19873202503447826 -0.14332214940316576 -0.037867265828569106 -0.025337953581475007 -0.30658090812938915 0.21267141643527165 0.040210162486521976 -0.11465858049819677
00000000: 19a8 c6d8 6fce c43f 1e48 c2a0 62b4 a5bf
00000010: 4768 28cf d6a9 b5bf 71f2 0e50 a728 c1bf
00000020: 0f69 4553 17b3 b73f 7367 6dac 0e92 d0bf
00000030: b668 433c aeb3 ce3f 12a0 e97b 476e b5bf
00000040: 1b90 881f 9c48 ab3f b654 0032 215a a6bf
00000050: b246 8162 e5a9 c33f 26dc 103d 0239 cdbf
00000060: 51f1 677f 00b7 a1bf 00da 8728 336b 993f
00000070: 44a3 56cc 3be8 b73f 76c2 146d 494c bebf
00000080: 5061 98a3 fa24 983f 46a9 67d2 a070 bcbf
00000090: f02c 09a8 a467 a73f 656f fa7b 8fa5 b43f
000000a0: 6a1e c0ce 50ed bebf 8438 12eb 6b69 bf3f
000000b0: 5b13 77ce e7ae 9e3f baed 9b47 32c3 b53f
000000c0: 624d 8ee4 f619 a33f 3248 b83f deaa b5bf
000000d0: a9b5 168b 1eda 573f 1878 f80f d91e b5bf
000000e0: 0099 4902 7c97 aabf 8cf9 7b55 f34f 71bf
000000f0: 217d d4ce 89c5 b5bf c714 d765 7206 b3bf
00000100: 05f5 bf1e 2f4f b3bf 1323 bae5 febf b7bf
00000110: 0d0c f8b9 9ddc b2bf 7b4f 4556 96c6 56bf
00000120: 8dbf e73e 6265 bfbf 9bf1 1051 1659 9a3f
00000130: 0f00 8af8 e651 c73f 726c bb09 e7d9 b43f
00000140: 6582 bf5f e28f 95bf c449 7016 2bf1 b8bf
00000150: b8bf 83e9 b0fe b4bf b49b 6d52 58c7 c73f
00000160: c5f2 6025 c7d7 763f 8e4c 5b22 3ce6 b1bf
00000170: 853c 5103 6975 953f 2be0 438e 1a82 cd3f
00000180: 1721 5de3 ea02 8b3f c637 6069 db57 b13f
00000190: 4110 5c85 8ede a03f 024e b172 d3cb a3bf
000001a0: e6d7 e9bc 5b0d c0bf a751 f748 00a2 a3bf
000001b0: b9d3 4b42 bb7a 97bf e37b e94e e17b b03f
000001c0: daff a56c 3c93 b73f f36d ef83 e429 ba3f
000001d0: 33a5 0639 c00c a03f 35ab 40b5 45df b83f
000001e0: fc53 b300 c532 b5bf 145a a498 429a c13f
000001f0: 0fb6 6f3a 88d3 ac3f 3603 c2fb aac0 a0bf
00000200: c075 c10f 89ab a13f 802f f25e 657f 9e3f
00000210: dd14 71e7 f4e9 bb3f 5568 df40 6bb2 c43f
00000220: e9d5 99d6 7381 ce3f 1d14 2aa4 d7ec c2bf
00000230: 46f6 0f46 becb bebf 2256 c230 5192 b4bf
00000240: aece 173b 05d0 a03f fb0d a639 b4d2 b63f
00000250: 0c17 95da 8f34 6f3f dcbc 445a 2616 cdbf
00000260: 5294 bad6 47fe 97bf 8cd0 ae4e d8a8 c43f
00000270: 344d 5d20 1f01 423f 0a36 a027 c91e b43f
00000280: 51bf 3f33 94fd 733f 6cb4 10e5 801c a7bf
00000290: eeea ec29 eb46 a63f 14cd cdb7 bd01 aa3f
000002a0: d621 734c e696 9e3f 06e2 b729 da9b 793f
000002b0: 2e9b d5b3 ed80 babf 63ea 76dc c9c9 b43f
000002c0: 6d9f 2417 9939 703f 6175 bb89 003c ba3f
000002d0: 83e8 1be3 74ba c63f d85b 4421 c24f 9c3f
000002e0: c71f a066 c369 b3bf 8632 1d06 f289 c0bf
000002f0: 8607 beaf 032a 7cbf 1012 80cc b823 803f
00000300: c4c7 5eb3 0753 a3bf 6ea7 c0c8 d499 733f
00000310: 32d4 288c fb6b b1bf 3552 fb00 4d9d b33f
00000320: 14d6 631c d920 a9bf c917 ab29 4134 c13f
00000330: eecb 33f2 0aad a63f acd1 46d2 e9ad b03f
00000340: e632 2d89 42c4 bebf 6bb9 b938 d109 933f
00000350: 4402 0a5d 33cf b43f 7d54 bf90 74cc babf
00000360: 6744 86b9 2eec 9dbf 65af 7265 9e53 6d3f
00000370: 29b4 7957 c44a c3bf d74b fd6e 34b6 a13f
00000380: d73d fa93 ddc6 b73f ae11 0dde ef26 b8bf
00000390: f0a3 8ef8 4fb3 a33f cec8 c657 f66f c2bf
000003a0: 0df7 d171 b465 71bf 239c f0a8 89b3 c6bf
000003b0: 9223 7d1b ee82 bf3f 0e71 4954 dcfa a63f
000003c0: 5790 ec75 a222 66bf 169e 9f1e 22c8 b5bf
000003d0: 80e2 4f6b 63e5 c13f 8945 7cff 2ea3 cb3f
000003e0: fa21 adc0 b41a cabf 7f0d 3df3 2d5e c13f
000003f0: 1e60 d5ec 42de c63f e5b7 673d fbfe a23f
00000400: 0f18 e70a ae26 c3bf e539 bec1 6733 bf3f
00000410: c121 3f48 c1b8 a6bf ef57 4bfa bb12 b0bf
00000420: 6aa9 5eb9 9a37 c5bf fd2c b4e3 64c4 aa3f
00000430: 71b6 ff52 2b74 be3f fbab 6674 f809 afbf
00000440: 0435 1dd5 a957 b03f c827 c54e f76a c1bf
00000450: 1454 7424 8c11 b23f 56cc 9272 1a7f 33bf
00000460: 1545 72f3 c259 86bf 794d 4df8 1d79 a03f
00000470: e95c 0275 362a b33f 4fd9 8594 7510 b13f
00000480: 3116 3feb b7c7 b33f 291e 08e0 277e 9b3f
00000490: a7c0 39ff b33e 8b3f d893 8082 9c0d b23f
000004a0: b74e 4946 5458 ad3f 3a88 68df e526 b63f
000004b0: 9256 45c4 a1dd a3bf d2a6 3def 6ee9 d2bf
000004c0: 7776 0bc7 a5a8 c13f b6f3 6c2c c677 cb3f
000004d0: 30fd a522 89c5 ad3f 77fc a1ea 677f 7d3f
000004e0: a97c 6c0c 6950 a7bf 9b0f d8ac 6ef2 8ebf
000004f0: 5038 5542 13d4 a3bf a296 41d1 aabe bbbf
00000500: 30f4 17e9 720f adbf e726 ab7c 1f04 bcbf
00000510: c86a c522 f5f6 9b3f e885 d552 c8ab a0bf
00000520: 9ae7 6ea2 9dd4 ab3f 1434 9984 eaa2 93bf
00000530: 5fed 216b 36b7 bb3f 6867 78c5 3b00 983f
00000540: b973 102a 69c7 ce3f 4ed9 6803 bfa4 cabf
00000550: 299a cc1d 9a2d b2bf 3a38 5fff da54 b93f
00000560: d921 7c68 e2c2 d13f fea8 9f42 3af2 9bbf
00000570: c8a2 0c41 22a2 733f 1207 2abe f96f 99bf
00000580: 36d0 3ee6 ecb4 c23f f743 2319 8125 a0bf
00000590: f488 98ed 161c b33f 0268 6b0a fef8 a1bf
000005a0: 788b e318 15e1 c1bf 2332 bb85 049f a13f
000005b0: cab3 019d 5447 ac3f 566a 2bc1 6a2b c23f
000005c0: 80ac 60c9 03d4 88bf c1f4 ae21 0059 b1bf
000005d0: cfb0 e3ac 74a0 af3f d4ef bdaf fa0e 9b3f
000005e0: 57b9 6167 de8b 9f3f ec6f 96fc 7e6f 80bf
000005f0: cd44 b430 744d c03f d712 b945 e6c3 a43f
00000600: ca09 21e5 84b0 c93f cfa1 96e5 65e0 c23f
00000610: 48eb aae6 1df8 b13f e7ad f915 88fc c3bf
00000620: d7f8 20c3 494c a43f 083a 90c5 3a57 a23f
00000630: 2206 203e a615 bb3f e725 75df 5026 c03f
00000640: 9ecc 1585 708b aabf da4a d5dd dd83 b13f
00000650: 2362 e582 26d7 acbf f64b 4c65 c9f8 ca3f
00000660: e89e a3d8 c09f c2bf cbb0 9b57 8b59 c5bf
00000670: 21a1 a153 2f38 c9bf ee6c 5d59 53b2 b9bf
00000680: 524c a128 05dc c1bf b98e 41da a7f4 cc3f
00000690: ecf1 5e63 bed7 a2bf 0724 c71b 01fd c7bf
000006a0: 5a97 4697 41e6 c13f 8168 4de9 8da6 a9bf
000006b0: b8ad 89ce a10d c0bf 6f75 274a 4651 b23f
000006c0: e4dc 5f0d 7547 c23f 213f b122 8ece a9bf
000006d0: c813 68db 9234 c13f 7f0a b024 0b7b a03f
000006e0: 1715 87e0 fb89 c63f 3a28 7dba 09fd b93f
000006f0: 3fb4 00cb 61c4 c03f c9f3 aefe 3141 ac3f
00000700: 8d52 4241 1f23 c1bf 818f eec9 e334 d13f
00000710: 3236 9f80 10ac aebf fb83 2f7a 5e59 96bf
00000720: cf67 94f3 52ae b3bf b9a0 e3fe 7adc 96bf
00000730: f265 cdaa 9446 9b3f fd4d 0c57 78af 963f
00000740: f854 bd70 0e93 b23f 2392 2459 f42d c93f
00000750: 4c76 cb5d 8114 8bbf ebd6 02c7 3b53 c1bf
00000760: 53f7 cd4a 829c c0bf 085d 91b5 1cb5 b2bf
00000770: 009d 452f ac85 c7bf 6618 7759 dc2e b73f
00000780: 3355 921d cfff abbf b700 a2be 257a a1bf
00000790: 20e4 d449 7a36 2bbf c01f a147 4d9f c3bf
000007a0: c233 0f69 e333 b8bf 6847 9a62 8bf5 b23f
000007b0: d046 03bf 7761 b13f d6af 7585 ece7 a8bf
000007c0: a370 180e 0d70 c93f 9f50 3d54 6158 c2bf
000007d0: 6b31 a598 5663 a3bf 7185 eb47 31f2 99bf
000007e0: e598 7f87 059f d3bf 2816 3125 d138 cb3f
000007f0: ef62 b129 6d96 a43f d00e 72c5 435a bdbf

layer2 f8 [16, 5]
0.05796558044703362 -0.08924093615370125 0.07371589088098512 0.0223243638002467 0.2571524572180283 -0.17140905237928833 0.13038727762528365 0.053408477238628016
0.19141355730160162 -0.03183401413848689 0.05544200582746594 -0.04684565800369328 0.019463944746698582 -0.0043172413303809686 -0.06651356884934054 0.7505298802028446
-0.2711575006425084 -0.26913985209884467 -0.2211634144587142 -0.16521342338712733 -0.045223440838567094 0.36960376804086803 0.4347888363755156 0.05440735181194772
-0.6149304029210068 0.09089958963865927 -0.3308093235850755 -0.16887910021169517 -0.3316231116924951 0.09235368049489633 -0.1798422060917316 0.23939267720117458
0.0982635299772582 -0.036150815046095186 -0.025362763360286752 0.27916896543581393 -0.12083150668054315 0.21587115700066167 0.003271884720085974 0.03908773929543167
0.17930768301623412 0.36560967332711236 0.11305500094514609 0.002573274027407392 0.19203197347149908 -0.37605302509818994 0.39895635058634005 -0.31474871846194535
0.2064821367872495 -0.13582898993735545 0.11153788799779008 -0.01198562585684195 0.08123688633210253 -0.21665074516872063 -0.5274971606631847 0.08999673270054642
-0.14615224650860226 -0.1462944025871601 -0.18868550740461634 0.5051334484189556 -0.2184340243664915 0.17193930495619072 -0.34688158805435193 0.3557437134692431
-0.1264018330243569 -0.7226674587064117 0.7501893109859576 -0.3137236594603659 0.3471671227474579 0.16140307103053092 0.16941362452425662 -0.05301721689580504
0.050328839515925546 0.27318118328979407 -0.05042448908036152 0.08384185751481915 0.2011542108047825 0.012922123460065755 -0.09385419173282915 0.3639308195136018
00000000: e498 a020 aaad ad3f 339c 3e76 7ed8 b6bf
00000010: 8c82 876c 0bdf b23f 9b4a b4b1 32dc 963f
00000020: 1f99 7594 2f75 d03f e68b 1a59 bbf0 c5bf
00000030: 4787 9bc2 87b0 c03f d85c 231e 5b58 ab3f
00000040: 118a 4f4c 3d80 c83f 951a 4043 8c4c a0bf
00000050: 0f0c b503 e562 ac3f d8c1 2b72 27fc a7bf
00000060: ea89 8d38 5bee 933f 3cb4 2aa5 f4ae 71bf
00000070: beba f282 0807 b1bf 648b 443d 5704 e83f
00000080: 6fc7 54fd a45a d1bf ed25 b45b 9639 d1bf
00000090: dfff 1530 154f ccbf b569 27a5 b625 c5bf
000000a0: ce16 d4de 8627 a7bf 82b0 0d90 96a7 d73f
000000b0: de84 398e 94d3 db3f e778 63c9 47db ab3f
000000c0: 1694 3b86 82ad e3bf cec5 b70c 3245 b73f
000000d0: 3fa0 80de fa2b d5bf b88d 3192 d49d c5bf
000000e0: 154a d424 5039 d5bf 4f0c 64a5 7da4 b73f
000000f0: 935f cdc4 1105 c7bf 1a8f bd53 6ba4 ce3f
00000100: 994f a477 cc27 b93f c085 b110 5c82 a2bf
00000110: 5faa ac3c b2f8 99bf eab7 2682 e7dd d13f
00000120: 5cf3 8449 d0ee bebf ced7 bb83 aaa1 cb3f
00000130: d344 cfbb a3cd 6a3f a59b e5e3 4e03 a43f
00000140: 18f6 3cdd 8df3 c63f e0a2 821d 2666 d73f
00000150: 306a b52b 2cf1 bc3f 36d4 52f9 8b14 653f
00000160: c257 ecf2 8094 c83f 30f3 16b5 4011 d8bf
00000170: 9830 9337 8088 d93f 3920 10cf d724 d4bf
00000180: c5ce 5ab4 016e ca3f 8798 d026 d862 c1bf
00000190: b825 373d bf8d bc3f cb29 9e78 eb8b 88bf
000001a0: c576 06ca f0cb b43f f4ab 932c 36bb cbbf
000001b0: e3ff b8b9 41e1 e0bf 7019 b29f 060a b73f
000001c0: 70e5 7ee7 1db5 c2bf 1c90 5965 c6b9 c2bf
000001d0: 5918 c4c1 d826 c8bf 5c67 229f 0d2a e03f
000001e0: 886e 7e67 a5f5 cbbf 1587 d76d 1b02 c63f
000001f0: 85ca 11d5 4e33 d6bf 5fe9 c647 81c4 d63f
00000200: 8b3d 7f6d ef2d c0bf 06e1 a081 1720 e7bf
00000210: 70ca 8f03 8d01 e83f 1147 5766 0c14 d4bf
00000220: 8b97 9c73 fc37 d63f 8669 c617 dba8 c43f
00000230: 7a0c 6a7c 58af c53f 0b85 6299 1225 abbf
00000240: f976 889f b3c4 a93f 0f2f 07ee cc7b d13f
00000250: f90a 0917 3dd1 a9bf dce1 0ff4 a876 b53f
00000260: 45fb 6dd2 6bbf c93f d731 3f0d ea76 8a3f
00000270: 87c3 150c d406 b8bf 4150 f47d a44a d73f
