Crafter-TurtleBot/HF_wo_Fire/PG/results/NovelGridworld-v0_c0_b0_e2.npz (npz, 11774 bytes, 2 tensors)

layer1 f8 [83, 16]
0.10797464773654071 0.019149509691699467 -0.1444937212747985 -0.08761019641979975 0.06548019157018695 -0.2641884038688836 0.31167137303018116 -0.04933981589934422
0.14504402771435293 -0.05890476806203101 0.14726642836632403 -0.2535396107261779 0.10232939912305611 0.12831945779601092 0.08006400458983781 -0.07839552896192119
0.08936912249900458 -0.13300022112350954 0.16668070061662504 0.040253074637986865 -0.08733712941225816 0.08425954398688101 -0.03325197789867056 0.18349870050188583
-0.07251191820388543 -0.1148680489308097 0.06342127866146746 -0.08374805900892138 -0.10701061877577632 -0.13709605697585545 -0.004014969276031488 -0.15736190302459907
-0.03507402102493394 -0.06458781291821644 0.016157883416131155 -0.05761978311853465 -0.06232850648827517 -0.018133841375143574 0.22057354807623364 0.08405260676087578
-0.09966511270068837 -0.06259031647549952 -0.04109123368167869 0.1399065870869832 -0.032302611673331004 -0.16257189753131354 -0.003426988804967377 0.19286301262493238
0.08538998997683481 0.026143112661669975 0.08986071297140004 -0.07545568828964838 -0.14052172366180007 -0.0434413844055239 -0.09260340054387474 0.0724328166572698
-0.017360800201295618 0.11486579924628194 0.04466845301939012 0.126291527637547 -0.20352811956293407 0.038948405416547406 0.04582528009260507 -0.04204171787148979
-0.04711540877003012 0.07102010980853109 0.08634779202440217 0.19234750587381386 0.2286866132269945 -0.1274513238682539 -0.050286477085807135 -0.05341030805812133
0.11612263394828899 0.05205060908551917 0.017545877112741533 -0.2692104914810917 0.10343069125667545 0.24244218868608985 -0.004985943014756077 0.06251827873908455
0.06567669380008294 -0.034973033017863094 0.12024804288093273 0.034853188547018216 0.04372434642593992 -0.033738852358459914 -0.1474018886372543 0.1297644129567723
-0.08563908646812057 0.11287933655956515 0.22161829645731013 0.017598313065662508 -0.17993898139821796 -0.20335295677129425 -0.02011236023867149 -0.06603200324676908
0.007321323760021659 0.015204590146171863 -0.06425878207293709 0.0632148021948868 -0.07266646685453117 0.058309105761735223 0.013933066143452006 0.054619231720391966
-0.1499869422524242 0.0695889856938453 0.06603295345289517 -0.1383376812662971 -0.06508847905180803 -0.050089799282468664 -0.15148612170750114 0.00448929114890749
0.164712278476425 -0.17167649644735658 0.09573158626451654 -0.15607429596559824 0.05355324230960168 -0.19171209785866788 0.013956211320699536 0.09572496525636129
-0.0854274112803919 -0.05198213495032101 0.13503877623133048 0.2550090753568938 -0.2795649517255718 0.04315961244608105 0.18710547872215472 0.030104900273228256
-0.17411673978043138 0.13851221232093616 -0.04471223175890554 -0.04944470470156303 -0.19976407263725396 0.038493556732324824 0.1675671219082629 -0.05850514253321314
0.10743505301081793 -0.17317429094097173 0.08685342467671088 -0.013810207170029365 0.10003977992685321 0.07501732337488988 0.06734262365487872 0.06930486721699948
0.10374645739891587 0.06467380969795714 0.05828842196805128 0.03975283446203885 0.10929024662154573 0.04341038566599582 -0.005658896847385233 -0.22267368954576797
0.10992118921502296 0.20838224962570603 0.10252764910509514 0.005858296433728739 -0.10774739136420042 -0.036998873332559856 -0.08930798700978475 -0.12227799049107098
-0.05692361384749323 -0.06407370240176316 0.062990802578368 -0.05750050630050799 0.11925391624867475 -0.05329396698829519 0.07050220588405912 0.06441700165421331
0.16684590411924743 -0.1460754223935364 -0.09407368766578612 0.04647361125118768 0.2437380734960362 -0.07572645011577732 0.05105376279433643 -0.040228684345514264
0.21126727275779308 -0.06837309883256018 0.1165846126628242 -0.02191028427436297 -0.15353494069874735 -0.001572165717981657 0.012053669827605503 0.14122662884916837
-0.09430647439498475 -0.046216976588338156 0.06225409525737112 0.05079040979547663 -0.0305087668864489 -0.07236263129294879 0.11736609571332199 -0.004858860371384837
0.20369946179984946 0.14459937619151775 0.15506519794603665 -0.13685655305800293 0.0011221847736659148 0.025159953156389768 0.11911912425306113 0.167912509618637
-0.08735145226822026 0.05015516049796273 -0.009624800873087331 0.20147836903456662 -0.09989012166280382 -0.20362087170683346 -0.19597509258518353 -0.12262025550269727
-0.1898904489347413 0.30442677001835117 -0.0814606735510697 -0.2256247028151507 0.24538272597278424 -0.08778133448160927 -0.024707882947890558 0.03841451427369187
0.17901803011736392 -0.03981916033718255 0.16775070236243372 -0.04304549336049027 0.2119171336127331 0.1766213171989734 0.10038062903993479 0.005342569168923218
-0.1047457945268079 0.2996774133224044 -0.13014287854732914 -0.06629008471301345 -0.023738500872127182 -0.06682203427366656 0.02304740623346125 0.055884463579391495
0.07012933983190556 0.271301919313956 -0.06848377324634608 -0.09033426882005131 -0.14763742853406875 -0.06595054042218727 -0.13278505523823642 0.12505648284258347
-0.04317554022853145 -0.06271810402915855 -0.03916947705066513 -0.14893977362109184 -0.08292442183323281 0.03835441908333385 0.050291360236746005 -0.06626793993228722
0.2246967208582662 -0.16708631688313821 -0.06265341541546271 -0.020531111788380525 -0.337221176152128 0.2290460543252788 0.024927494722948078 -0.1497226389980492
00000000: 1558 d3fc 39a4 bb3f 5bee 70d7 ed9b 933f
00000010: f721 ad2f c57e c2bf 224f 6b30 9f6d b6bf
00000020: aa6b 5451 4fc3 b03f d95a a67a 76e8 d0bf
00000030: 1be6 907c 6cf2 d33f f04f 5b7f 1143 a9bf
00000040: 9eb2 c17d cd90 c23f 8b4d cf08 c428 aebf
00000050: 46e8 d056 a0d9 c23f eece 1334 fe39 d0bf
00000060: a421 a76e 4232 ba3f 1750 56a1 c56c c03f
00000070: 74d6 4c19 137f b43f 5348 0bb9 ba11 b4bf
00000080: 14cb 6712 e5e0 b63f f909 0bb8 2606 c1bf
00000090: 2eea 020f cb55 c53f 4d67 440e 0d9c a43f
000000a0: ea5a 8de2 b95b b6bf d4ad cc91 0892 b53f
000000b0: 1647 343b 6706 a1bf facd c1aa e27c c73f
000000c0: a583 411d 2490 b2bf 275e 8311 fe67 bdbf
000000d0: 94b4 b87d 603c b03f cafa 8b46 8370 b5bf
000000e0: 8778 f743 0c65 bbbf d798 8f14 5d8c c1bf
000000f0: 668f c21b 0072 70bf c440 9051 6f24 c4bf
00000100: ae8c 7bda 38f5 a1bf 2e33 34b0 d388 b0bf
00000110: 0c24 6133 b18b 903f 2e85 3118 5780 adbf
00000120: 738a f3a1 85e9 afbf 12dd a07e ad91 92bf
00000130: 50d0 ac07 c13b cc3f 7077 2ebd 7884 b53f
00000140: 2a03 9a1f a783 b9bf d1fd 4e42 eb05 b0bf
00000150: 4455 a101 e909 a5bf fb4b 0484 75e8 c13f
00000160: 6bb8 6cc9 f789 a0bf d1a4 92eb 27cf c4bf
00000170: e23b ea9a ea12 6cbf e682 ea35 bcaf c83f
00000180: ba34 5b4e 1edc b53f 730e 9797 42c5 9a3f
00000190: c54b 6897 1c01 b73f 4c4f 8061 1051 b3bf
000001a0: 35a3 c0a7 9dfc c1bf fd1e a1fa f23d a6bf
000001b0: b196 d540 dbb4 b7bf 3c3c b302 f58a b23f
000001c0: 2548 6394 07c7 91bf 1912 3153 d867 bd3f
000001d0: bb2b c391 c8de a63f db89 7b1e 522a c03f
000001e0: 3d6a ab9c 350d cabf bda7 fd9e 0bf1 a33f
000001f0: 9ad2 a73e 6976 a73f 1ec3 a6f6 7d86 a5bf
00000200: 8822 9cc7 821f a8bf 8568 fcb8 5f2e b23f
00000210: 2b9d d38e e31a b63f 43fc 98d3 d79e c83f
00000220: 89e5 6b5a 9a45 cd3f 854b ec31 5350 c0bf
00000230: 0079 072d 26bf a9bf 5401 c28c 9858 abbf
00000240: ad1e 2283 36ba bd3f f0b3 849f 60a6 aa3f
00000250: d2f3 83e1 8bf7 913f 23b0 29a4 be3a d1bf
00000260: c69f 590c 6f7a ba3f cee8 c97b 5808 cf3f
00000270: ff71 02e3 236c 74bf 202a 96aa 3201 b03f
00000280: 3b13 fb13 30d0 b03f 0978 1b42 fce7 a1bf
00000290: 81e4 9463 93c8 be3f 1c08 f1f1 46d8 a13f
000002a0: 3074 e09b 0963 a63f 88e3 f706 3846 a1bf
000002b0: ef66 88a9 10de c2bf b7bf eaca 1e9c c03f
000002c0: 18d0 a373 71ec b5bf e7e1 ea02 a9e5 bc3f
000002d0: 505c bd03 fd5d cc3f c0c0 53cc 4a05 923f
000002e0: 48c1 3094 3d08 c7bf 8b55 703d 7807 cabf
000002f0: 87c1 e1a5 5598 94bf 4a2a 6f2e 79e7 b0bf
00000300: 4db4 cde1 f6fc 7d3f 5c46 6a8b 9523 8f3f
00000310: 16eb 7b77 4373 b0bf 7dd6 0c64 d82e b03f
00000320: d1f4 a702 459a b2bf 337f 9cec b0da ad3f
00000330: 7761 5a7b f088 8c3f 8186 f14b 0df7 ab3f
00000340: ce8d e6a9 c532 c3bf 4885 b771 95d0 b13f
00000350: 80d9 891f 89e7 b03f 91ee 6b94 0cb5 c1bf
00000360: b0b7 df78 a3a9 b0bf 9a14 90c3 5ea5 a9bf
00000370: 3e0b 44b1 e563 c3bf 7021 abea 5c63 723f
00000380: 6827 a7bc 4a15 c53f 5bdb ddd4 7ef9 c5bf
00000390: f346 3380 dd81 b83f 6690 7516 3efa c3bf
000003a0: 8006 a1a0 546b ab3f c677 46a3 058a c8bf
000003b0: 2a77 96f9 1295 8c3f a6d2 2f6b 6e81 b83f
000003c0: f197 a121 92de b5bf 91ff 2c03 679d aabf
000003d0: 9e7e cd5b f348 c13f e7d3 b595 1152 d03f
000003e0: bf39 3165 64e4 d1bf 348b ed47 0419 a63f
000003f0: 52cd 0184 12f3 c73f 2ece 7da8 d1d3 9e3f
00000400: 2384 8513 7549 c6bf 79ec 01a7 c4ba c13f
00000410: c876 458a 85e4 a6bf 6fa3 4efb d050 a9bf
00000420: 6d46 727f de91 c9bf e44a 8b6e 6db5 a33f
00000430: fa8b 3de6 d672 c53f 8feb a7d3 62f4 adbf
00000440: 1220 2017 dd80 bb3f 31bb 0c3e 932a c6bf
00000450: e935 88aa 063c b63f cd8a 2ba1 8648 8cbf
00000460: 29ba 15ff 349c b93f e152 87d6 5534 b33f
00000470: 767b 39be 5d3d b13f 0990 26ba f6bd b13f
00000480: e9ac 9ab9 208f ba3f e279 8f79 768e b03f
00000490: 3f2c 2de4 fad7 ad3f e621 e0c7 7b5a a43f
000004a0: 6fe5 0213 72fa bb3f 8901 7cd5 e239 a63f
000004b0: 365c 418e c82d 77bf 71ad 234b 9280 ccbf
000004c0: 33e2 d088 cb23 bc3f dbca 9a01 45ac ca3f
000004d0: f796 d783 403f ba3f a87e 7d79 defe 773f
000004e0: 4078 2342 5595 bbbf 9885 e72d 84f1 a2bf
000004f0: bb86 7a63 e3dc b6bf 0504 2e42 9c4d bfbf
00000500: 11b3 b087 1725 adbf ca65 5958 2267 b0bf
00000510: aadb 054d 2a20 b03f d5d4 20d4 b470 adbf
00000520: 3f3e 35b6 6c87 be3f b7e1 93ca 5849 abbf
00000530: 6a61 91bc 6e0c b23f fb45 69f3 a17d b03f
00000540: c2f4 d4e2 345b c53f f3fd f674 99b2 c2bf
00000550: ad4c f093 3615 b8bf 44d8 e6a0 63cb a73f
00000560: 7a4e 3a27 cf32 cf3f 137f b002 cf62 b3bf
00000570: 682e 1403 b823 aa3f eb0b 40a7 da98 a4bf
00000580: cfdb 9a55 ce0a cb3f 427a 693f e680 b1bf
00000590: 4b89 9a3a 7dd8 bd3f ad28 9e49 a66f 96bf
000005a0: ee15 8c6e 08a7 c3bf 6f8b ed15 24c2 59bf
000005b0: 9199 a62d 98af 883f 10a2 1dd4 b613 c23f
000005c0: 69d8 5317 7824 b8bf d50e ef65 c0a9 a7bf
000005d0: fe4e 58ce c4df af3f eb44 0b5a 3301 aa3f
000005e0: 2608 13b0 b03d 9fbf 8c10 db7e 5b86 b2bf
000005f0: ee77 bf56 b40b be3f 063e 4166 e2e6 73bf
00000600: e552 52ef d212 ca3f 6cdd e17b 3b82 c23f
00000610: f786 f628 2dd9 c33f 044f d0f9 8384 c1bf
00000620: a22a cab9 c862 523f 0600 e7df 87c3 993f
00000630: 1fbc fe46 977e be3f d35e b338 287e c53f
00000640: 4707 c02e aa5c b6bf 8cf6 20ec efad a93f
00000650: aae7 d7e7 2ab6 83bf cc6c ed0e 0bca c93f
00000660: 4d36 bc25 6692 b9bf 36c6 61ac 3f10 cabf
00000670: 98f1 bd3a b615 c9bf 6714 3683 0a64 bfbf
00000680: 29ad ff89 544e c8bf e85d 506b ba7b d33f
00000690: b2dd cf50 9bda b4bf 9d61 e12f 45e1 ccbf
000006a0: 5d39 877f b368 cf3f 4639 cc68 d678 b6bf
000006b0: 70bc dbf4 054d 99bf 2a95 fe34 11ab a33f
000006c0: 43cc 5f14 10ea c63f ac04 ce4e 2d63 a4bf
000006d0: 1c8b 43e2 da78 c53f 646d 7214 0f0a a6bf
000006e0: 8314 2ac3 1920 cb3f 36b1 92fe 869b c63f
000006f0: a5e0 e07e 8bb2 b93f b5db b6fd 16e2 753f
00000700: 6adc e2d1 9ed0 babf 5a74 642c ea2d d33f
00000710: 9a83 9597 85a8 c0bf e036 e411 63f8 b0bf
00000720: 8b7f 9bd3 e74e 98bf f48a dbb3 3f1b b1bf
00000730: 2212 1f40 bd99 973f 7321 db6e e39c ac3f
00000740: 4c6f 1115 fff3 b13f 02e9 b2b9 025d d13f
00000750: 1c55 660e 2788 b1bf 154a 4a8a 2520 b7bf
00000760: 1214 9c83 c8e5 c2bf 574e 4476 22e2 b0bf
00000770: e2a8 d2c6 19ff c0bf 5e18 fbcf d901 c03f
00000780: c38f 89ba 1a1b a6bf e71f ac2d 4b0e b0bf
00000790: 1639 de8d 050e a4bf 9a5b 6360 7510 c3bf
000007a0: d23d d0ef 883a b5bf 4570 3dbf 30a3 a33f
000007b0: 96f2 f906 cabf a93f b24f c88a eff6 b0bf
000007c0: a066 cdb5 dcc2 cc3f 4fa3 4f9d 1563 c5bf
000007d0: 6c2e 31e2 0d0a b0bf 22f9 b996 1b06 95bf
000007e0: 10e4 c520 0895 d5bf c06d 4d90 6151 cd3f
000007f0: 3ed3 6cda 9786 993f edd4 fb86 1c2a c3bf

layer2 f8 [16, 5]
0.07446323237422288 -0.14033147345104816 0.17303446586863871 0.028955535050040282 0.22976405427470092 -0.2125646030905964 0.17926817634517608 0.06764790158409668
0.19294028278002387 -0.05368132129718138 0.09657724675424753 -0.15017327184453805 0.12213100472306122 0.015252334944906907 -0.09256078055082974 0.7630794627959019
-0.4127154137675943 -0.1502062173485727 -0.17769774130002208 -0.17406386750376263 -0.07545721935408314 0.4542630927415691 0.46083560906471027 0.023216919430896585
-0.6591019586995002 0.002834911882599018 -0.27841898752229044 -0.2296935348862481 -0.27779757624579954 0.07762045855974069 -0.2740877221620928 0.3529204835674899
0.08182932859727605 -0.04260284117877313 -0.04276005126346514 0.2679566858373963 -0.19785421187735544 0.26082233044581765 0.06539502618625546 -0.032965420705129665
0.09091772956280729 0.4685104165642937 0.03509032176788294 0.008725601909389345 0.17842476968128076 -0.42820538407559783 0.36872557767040937 -0.2891961319583989
0.23256400667384738 -0.1925666605346837 0.09293842743876625 -0.0611662308357183 0.1906461244020895 -0.210792375194114 -0.5490755454995989 0.08695051668908958
-0.2470986898971815 0.008878633397403754 -0.17426426171734286 0.4722181670940182 -0.3022528189243495 0.2912980825594032 -0.33239554310429736 0.30860137636894913
-0.18645025211658672 -0.7927877689738729 0.8274907231742176 -0.31519461733778475 0.34627579510386625 0.1270160090986151 0.23035588237511906 -0.05159036342712041
-0.008671746227168674 0.28192472693880677 -0.10372234155185386 0.10955614599601199 0.22513757502983314 -0.020032123024636417 -0.05285486172351602 0.33663125327434645
00000000: 8d3e cdbb 0510 b33f e92e 89b8 61f6 c1bf
00000010: f149 fe4d fe25 c63f b0fa 4f10 85a6 9d3f
00000020: acfe 7395 e868 cd3f bbd9 4721 5135 cbbf
00000030: 1bdc 4e75 42f2 c63f 5d5c f274 5f51 b13f
00000040: 4d83 4f66 44b2 c83f be42 c13e 1e7c abbf
00000050: 1ae3 5854 49b9 b83f 2e1e a7b5 e038 c3bf
00000060: adf8 1c3f fa43 bf3f 5f46 35be 9d3c 8f3f
00000070: f1a8 5b35 10b2 b7bf 0ca5 1e9f 256b e83f
00000080: 97f6 2be9 ed69 dabf 9e80 9513 f539 c3bf
00000090: f273 bab1 ccbe c6bf 2606 2c8d b947 c6bf
000000a0: 6a75 5f11 2a51 b3bf efb5 c681 a512 dd3f
000000b0: 93f8 70a3 547e dd3f 2ca3 ad16 2dc6 973f
000000c0: 3201 abfd 5c17 e5bf 426a 54ba 3d39 673f
000000d0: 4898 7fdf 9dd1 d1bf 7833 3806 9966 cdbf
000000e0: c78f 387c 6fc7 d1bf 73bd 0333 efde b33f
000000f0: f5f6 ba3a a78a d1bf 2bb2 c0cb 3f96 d63f
00000100: e5ce 2d52 c4f2 b43f e3b5 2823 0ad0 a5bf
00000110: 9df4 803b a5e4 a5bf 6ca2 9acc 3326 d13f
00000120: e9cd b16c 4953 c9bf e333 d524 50b1 d03f
00000130: ff80 ca7a babd b03f b3a2 a7f7 d7e0 a0bf
00000140: e74c 1963 6246 b73f 94a7 3e1d 13fc dd3f
00000150: 8d60 ccd0 5bf7 a13f 92be b576 bade 813f
00000160: 55e9 4973 9fd6 c63f 1ada 248e b767 dbbf
00000170: 6ac2 522a 3399 d73f 8806 397e 3082 d2bf
00000180: 0509 7249 a8c4 cd3f 72f0 a53a 06a6 c8bf
00000190: b923 6412 d0ca b73f d634 1e22 2e51 afbf
000001a0: 7c43 b59a 1767 c83f 8d39 da9a 3efb cabf
000001b0: 4b88 dee0 0692 e1bf ffc8 8c99 6342 b63f
000001c0: 6315 ff0b eea0 cfbf 65a5 9900 f62e 823f
000001d0: 5f02 7894 4a4e c6bf 5cbc 0f8c d238 de3f
000001e0: 5ad9 1935 1c58 d3bf b1ba 7eb6 a0a4 d23f
000001f0: fd05 bef4 f745 d5bf 9655 c0fc 1fc0 d33f
00000200: 18fa 9513 9add c7bf ba2b 8d74 845e e9bf
00000210: 59da 38d3 cd7a ea3f 46d3 550b 262c d4bf
00000220: 2985 d7f3 6129 d63f 94d0 9282 0f42 c03f
00000230: a005 9f32 4d7c cd3f fe9d 6a57 0d6a aabf
00000240: 2c28 8f13 7ec2 81bf acb2 8802 0e0b d23f
00000250: c66a d420 8c8d babf b4f0 2020 df0b bc3f
00000260: ed4b eddc 4ed1 cc3f 2082 0a05 4d83 94bf
00000270: 3bff 12dd ca0f abbf e7fc e7cf 5d8b d53f
