Crafter-TurtleBot/HF_wo_Fire/PG/results/NovelGridworld-v0_c1_b0_e0.npz (npz, 7550 bytes, 2 tensors)

layer1 f8 [83, 10]
000000 a4 98 68 6f 4d 24 da 3f ed cc d5 78 3f 6e a1 3f
       0.40846572761291555 0.03404425001181175
000010 81 91 ee 21 48 48 b3 bf e6 f8 40 f4 03 0f d8 3f
       -0.07532168224731174 0.3759164700785632
000020 52 6c a1 00 56 6c d2 3f bd 5f 2e 3c 4a e0 d4 bf
       0.28786230146005665 -0.32618957402291554
000030 c8 8e 82 64 90 ce b4 3f 9b 0d 39 19 f2 0b 90 3f
       0.0812769170175286 0.015670569219094693
000040 a3 4c 09 7e 0a 32 b0 bf e5 12 a8 01 e4 04 d9 3f
       -0.06326356484469157 0.3909235016038067
000050 66 2a de 8f 4e 5c 72 bf 00 20 a1 5e 5c 70 95 bf
       -0.004482561953305186 -0.020936435008735543
000060 ed e0 de bd 12 fd b2 bf 01 41 30 35 b1 fa e0 bf
       -0.07417409072411703 -0.5306020773732883
000070 76 4c 19 55 25 7b c4 3f af 67 3f 44 95 b0 c6 bf
       0.16000811248031582 -0.17726388771444365
000080 1b 6c fe cd 31 5b a3 bf 9e 0c 6f 3e d1 d1 87 bf
       -0.03780513419697958 -0.0116306636026649
000090 e1 1e 1a 18 5b 94 6b bf 26 bb b3 6a b8 2a d9 bf
       -0.003366640012988018 -0.39323244495510534
0000a0 69 a8 7a 75 3b 74 e3 bf e7 8d 3c dd a5 0f c9 3f
       -0.6079385084642698 0.19579003622594301
0000b0 bc d7 10 ee ec 96 c4 3f 16 9d 6b 4e f7 cb e4 bf
       0.16085588096910708 -0.6498981982848899
0000c0 71 1b bb 95 5b d5 c5 3f a4 bc 9b df c0 a7 b7 bf
       0.17057366190985193 -0.09240346392810977
0000d0 f5 6d 9c f0 f5 ea af bf 9a 4d 85 2c 31 71 8b bf
       -0.062339482900110633 -0.013399490519680413
0000e0 23 b6 db 64 43 89 ae bf 32 4a d8 14 06 a2 e3 bf
       -0.05964098554782662 -0.6135282904745678
0000f0 88 31 fa ed fd a0 ee bf 96 9c a4 c7 18 c4 cc 3f
       -0.9571523330683229 0.22473439930147227
000100 48 8a e3 77 a6 f6 c5 3f 22 8d 1e bb d9 4a f7 bf
       0.17158966878840176 -1.455774050650526
000110 20 de 48 76 d0 fb de bf 6e ee ba cc 8e de b4 bf
       -0.484119525444358 -0.0815209626988975
000120 8d 87 7c 78 0e 74 c2 bf 85 5a d3 62 0e dc ba bf
       -0.14416676409842602 -0.1049202910684049
000130 7a 7a dd e3 06 70 bd 3f b3 1d 8a 24 f1 09 f4 bf
       0.11499064505685822 -1.2524272372555572
000140 47 c8 de 99 90 62 ca 3f cf 9d cd 1c e2 5a c7 3f
       0.20613296044536097 0.18246103674321865
000150 6a 3a 96 ac ef 99 b3 bf 90 69 61 ad 19 ef e0 3f
       -0.07656763042016626 0.529187048562834
000160 05 29 78 33 35 5e d4 3f a4 35 38 c7 a7 fc c0 bf
       0.31824998880678407 -0.1327104304076957
000170 ea e7 33 44 f5 c7 bf bf 32 5d b7 a9 5d d6 ca 3f
       -0.1241448680410994 0.20966692721297303
000180 7e a4 8f 77 35 be 9b bf a5 cc 4f ac 54 d9 d6 3f
       -0.027092776701384207 0.35701481654468586
000190 cb 81 6e e9 8a a4 cd bf 37 41 0a 83 5d ae a9 3f
       -0.23158394239454902 0.05015842651949003
0001a0 db 1f f4 0c 84 0b d2 bf a3 27 b5 62 16 b7 e3 bf
       -0.2819528700351818 -0.61609954146228
0001b0 ec 3e c6 5b 8c fc a0 bf 32 31 50 07 19 c5 7c 3f
       -0.03317679043095531 0.0070239045790112965
0001c0 3c fb 80 18 b6 b0 a2 3f 84 24 c6 6c 4c 0a d5 3f
       0.03650445031279623 0.3287535726781885
0001d0 32 e4 e2 8b 15 ca 83 3f 9e e7 a7 82 c7 f7 d5 bf
       0.009662788707247658 -0.34324825057375985
0001e0 e3 ea f8 9a 20 07 da bf f1 ce fb 93 76 20 88 3f
       -0.4066850198175144 0.01178066863165081
0001f0 c2 06 95 c5 de 06 c8 3f fb 2b 6a 16 ac 9b e4 bf
       0.1877096619373813 -0.6440029561794057
000200 44 97 fc 46 d2 2a b4 bf bd 39 57 c5 cf be b5 bf
       -0.07877840264390296 -0.08494280403031147
000210 a3 9a 86 f2 4b e8 c2 3f 80 ef 8e fe 85 4f d8 3f
       0.14771413175659118 0.37985372409070095
000220 61 89 5b 3b 17 55 c4 3f 58 53 a6 bb bc 7a e0 bf
       0.1588467635948048 -0.5149825730355628
000230 b2 40 9c cf 78 73 ee bf a3 be 00 cd ac 52 c9 3f
       -0.9515956931009184 0.1978355408659712
000240 64 a1 ee 24 cf c1 d1 3f 99 aa 7e 55 43 87 f1 bf
       0.27745417219786916 -1.0955231990471133
000250 b5 f9 62 8e 31 eb ec bf 27 e2 50 73 3c 4e d3 bf
       -0.9037101536740041 -0.3016501546985943
000260 20 76 15 e8 38 6b 89 3f 20 ce e3 d6 fd 96 b3 3f
       0.012411541540752913 0.07652269836744852
000270 b7 89 1f e6 53 7a 99 bf 7d f7 d8 b1 5a 92 f1 bf
       -0.02488070575771825 -1.0982310244721412
000280 a8 fb 50 b8 df 9c bb 3f 18 0a b8 5b c1 dd d5 3f
       0.10786245584402698 0.34165986973690243
000290 62 6f ab 5d 2c 88 9f 3f 86 6e da 97 36 58 ce 3f
       0.03079289743150982 0.23706705488881513
0002a0 f5 5c ac 87 6d 85 d6 3f a6 12 e1 69 86 c2 b3 bf
       0.351893789761973 -0.07718696675244505
0002b0 04 d1 97 10 a1 ca c7 bf a0 54 85 c7 99 82 92 3f
       -0.18587125120360082 0.01807632713583429
0002c0 2e 76 0e e9 e4 5c a8 bf 14 dc 0d b8 4c 33 cf 3f
       -0.04758372635772577 0.24375304209726834
0002d0 56 45 36 dd 94 1f 97 bf 59 51 2e bc 7c a9 b2 3f
       -0.022581411363323887 0.07289867014180142
0002e0 5f 77 e0 25 bf 24 9f bf 02 20 ed 26 d5 e9 d3 bf
       -0.030413614928071705 -0.3111470108165123
0002f0 a5 f2 3c 6f b4 94 a3 3f aa 64 4f 19 0c b2 b1 bf
       0.03824390275847137 -0.06912303560183611
000300 22 ec bd 59 e7 86 b6 bf ed d5 37 5c c1 16 d1 3f
       -0.08799596730197881 0.26701387410807237
000310 c7 ca a1 9c 12 66 b8 bf 50 02 f8 59 19 2b c6 bf
       -0.09530750583671042 -0.17319027798659414
000320 7c e1 a4 d5 a3 5a c5 bf 20 df 95 cf 54 6d ba bf
       -0.1668286126312174 -0.10323076313022428
000330 a4 87 f7 42 57 2d c1 3f 7e 28 41 36 78 38 d8 bf
       0.13419619340771505 -0.37844662950795527
000340 a7 24 46 69 30 2a cf bf 24 9b 08 1a 92 dc a5 bf
       -0.2434750093491733 -0.042698445966655535
000350 34 27 75 a2 2f 0b a2 3f 2a dc 92 07 5e d1 c1 3f
       0.035241592961553186 0.1392018830281086
000360 52 fa e2 bb 9a 05 b7 bf 43 63 39 73 35 03 c5 bf
       -0.08992926680637339 -0.16416042448215692
000370 ab ef 5c 81 2e 6b e4 bf 54 9a a5 58 57 9d c9 3f
       -0.6380836989042015 0.20011417225323902
000380 f1 07 36 d1 88 85 d2 3f ab f8 e1 33 4c 72 f0 bf
       0.2894002955509896 -1.0279047037761682
000390 c7 b9 5b 6f e2 ba eb bf de 57 20 6c b6 2b cb bf
       -0.8665630507437577 -0.21227150230032427
0003a0 b4 37 19 c6 c5 df 84 bf 0d 29 3f df 00 77 c3 bf
       -0.01019243727492012 -0.15206919575423009
0003b0 fa e6 89 4c f7 34 a7 3f 2d 60 59 23 b3 2a e3 bf
       0.0453259735995299 -0.5989623728191923
0003c0 0e a6 64 6d 27 13 ab 3f df 30 e6 fc 42 93 c9 3f
       0.05288050852170666 0.19980656956284457
0003d0 5f f0 82 89 3e 7b d2 3f b6 0f f0 53 d2 0f d2 3f
       0.28877223423820014 0.2822156734184732
0003e0 a6 bc 65 e7 c7 90 c0 3f 0a 8a 00 0a 56 74 94 3f
       0.12941836165143633 0.019975036964874383
0003f0 92 48 58 0e 04 42 a8 3f b1 39 59 14 ca 4d 91 bf
       0.047378660918313234 -0.016898305408454998
000400 84 89 8a 78 ad 4d c9 bf 0f 1f 9b a6 3c d5 b8 3f
       -0.1976830328540694 0.09700373713996789
000410 e8 e8 45 07 82 3a b9 bf f9 19 cf 6b 44 e0 97 3f
       -0.09854901006284289 0.02331644924177032
000420 73 6d ee 1e 06 55 cb bf ed 95 17 35 02 49 c3 bf
       -0.21353222379989809 -0.15066554634465437
000430 4c a4 11 62 a6 a3 ae bf 03 dc 33 e4 16 77 b0 bf
       -0.0598422999108342 -0.06431716033317518
000440 00 db 0c 9c 80 4d 98 3f 3c 0a 3d f3 a8 43 c1 3f
       0.023733148121404035 0.13487731816174342
000450 59 35 a9 9f f1 e4 a6 3f 74 01 db 23 56 a5 b4 bf
       0.04471545289980367 -0.08064783454302021
000460 00 7b 84 9b 3b a7 a6 bf 57 c2 28 75 ee 76 cd bf
       -0.04424463532835965 -0.23019200058617414
000470 cd ee 99 b7 bf 57 90 bf 48 fe fd 3c da 62 cb bf
       -0.015959735470899617 -0.2139542386830604
000480 0d 5a 42 5e 90 55 b6 bf 6b 8c e3 81 d0 62 b2 bf
       -0.08724310208558723 -0.07182028933634547
000490 57 9d 36 78 05 03 93 3f e9 20 24 a6 4a 86 d9 3f
       0.018566213094940078 0.3988215086433358
0004a0 55 47 ff 52 75 b3 79 bf b8 11 d2 64 b3 35 9d bf
       -0.006274660394369598 -0.028525164631462124
0004b0 1c 5e 86 fc ca aa d2 bf 71 d7 90 36 eb 20 72 bf
       -0.29167437229759385 -0.004425925065381851
0004c0 9f 75 2b 57 aa d1 c1 3f b7 13 5e b6 e2 9a d0 bf
       0.13921097999893292 -0.2594534665043357
0004d0 5f 67 91 ca 26 38 de bf 5a c9 4d 61 09 54 a3 bf
       -0.47217721731214185 -0.037750523689185925
0004e0 7a 10 61 c9 90 6f b6 bf f8 3b bb 86 66 bf b6 3f
       -0.08763985554202405 0.0888580397542994
0004f0 8d f8 e7 96 5c 71 ab bf 0a f1 68 1d 8a e5 d8 bf
       -0.053599255963477345 -0.38900997993529585
000500 a3 82 5e 08 aa 1c a5 bf 44 e6 64 71 77 d8 c0 3f
       -0.04123431541598179 0.13160603558371708
000510 f2 0f f2 96 4c 17 d0 3f cb de a1 ed 4a f5 96 bf
       0.2514220689847654 -0.022420092348027148
000520 e3 13 0e 90 5b e0 ce 3f f7 97 aa fa 10 92 bc bf
       0.24122185262618165 -0.1116037952402563
000530 98 8a b9 09 4e 91 64 3f e0 df 17 ad cf 06 bb bf
       0.002510692995018115 -0.1055726811972586
000540 e8 34 e2 34 5d 63 c6 3f d5 a2 cd 3c dd 75 cc bf
       0.1749073513241577 -0.22234693020734278
000550 9f c3 95 8f 17 2a b2 bf 25 29 82 70 30 65 c7 3f
       -0.07095477347844657 0.1827755498273486
000560 c0 cc b5 59 c0 68 be 3f dc 84 1c 66 4b 89 c5 bf
       0.11878587904157012 -0.16825239644916834
000570 a9 ef b5 06 6b 22 a1 bf f5 0e d9 ee 92 64 b8 bf
       -0.03346571404378491 -0.09528463679549388
000580 72 72 58 33 17 2e b2 3f 87 33 bd af 27 bf da 3f
       0.07101578715850979 0.41791717683809576
000590 88 25 2b fd c7 bc 9b 3f d8 aa 9a 00 ef e6 b5 bf
       0.02708733065336369 -0.08555501713514546
0005a0 84 b7 b4 8e 51 41 b6 bf 99 b1 04 fc be 29 81 3f
       -0.08693418249160173 0.00838040548895762
0005b0 04 6e c4 27 8a 45 b8 bf b3 fb cd d7 52 1a 84 bf
       -0.09481109114533842 -0.0098158332928032
0005c0 b6 d3 34 1b d5 d2 78 bf d6 e6 e7 d6 74 d1 c0 bf
       -0.006060440489183463 -0.13139210217905511
0005d0 2c 63 98 9b cc 3c a3 3f 11 77 b1 a8 ee 97 d7 3f
       0.037573236459314735 0.368648209323383
0005e0 e4 b7 0d 29 50 a2 85 3f d6 2b 7d b2 ff 43 af bf
       0.01056349396978002 -0.061065664804651185
0005f0 f7 41 f1 38 bc 14 bd bf 2e e6 ff 5e aa fb d0 3f
       -0.1135976447124064 0.2653604438524749
000600 2c 1b 45 c5 ef 20 c5 3f c5 1d 6e fe 0e 24 d0 bf
       0.16506764538117957 -0.2522008404416421
000610 78 3e 52 2c a4 1f c5 bf 6f 66 e4 07 c9 46 c8 bf
       -0.16502811588405897 -0.18966019521103614
000620 13 3f ee 54 67 fd a1 3f 45 a7 61 7c 3d f7 bd 3f
       0.03513644134284113 0.11705383574158386
000630 ae ba 3c 64 79 3f b5 3f 44 c0 6d e8 19 57 b6 bf
       0.08299978921125259 -0.0872665588810842
000640 2d 1c f4 ed ff 4b ba bf 58 d6 52 6f 7c 8b d6 3f
       -0.10272216376698458 0.35226355430072465
000650 d4 c4 de 62 dc 56 b4 3f 67 04 c7 c0 8c 3f c1 3f
       0.07945039190123576 0.13475188649138944
000660 59 59 6a b1 f4 b7 95 bf 73 d2 6b 75 48 22 cf bf
       -0.021209548309877622 -0.24323373540359547
000670 1d 4f b6 7a d1 a8 cd bf d3 e2 b9 59 e4 fc cb bf
       -0.23171442500881137 -0.21865515118749687
000680 64 ac f0 9a e7 ec c8 bf 2e de 48 7c 53 e9 ae 3f
       -0.19472975793300684 0.060373886987175815
000690 c6 75 79 7d 7e e8 a4 3f cb e9 99 80 9f 90 94 bf
       0.040836289231019715 -0.02008294317645624
0006a0 9e 99 37 52 01 05 8e 3f c0 dc 22 da 96 17 c1 bf
       0.014657984086579753 -0.1335323872678824
0006b0 c1 19 31 0b 4a 57 c0 bf f6 55 13 6e 1a 7c 6a 3f
       -0.1276638559958894 0.003233005162295961
0006c0 a8 00 3c 84 05 8b a6 bf 4d bd 0e 61 65 9c da 3f
       -0.044029400245564176 0.4157956550434008
0006d0 52 57 63 c1 3e 91 b0 3f 69 21 64 b2 8f a2 c3 3f
       0.064716264928703 0.15339847765450124
0006e0 81 6b 99 69 45 28 ce 3f 3c 82 6a bf d8 6d be 3f
       0.2356039777394834 0.11886362717860605
0006f0 06 6d 08 dd 4e 3a ca 3f 00 7b 74 6f 66 36 99 3f
       0.20490442078230603 0.024621582558320476
000700 e8 11 c0 be 6d 77 bf bf 0f f6 8b 6b cc e3 c6 3f
       -0.12291608721722691 0.17882685900978898
000710 cc a8 e3 f0 f0 d6 b9 bf 83 c5 f2 38 3d 55 d1 3f
       -0.10093599206053055 0.27082758485183706
000720 1a 62 40 41 42 2b b4 bf 29 73 99 08 07 39 bc 3f
       -0.0787850770287907 0.1102451702112829
000730 08 d3 e1 1e 42 4b ae 3f 6b 54 69 12 8c 93 c8 3f
       0.05916792513827401 0.192002781858409
000740 98 3b bd 2b 93 e8 c0 3f c7 07 a0 91 13 1c cb 3f
       0.13209762225821176 0.2117943249759817
000750 49 68 9c 6c 06 41 a9 3f 4b ed c6 65 06 26 c3 bf
       0.04932422710244617 -0.1495979306181233
000760 4c b1 04 23 61 ba c2 bf db fe df 0c 0c ec aa bf
       -0.1463128491390172 -0.05258214623608889
000770 c9 7c 23 f7 a0 a1 c5 bf 3c 77 8d 62 8e c7 c8 3f
       -0.16899501864734237 0.19358997165812208
000780 5b af 6a e3 57 79 b5 bf 56 75 e6 50 35 47 cf 3f
       -0.0838828020302435 0.24436060381132546
000790 31 97 16 6d ca c3 bb 3f fd ce 74 fe 2f b7 cc bf
       0.10845627940451831 -0.22434043812392437
0007a0 3f 5d 17 b1 58 c7 a0 bf 64 b1 cc d1 98 60 66 3f
       -0.03277089273222566 0.0027316078907430475
0007b0 54 a0 0f 9f 17 4a 72 3f ad 3f e5 55 6a 35 c4 bf
       0.0044651911457337 -0.15788010782352782
0007c0 4b b6 32 ed 3d 4a b6 3f 3b 86 62 59 d4 6f d1 bf
       0.08707034150094121 -0.2724505303286581
0007d0 b5 41 06 c0 be 23 ad 3f 1d 31 5c 05 0d 10 c6 3f
       0.056913338604434406 0.1723648334667666
0007e0 e9 9c d2 5a 0b d8 d9 bf c5 28 f8 cc b2 77 92 3f
       -0.4038113009396072 0.01803473831208959
0007f0 77 ce b3 b6 fc 8e c1 3f 91 a8 0f cb e0 15 bd bf
       0.1371761219121372 -0.11361508328960414

layer2 f8 [10, 5]
000000 cf 35 63 94 e7 fa e0 3f 47 23 7f 3d a5 9e c2 bf
       0.5306280039018761 -0.14546647551312672
000010 5e 60 9b 08 08 95 d7 bf 11 64 4d 9b 80 ae 85 3f
       -0.3684711536457196 0.010586743106317827
000020 3a 5b 3f 3f dd ca c3 bf be af e2 83 c7 87 a7 3f
       -0.15462842548614636 0.04595778927736614
000030 b8 4b 50 aa b2 c5 e5 bf 21 76 12 b3 1e 65 e2 3f
       -0.6803830458105642 0.5748437402250525
000040 a4 c3 d6 07 60 92 d6 3f 19 76 5a 49 c8 87 c2 3f
       0.35268402829665946 0.1447687490626073
000050 41 ac 72 f6 0e 90 de 3f cb 94 de 3c 89 99 b7 bf
       0.47754262988263824 -0.09218652473517179
000060 c4 10 19 ff ab 32 d2 3f e7 29 82 97 da 7b e1 bf
       0.2843427649679706 -0.5463688811444712
000070 04 ee dc 9d 31 54 d2 3f f7 eb c1 10 81 58 f6 3f
       0.28638878265675793 1.3966074614133939
000080 be 19 13 01 c3 a8 ef bf 09 e3 f2 a5 07 fc e2 bf
       -0.9893507977474696 -0.5932653657137915
000090 ce ca 15 e6 ef e7 bc bf bc a7 8b fc cc de cc 3f
       -0.11291407935440675 0.2255493386394941
0000a0 bb 9c b2 22 58 c0 ce 3f e6 2a fa 91 63 29 ea bf
       0.240244881574858 -0.8175523615949174
0000b0 80 21 d4 18 ce 99 df 3f b3 e9 43 eb 72 75 d3 3f
       0.4937625162570143 0.30404351210713826
0000c0 34 29 2f 8c f9 56 c5 3f 59 7d 58 74 a8 9d e5 3f
       0.16671676011021364 0.6754953644157623
0000d0 e5 bb f3 ee 30 33 d5 3f 35 ef ab fb f8 2c c1 3f
       0.3312494596020186 0.13418495453503856
0000e0 7a 8d 6c 02 7b 34 cd 3f e0 b4 99 39 08 81 b4 bf
       0.22816407793389343 -0.08009387403736268
0000f0 b7 01 f7 0b 4a c6 d5 bf 68 e6 e0 b5 26 8c 8a 3f
       -0.34022761505550697 0.012962629724017918
000100 52 7b 0f dc 62 5f ae 3f 59 d7 42 e2 2b 8e d3 bf
       0.05932148872647382 -0.3055524549084701
000110 2b 50 fc d0 7d 78 c6 bf fb 44 f1 a7 6f 59 d9 bf
       -0.17555210785269657 -0.3960837497771334
000120 a4 dd 58 93 ad 6e aa 3f ea 5a d0 82 b1 ec ca bf
       0.05162565635367436 -0.21034830939671362
000130 0d 65 f3 ab 92 ff e3 3f d2 38 e8 2d 01 c5 b4 bf
       0.6249478681958479 -0.08113105173854088
000140 89 9e cd 85 3b 8c d3 3f c1 29 e1 5c 5d 75 db bf
       0.305434113185108 -0.4290383727099219
000150 95 a8 84 80 2a f4 e0 3f 82 ed 1c 89 c0 0c dc 3f
       0.5298054227944414 0.4382783259386188
000160 b0 65 39 4d 2c 23 a0 bf 4f 56 68 84 19 26 eb 3f
       -0.03151834910085982 0.8484008394322674
000170 3c 9a ca bc d3 9e d1 bf 7e 1e e5 4c 2c 54 f0 bf
       -0.275319036833398 -1.0205500606261064
000180 7a ca 06 6f 4e 92 84 bf 35 77 25 1c 39 cf d4 3f
       -0.010044682276974404 0.32514789341609013
