Crafter-TurtleBot/HF_wo_Fire/PG/results/NovelGridworld-v0_c0_b0_e1.npz (npz, 11774 bytes, 2 tensors)

layer1 f8 [83, 16]
0	0x3fc3a09c05ced678	0.15333891185371207
1	0xbfa143f7ae9cdc02	-0.03372167593482091
2	0xbfb52ec34331ef22	-0.08274479284767414
3	0xbfb9e7e60e3bc789	-0.10119474265573393
4	0x3fb4c51b0a192e7c	0.08113259312193039
5	0xbfd1753b7d370241	-0.2727802965928597
6	0x3fd09ddfe48b06ec	0.2596358997217141
7	0xbfb9fe184722cc55	-0.10153342949597406
8	0x3fb478b934c56b33	0.07996709383352822
9	0xbfb28caf459b9f90	-0.07245917748843866
10	0x3fc287599d506676	0.1447555559287143
11	0xbfcc337c7e0fc541	-0.2203212371382879
12	0x3f9465f23c3d75f5	0.019920144011271252
13	0x3fa9a706d7e1c2fd	0.05010243783261179
14	0x3fb805ec149ec6c0	0.09384036544249863
15	0xbfbcf27515c77dde	-0.11307460576744385
16	0x3f9ff101b0caa040	0.031192804732796953
17	0xbfbaf6f5bc534892	-0.10533080909525186
18	0x3fb60a657c8cb71c	0.08609613695872692
19	0x3fb197c4757576f0	0.06872203700683222
20	0xbfc18593e033a18e	-0.1368889660582337
21	0x3fb58e43c093b3a5	0.08420203639589248
22	0x3fa2565264a74fe2	0.03581483343774018
23	0x3fb532a10025b409	0.08280378583522476
24	0x3f8a8df4f36acf4c	0.012966073683265876
25	0xbfb1b5cf68283b0d	-0.06918045323275752
26	0x3fa74ce9464f8d29	0.04550866111073965
27	0xbfb746a6439c69c5	-0.09092177534731778
28	0xbfb270c5a776bc8d	-0.07203326548072848
29	0xbfa22dfe2464b01b	-0.03550714678053187
30	0xbfa8d958c97c2604	-0.048533224673587255
31	0xbfb7e0ad88e9a761	-0.0932720622310206
32	0xbfabb68b5b619cc6	-0.054127077965682655
33	0xbfc0e6128c85254f	-0.13202125417073282
34	0xbf89794fc5bb3b8f	-0.012438414785177957
35	0x3f8085ca5b663ac6	0.00806768504551537
36	0xbfc0405cfe5a71f8	-0.1269642106971245
37	0x3f76a7de179c0d50	0.005531184718850682
38	0x3fc80a7950c5e7f9	0.1878196377181778
39	0x3fb05d07681d4c2b	0.06391950885635882
40	0xbfb07f0f71a3ec61	-0.06443878673955929
41	0xbfbb4705ced2558e	-0.10655247020107181
42	0xbfac2fd59327e168	-0.055052446568825186
43	0x3fc5e4a1bc3c53ae	0.17103978816217363
44	0xbfaabd37dcb87e68	-0.05222487038940643
45	0xbfc016442ca5e24e	-0.12567951374127734
46	0x3fa57d3273e10f30	0.04197080292263278
47	0x3fcb51d78e3d79eb	0.21343512006110585
48	0x3f8b02eae35d2117	0.01318915850028239
49	0x3fb157db696037c6	0.06774684260037053
50	0x3fa0de8e855c1041	0.032947973040819985
51	0xbfa3cbd372b14e02	-0.03866444373184309
52	0xbfc00d5bbce9d7e6	-0.12540766453065472
53	0xbfa3a20048f751a7	-0.03834534540843331
54	0xbf977abb424bd3b9	-0.022929120942496193
55	0x3fb07be14ee97be3	0.06439026047290457
56	0x3fb7933c6ca5ffda	0.09209039356755913
57	0x3fba29e483ef6df3	0.10220173092914546
58	0x3fa00cc03906a533	0.03134728141896872
59	0x3fb8df45b540ab35	0.09715686488258941
60	0xbfb532c500b353fc	-0.08280593173124368
61	0x3fc19a4298a45a14	0.13752014592383033
62	0x3facd3883a6fb60f	0.0563013621648275
63	0xbfa0c0aafbc20336	-0.03271993945327838
64	0x3f5663544aa5e336	0.0013664553794951579
65	0x3fa3892de390f04e	0.038155969647477236
66	0x3fbe2f41d8295e27	0.11790858771689071
67	0x3fc993f88c0b5d76	0.19982821310143678
68	0x3fccc47bc3f12541	0.22474619929770692
69	0xbfc5a364dea593e7	-0.16904888984132002
70	0xbfb96bdd4ef3c989	-0.09930213143869628
71	0xbfb5aefc0eaae009	-0.08470130308239744
72	0x3fac6d44fc86591d	0.055521159959584156
73	0x3facc753ed9c68a4	0.05620825076603467
74	0x3f728e3deb7ab4ad	0.0045301836723129875
75	0xbfcd0733e308107e	-0.2267823084404234
76	0x3f9c4a989e8337f2	0.02762831180080378
77	0x3fc78ed0b63befcf	0.18404587648535517
78	0x3f8d67715e3feb8c	0.014357457817814077
79	0x3fb0bda2338276dd	0.06539357907828554
80	0x3f9f02a48814d25c	0.030283518605943235
81	0xbfa825f3316626ad	-0.04716453531280016
82	0x3fb65d84b289d7c5	0.08736447676514476
83	0x3fb060364545018d	0.06396807852889293
84	0x3f951d103e16aade	0.020618680753311185
85	0xbfa19d901c438632	-0.03440523476616554
86	0xbfba8b27d56fd11a	-0.10368584595545763
87	0x3fae7b904d8450f2	0.0595364660859178
88	0xbf9841cc73b9817c	-0.02368850189520931
89	0x3fbd5aba09909ab1	0.11466562970654583
90	0x3fcc1035fb133e4f	0.21924471625833283
91	0x3f5d255c2fca5e5e	0.0017789268742144575
92	0xbfc060841ab9d8bc	-0.1279454355714672
93	0xbfc6e6a263a9b8f3	-0.17891340128284802
94	0xbf82bafb057f7f3c	-0.009145699601446837
95	0xbfa20b0deb3fdb3c	-0.03524058815667394
96	0x3f975211bbb756bc	0.022774006922040554
97	0xbf909e43642a9b2f	-0.016228726376222354
98	0xbfb047f6c225461b	-0.06359808196909748
99	0x3fb3baa9fd311477	0.07706701690138283
100	0xbfad1bb1dd167363	-0.056851919401401906
101	0x3fbc5a8ce7957b7e	0.11075668958572568
102	0x3f86a7b6a02bd86f	0.01106207538894585
103	0x3f920dcabaefe3b9	0.01763073698018378
104	0xbfc4b5f05ac9ae3d	-0.16180233414648795
105	0x3f9309d138b9b96b	0.018592137419937965
106	0x3fb2b02660f04db4	0.07300033442179804
107	0xbfba4418931f22a4	-0.10260156242214663
108	0xbfb957d8127fe62e	-0.09899664355898416
109	0xbfaaefc37dd38e14	-0.05261050139395365
110	0xbfc18782244f8e06	-0.13694788716303224
111	0x3fa2b810b83378f9	0.036560556874734425
112	0x3fb7c6dd93fa3dd7	0.09287819731456835
113	0xbfb826efde0d11ae	-0.09434413119476545
114	0x3fa3b34ff88ea3f0	0.038477419940427526
115	0xbfc26ff657c6c8ce	-0.1440418175312232
116	0xbf7165b471d1f70d	-0.004247383939512306
117	0xbfc6b389a8f09c23	-0.1773540568258066
118	0x3fbf82ee1b7d2392	0.12309158488382213
119	0x3fa6fadc5449710e	0.04488266495602221
120	0xbf6622a275ec9057	-0.002702061944903671
121	0xbfb5c8221e9f9e16	-0.08508504150051296
122	0x3fc1e5636b4fe280	0.1398128770813578
123	0x3fcba32eff7c4589	0.21591746783137136
124	0xbfca1ab4c0ad21fa	-0.2039400044252629
125	0x3fc15e2df33d0d7f	0.13568663002852685
126	0x3fc6de42ecd5601e	0.17865788044105185
127	0x3fa2fefb3d67b7e5	0.03710160374235708
128	0xbfc430773106e753	-0.15772905248541721
129	0x3fbf9a7dce0a72c7	0.12345110206883723
130	0xbf90966b25716ff6	-0.016198801193567612
131	0xbf8fee02c71347e4	-0.015590688419624806
132	0xbfc8ea7eed4d375b	-0.194656244153914
133	0x3f944e9546d18c28	0.01983102078191848
134	0x3fbf9a68d134105e	0.12344985110763804
135	0xbfb6d4c99a090958	-0.08918437967898762
136	0x3fb088f6052c13e2	0.06458985925935637
137	0xbfc4d7214a10c41f	-0.1628152476928628
138	0x3fb657bc95e71ae6	0.08727625522361002
139	0xbf7375f9629e577c	-0.004751180802392226
140	0x3f9ca470e7a886e1	0.027971042765904456
141	0x3fa13d2dc45cf05e	0.03366988203058051
142	0x3fb7cd75eeb324fd	0.09297883107787537
143	0x3faf9649e5f342d0	0.06169348651895279
144	0x3fa9777ea23f144a	0.04973979692980686
145	0x3fad02c2d1f2c79a	0.0566616898808114
146	0x3f9c70d91cf5a7e2	0.02777423133139923
147	0x3faddfb8a3dea001	0.05834748268472368
148	0x3fb4cee42a9b5ce4	0.08128191032607252
149	0x3fa9c2e326d926fe	0.050314997188776175
150	0xbf639c1b2d434633	-0.0023937731549288576
151	0xbfd4acb1ef8c03d7	-0.3230404700589679
152	0x3fc368f9016f44cd	0.15164101190615611
153	0x3fcb5f33f54031f4	0.21384286379942774
154	0x3fb31fdb9532c7db	0.07470486061609398
155	0xbf7f4556c92e7a86	-0.007634486205374663
156	0xbfa47efa1d305b91	-0.040031257689569284
157	0x3f71de3bfe07ce74	0.0043623298120000105
158	0xbfb0bea1ef25938d	-0.06540882195038318
159	0xbfbb9aa2e98bf66f	-0.10782831384491386
160	0xbf903518689f79e3	-0.015827542672804184
161	0xbfb8f83af7539873	-0.09753769434209562
162	0x3fa46f0744b6bce4	0.0399095794085669
163	0xbfab59fcb3bd56eb	-0.0534209222229672
164	0x3fabe595372881c6	0.054485953314955135
165	0xbf9cf79d1a566984	-0.028288321239963846
166	0x3fb8b15468c6a4ed	0.09645583684927646
167	0x3fa0f90b9357b7df	0.03315006421676946
168	0x3fc7a86ad2e8477c	0.18482718752107619
169	0xbfcaa4bf0368d94e	-0.208152653374507
170	0xbfb2c4a19329b162	-0.07331285326808293
171	0x3fbb8fe251bdfc21	0.10766424651772911
172	0x3fcc3480b6af1c9f	0.2203522579204433
173	0xbfadcc010a13462b	-0.05819705245961545
174	0x3fae8aaf68dae15a	0.059651834058459044
175	0xbf8fb5d1b508926e	-0.015483511292651655
176	0x3fc2b4ece63ed036	0.14614640467118684
177	0xbfa02581192343f7	-0.031536135023664195
178	0x3fb31c16ed9888f4	0.07464736271552735
179	0xbfa1f8fe0a6b6802	-0.035102785846632414
180	0xbfc1e11518e38b78	-0.13968147006297804
181	0x3fa19f0485bb3223	0.03441633350812292
182	0x3fac47549d01b3ca	0.05523170868477896
183	0x3fc22b6ac12b6a56	0.14194998199566794
184	0xbf88d403c960ac80	-0.012123136122758504
185	0xbfb1590021aef4c1	-0.06776429006909536
186	0x3fafa074ace3b0cf	0.06177105532137405
187	0x3f9b0efaafbdefd4	0.026424328781544507
188	0x3f9f8bde6761b957	0.030806994495315845
189	0xbf806f7efc966fec	-0.008025161822665404
190	0x3fc04d7430b444cd	0.12736370447286163
191	0x3fa4c3e645b912d7	0.04055709458456185
192	0x3fca5f37000ffe92	0.20603072646189396
193	0x3fc0aea82ca1f04e	0.13033010653805593
194	0x3fbeb232cb37ef3a	0.11990659200085654
195	0xbfb9f153331c7a75	-0.10133857724984259
196	0x3f902c416a4fd4ef	0.0157938214433288
197	0x3f881f30a4fc4dcb	0.011778240237197665
198	0x3fb9a310f43e9199	0.1001444431590869
199	0x3fba2774fccd5471	0.10216456577230006
200	0xbfb07375a3919450	-0.06426177256942478
201	0x3fa9ee869248c173	0.05064793143935988
202	0xbf9ea3557506dbb1	-0.029919944064854046
203	0x3fcad25219251e54	0.20954347827704345
204	0xbfc1bae09a1b6a73	-0.1385155441738167
205	0xbfc8a63f8121d995	-0.19257348828587043
206	0xbfc74873116be1e9	-0.18189848280577728
207	0xbfbae842d35d1f41	-0.10510652218101503
208	0xbfc6cf951f1b10cf	-0.17820991534075012
209	0x3fd2a3ad25ac4f37	0.2912400119687279
210	0xbfb4b46fe11de4dd	-0.08087825056090332
211	0xbfcbb31135492e1a	-0.2164021978554594
212	0x3fc62726398bd163	0.17306974229689862
213	0xbfb7bf36af49d9c5	-0.0927614381742848
214	0xbfb3f40e85d41cd4	-0.07794276015566776
215	0x3f85044133d1550f	0.010262021440363726
216	0x3fc5e424d07f844d	0.1710248964364233
217	0xbfa6e9f76f0e4ba2	-0.04475377302801255
218	0x3fc01e35c818b2a0	0.1259219386132786
219	0xbf8a048c95a329b0	-0.012703989330835025
220	0x3fceeb38f87d9bee	0.24155342229207072
221	0x3fc51bed36e5919e	0.1649147527742913
222	0x3fc1307af2008ad1	0.13429199997434307
223	0x3fa47ba77c052284	0.04000590695301745
224	0xbfba98847b6d7a89	-0.10388973248834978
225	0x3fd20b828d851d69	0.28195251293478535
226	0xbfbd69d3e3a6f7a1	-0.11489605243602209
227	0xbfaa54440f19adf1	-0.051424147456454856
228	0xbfadcfc6df961aec	-0.05822583655667821
229	0xbfaa97ea1f9be299	-0.051940265997420805
230	0x3f9e168263a2b897	0.029382741290355865
231	0x3f946bc027b4aa62	0.01994228594154846
232	0x3fad55bf07c415a4	0.057294816682808475
233	0x3fc92df459249223	0.19671491959265194
234	0xbfa0217096ecbab6	-0.031505125449588986
235	0xbfb9e5315f0c054b	-0.10115345545275038
236	0xbfc6c8353cc9d80f	-0.1779848620241755
237	0xbfafde3e23fa4e07	-0.06224245251828724
238	0xbfc087df3b6569c6	-0.12914648437693027
239	0x3fb7731c7b9df328	0.09160020845406491
240	0xbfabffcf1d925533	-0.05468604312879179
241	0xbfa17a25bea200b7	-0.03413503601132233
242	0xbf2b367a49d4e420	-0.00020761721399667563
243	0xbfc39f4d47a11fc0	-0.1532990073922047
244	0xbfb833e3690f33c2	-0.0945417529575954
245	0x3fb2f58b629a4768	0.07405921132365523
246	0x3fb16177bf0346d0	0.06789348996542377
247	0xbfa8e7ec8575afd6	-0.048644439021557836
248	0x3fc9700d0e1870a3	0.19873202503447826
249	0xbfc25861543d509f	-0.14332214940316576
250	0xbfa3635698a5316b	-0.037867265828569106
251	0xbf99f23147eb8571	-0.025337953581475007
252	0xbfd39f05877f98e5	-0.30658090812938915
253	0x3fcb38d125311628	0.21267141643527165
254	0x3fa4966d29b162ef	0.040210162486521976
255	0xbfbd5a43c5720ed0	-0.11465858049819677

layer2 f8 [16, 5]
0	0x3fb96c61ee6fa9ae	0.09931003638454314
1	0xbfbc4a6d994af95e	-0.11051068298818253
2	0x3fbcf0b6870acf6d	0.11304798886231789
3	0x3f9a8cec83352753	0.02592820692851856
4	0x3fcea94dd0f79ae9	0.23954174712635926
5	0xbfc540ea697797a8	-0.16604356908572737
6	0x3fc3971d1d685787	0.15304912506024612
7	0x3fa71ef096a635e9	0.045157926931192645
8	0x3fc986a8469ed132	0.1994219155145714
9	0xbfa31f6a13e0833e	-0.0373490475906295
10	0x3fc078ff6bd9ec81	0.12869255796599435
11	0xbfbbe65d83a20b02	-0.10898384536453068
12	0x3f992fa88b05d312	0.024595864758754145
13	0x3f70027ef881d024	0.003908630351464413
14	0xbfb40e1c25b53300	-0.07834030075646226
15	0x3fe9c455d64286a6	0.8052167114985493
16	0xbfd7230bf30b26ba	-0.36151407942507385
17	0xbfc92e634e4cbea7	-0.1967281467745938
18	0xbfcb4fc351f2a70f	-0.21337167264328413
19	0xbfc8b903396a5669	-0.1931461363171139
20	0xbfb31565719c2ffb	-0.07454523109134918
21	0x3fd9db104e91d955	0.40399558708977185
22	0x3fdb783b74ae2db4	0.42921339411324344
23	0x3fa9223430c8945e	0.04908907981397513
24	0xbfe41dd3bf64dc96	-0.6286410082019696
25	0x3faa26c584cef022	0.05107705351062487
26	0xbfd3485449106f21	-0.3012896264569794
27	0xbfc614aac9b3bf7a	-0.172505711066602
28	0xbfd416a59de0b091	-0.3138822595381124
29	0x3fb27eb8d4b25280	0.07224612419879328
30	0xbfcac0fc48a771db	-0.2090144495731597
31	0x3fd25061ab3b5097	0.2861560985741191
32	0x3fb73ca9562ab0a3	0.09076937059097871
33	0xbfa3af29680d257c	-0.03844575305135842
34	0xbf9f05674df5eab5	-0.030294050343835994
35	0x3fce34a8a7bffa71	0.23598201933778598
36	0xbfbb6ac58aee18fd	-0.10709795610282309
37	0x3fcc75f790277260	0.22235006846212269
38	0x3f95d489ec64fa6c	0.02131858353936382
39	0x3fa1b0956dc89313	0.03455035176401657
40	0x3fc392be0f7b4af3	0.1529157233804522
41	0x3fdaeac742adee2f	0.42057973395978626
42	0x3fb0aae68990e39e	0.06510773523849742
43	0x3f8086307b8e4348	0.008068445940610083
44	0x3fc7828d83732326	0.18367165487713882
45	0xbfd8d04d51db3537	-0.38771374696519295
46	0x3fd6d16f582bb523	0.35653289423392404
47	0xbfd3e86a0fbeab9f	-0.31106044328287824
48	0x3fcce04caa4e9b29	0.22559507671140835
49	0xbfc38429fdc1da41	-0.152470826058293
50	0x3fc110c2f035917b	0.13332401970832194
51	0xbf9f59d837620d8b	-0.030616167431174495
52	0x3fbd378315b75bcf	0.11412829666311029
53	0xbfcb77209f438762	-0.21457298065711955
54	0xbfe132ecebcbe0dc	-0.5374664883993563
55	0x3fb7910d67eb22a5	0.09205707346985521
56	0xbfc95b2bac205da6	-0.19809480576144017
57	0xbfae6db6e96245ba	-0.059430805196039896
58	0xbfc861fad14ad6ac	-0.1904901048598523
59	0x3fdee6cd30c3a1b1	0.48283700716140304
60	0xbfd17bc7c6dbc8bd	-0.273179954717431
61	0x3fce7ca7303b0d46	0.23817911009801146
62	0xbfd57130bc77b76e	-0.3350335922722171
63	0x3fd33d72f50ea2ba	0.30062555247654255
64	0xbfc2cd44476f5180	-0.14688924301175277
65	0xbfe7c61f3d47aea7	-0.7429348179698153
66	0x3fe95d168d470a6c	0.7926132926298357
67	0xbfd4a1b83d8ff857	-0.32237058650924183
68	0x3fd6490226d6b238	0.34820607941472614
69	0x3fc3bbbe0c4ef584	0.15416694260595076
70	0x3fcd263d12bf2549	0.22772944846500767
71	0xbfa41078c3752ba7	-0.03918816934545726
72	0xbfa2eddbe56dc730	-0.03697096992153914
73	0x3fd2304202c9624e	0.2841954257214966
74	0xbfb70fffb40c5a8e	-0.09008787294110673
75	0x3fbab5f23d4eee3e	0.1043387794188044
76	0x3fc88c6cd093a2b4	0.19178543266686676
77	0x3f8c037812019f83	0.01367849163962354
78	0xbfb678e369867697	-0.0877821095113752
79	0x3fd62d6e22fdbe4a	0.3465228406630315
