Panda-Pick-And-Place/Panda_noise/FetchPickAndPlace.pth (torch, 557007 bytes, 8 tensors)

fc1.weight f4 [256, 22]
000000 c9 88 28 3c 2e 1c 6e 3d 20 1b 86 be be 6a 90 bd
       0.010286518 0.058132343 -0.2619257 -0.070516095
000010 81 5b 0f bd 57 64 69 3d d4 db 25 3b 98 7e 80 3d
       -0.034999374 0.056980457 0.002530803 0.06274146
000020 a4 ae 95 bc 5d 18 88 3e 3d 92 73 be 49 89 17 bd
       -0.018271752 0.26581088 -0.23786254 -0.03699616
000030 77 2e f9 bd aa c4 36 be 87 07 84 bd 87 3f be 3d
       -0.121670656 -0.17848459 -0.06446748 0.09289461
000040 89 a8 49 bd 67 8a db 3d 6e f8 d6 bd 21 9f ab bc
       -0.049232993 0.107197575 -0.10496603 -0.020949902
000050 80 e6 2d 3d 26 c5 8a 3e bc 2d 6a ba 70 a3 9c 3b
       0.04245615 0.27103537 -0.00089332066 0.0047802255
000060 e5 52 6f 3d 5b 71 b5 3c c9 13 ee 3d 31 54 08 be
       0.058428664 0.022148779 0.116248675 -0.13313366
000070 ff c1 ac bd 15 1e d0 bd c7 d8 79 bd 8f 9d 04 3e
       -0.08435439 -0.10161988 -0.06099775 0.12950729
000080 80 e1 7b bd f4 11 e5 3c 53 6a 3b bd c6 44 29 be
       -0.06149435 0.027962662 -0.045755696 -0.16530141
000090 8e 9d 12 be 6a 89 18 3e 39 48 37 3e e7 98 9f 3d
       -0.14317915 0.1489617 0.17898645 0.07792836
0000a0 4e 81 b0 3b c6 19 87 bc 96 db f3 3c 58 57 87 be
       0.005386508 -0.016491782 0.029767793 -0.26433825
0000b0 32 14 14 be d9 c6 5f be 3b 22 48 3e 89 27 b4 bb
       -0.14460829 -0.21853198 0.19544308 -0.005497877
0000c0 27 9c 5d bc 56 ff c3 bc f8 9c ab 3d 53 ce 18 3e
       -0.013525999 -0.023925465 0.08379549 0.14922456
0000d0 61 32 2e bc 92 02 61 bd 15 60 c4 3d 1c b7 14 be
       -0.010632128 -0.054934092 0.09588639 -0.14522976
0000e0 e3 6e 90 bd bf de 0c be 0a 7c 9f 3c 72 5a 65 bd
       -0.070524 -0.13756846 0.019468326 -0.05599446
0000f0 e2 37 9e 3d 0f 6e dd 3d 92 31 3d be 04 9f 06 3e
       0.077255026 0.10812008 -0.18475941 0.13146597
000100 3a e3 90 3e 81 55 3c be 41 f4 b6 3d e7 2d f6 3d
       0.2829836 -0.18391992 0.089333065 0.12020474
000110 e5 fd 56 3e 83 12 f5 3d 5c 83 da bd 72 8f 79 bc
       0.2099529 0.119664215 -0.10669586 -0.015231954
000120 67 35 2d 3d 62 4d aa 3d 5d 6a 52 3e 35 b7 fa 3d
       0.042287257 0.08315541 0.20548387 0.12241975
000130 fb 44 21 3d 2a 2a ec bd 4e e1 35 3b 9b e3 69 bd
       0.039372426 -0.1153148 0.00277527 -0.057101827
000140 ad f5 2e be 30 64 6b 3e bc 5b 2e 3e 21 6b 8a be
       -0.17085905 0.22987437 0.17027181 -0.27034858
000150 ab 0c 50 3d 3f c7 00 be 95 19 fd bd d1 c6 61 be
       0.05079333 -0.12576006 -0.12358395 -0.22048499
000160 f9 30 8a 3e 4c b5 3a be 3e 08 0b 3e 52 00 e1 3c
       0.26990488 -0.18233222 0.13577363 0.027465973
000170 94 0e 4d 3d 72 0a 93 3d 78 4c a4 bb 64 23 96 bc
       0.05006273 0.07179727 -0.0050139986 -0.018327422
000180 7e 31 67 3c 4b b6 a5 bb 68 32 aa bd 23 c9 0a be
       0.014110921 -0.0050571314 -0.083103955 -0.1355329
000190 e6 ec 5e 3d 91 e0 78 3d ed ff 6e bd a2 b5 1f 3d
       0.054425143 0.06076104 -0.05834954 0.038991578
0001a0 2f 0f 4e be 37 b0 01 3c 12 46 0e bd a5 41 c6 be
       -0.2012298 0.007915548 -0.034734793 -0.38721958
0001b0 00 7f 6e 3e aa 69 ed bd a6 c4 5e bd 87 1b 4e 3e
       0.23290634 -0.115924194 -0.054386757 0.20127688
0001c0 28 49 a6 be 42 60 8c 3d 45 b4 38 3c 0d 9b 5f be
       -0.3247769 0.06854297 0.011273448 -0.21836491
0001d0 af ab e9 bc 7f 48 31 3d f4 b1 0a bd ac 3c 64 3d
       -0.028524248 0.04328203 -0.033861116 0.055721924
0001e0 1c 42 40 bc 88 8e 30 bb d7 42 5a bd ca 26 23 3e
       -0.011734512 -0.0026940424 -0.0532864 0.15932766
0001f0 62 ba b5 bd a6 f1 0b bd 58 4a 92 bd 22 ff 54 be
       -0.0887344 -0.034166 -0.07143086 -0.2080045
000200 f1 83 00 bd 27 1b 2f bd 66 55 59 be cf 05 67 3e
       -0.03137583 -0.042750504 -0.21223983 0.2256081
000210 1b d5 01 be 27 aa ab bc 04 12 0a 3e 2c 11 4e bc
       -0.1267895 -0.020955158 0.13483435 -0.012577336
000220 7e 64 4b 3d 90 1e 87 3c e4 b6 87 3d dd 2e e2 3d
       0.049656384 0.016494066 0.066266805 0.11044095
000230 9a 05 1a 3e 40 b9 19 3d 00 ca 7f 3e d4 2e 63 3c
       0.150412 0.037530184 0.249794 0.013866145
000240 c7 7b 62 be 7d 1f 20 be 15 d3 25 3e 07 33 80 bd
       -0.2211753 -0.15637012 0.16193803 -0.06259733
000250 dd 8f e3 bd 3f f2 48 be 9f b8 3e be bc a5 42 bd
       -0.11111424 -0.1962366 -0.18625115 -0.047521338
000260 44 22 63 3d 36 8f 77 bb 05 5a 83 3d 6a 13 b1 bc
       0.0554526 -0.003777457 0.06413654 -0.021615703
000270 85 2c 35 bd d0 f9 20 be f6 79 32 bc 16 3b 78 bd
       -0.04423191 -0.15720296 -0.010893336 -0.060603224
000280 16 76 2d bd cc b0 20 bd 12 eb d1 bc cb da 1f be
       -0.042348944 -0.039231107 -0.025624786 -0.15610807
000290 c2 b4 86 3d c2 08 1c be e9 48 c8 bd 8d 1e d5 3d
       0.065774456 -0.15237716 -0.097795315 0.10406218
0002a0 2f fc ce bd ce a0 77 bd 48 49 08 3e 34 33 0a be
       -0.10106694 -0.06045609 0.13309205 -0.13496095
0002b0 82 f3 42 3e 75 74 13 3e 88 f3 8a be e2 61 53 3e
       0.19038203 0.14399894 -0.27138925 0.20642808
0002c0 12 f4 f8 ba 8a 19 cd 3a 98 e8 3f 3e f7 10 15 be
       -0.0018993637 0.001564787 0.18741071 -0.14557253
0002d0 ac 49 53 3d ea f8 1e bd 7b 8e db 3d 69 a8 fd 3c
       0.05158393 -0.0388116 0.10720535 0.030964093
0002e0 c7 30 98 3d 7b 5e f7 bc f8 b4 5b bc 47 d6 a9 3d
       0.074311785 -0.030196419 -0.0134098455 0.08292823
0002f0 78 ed 42 be 5b 9c 24 3d 83 c7 c2 3d 05 61 bc 3c
       -0.190359 0.040188175 0.0951071 0.022995481
000300 06 f6 0b bd c1 4d 28 3d 72 f4 63 bd 56 31 44 bd
       -0.034170173 0.041089777 -0.055653043 -0.047898613
000310 bc 52 90 bd 7c 2f 66 bd 0f 3c 94 3d 42 28 e3 3b
       -0.0704703 -0.05619763 0.07238018 0.0069322893
000320 88 b8 b9 3d 52 2b 1f 3e 9c fb 9b bd e6 ad 36 be
       0.090684 0.15543869 -0.0761635 -0.17839774
000330 bd bf bc bc 6f 17 c2 3d 4a ea 5e bd ea ce 47 3d
       -0.023040647 0.09477126 -0.054422654 0.048781313
000340 11 14 de 3d df 39 a3 bd 3d 43 0e bc f8 63 8e 3d
       0.10843671 -0.079700224 -0.008683023 0.06952661
000350 48 51 01 bd 4b b7 01 bc 7c a5 67 3c 91 95 ce 3d
       -0.031571656 -0.007917236 0.014138576 0.10087121
000360 22 ec ad bd a9 10 f7 bd ae f0 8b bb ae 54 bb be
       -0.084923044 -0.120637245 -0.0042706346 -0.36588043
000370 5e 0d d0 bd a6 48 f2 3d b9 0a 07 bd dc 36 3c 3c
       -0.101587996 0.11830263 -0.03296921 0.011487689
000380 1b d2 62 bd ee be 00 3e 6a 38 f7 bd 68 74 e1 3b
       -0.055376153 0.12572834 -0.12071307 0.006880332
000390 61 c4 74 bd 8c 0a 90 3d 92 2f 97 3d d9 e0 3b 3e
       -0.059757594 0.07033262 0.0738212 0.18347491
0003a0 bd 3a 8c 3d e5 14 87 3e 1f a7 3a 3e e4 0c 51 bd
       0.06847141 0.2638313 0.18227814 -0.051037684
0003b0 bf 85 3f 3e a0 73 cf bc 82 c5 f7 bd 6d f4 26 3e
       0.18703364 -0.025323689 -0.120982185 0.16304179
0003c0 89 e2 48 3d 97 68 00 3e 57 c6 e4 bd db 3d 0f bd
       0.049044166 0.12539898 -0.11170643 -0.0349711
0003d0 56 ed 12 bd 6e b9 a6 bd 62 fc 03 3e 8c b5 35 be
       -0.035870872 -0.08140837 0.12889245 -0.17745036
0003e0 79 b9 c7 bc 4d 56 11 bc 5c 03 7e bb ec cb cd bd
       -0.024380432 -0.008870673 -0.0038759327 -0.10048661
0003f0 b1 69 72 3e 03 8e 96 bd dc 8e fe bc 17 c0 b4 bc
       0.2367313 -0.07351305 -0.03107398 -0.022064252

fc1.bias f4 [256]
000000 3a 14 c2 3e cf 87 16 3e 7e aa 08 bd b1 9f 21 3d
       0.37906057 0.14700244 -0.03336572 0.039458934
000010 a7 9d 5e be 22 1d 8b bd ae 9d 26 bd 90 90 5f be
       -0.21739827 -0.06792666 -0.04067772 -0.2183249
000020 e6 b4 f9 bd c1 11 a9 bd 31 98 f3 3c c1 11 45 be
       -0.12192707 -0.082553394 0.029735656 -0.19245054
000030 e1 73 4e be e0 92 bf 3e 5c 92 06 3e 85 4c 6c 3e
       -0.20161392 0.37416744 0.13141769 0.23076065
000040 d8 55 10 be 44 41 8f be e2 9d 6e 3e 9f 2e 66 bd
       -0.14095247 -0.2797948 0.23302415 -0.056196805
000050 a5 1f 2a bd 94 c2 2a 3d 38 42 b5 3b 35 78 ac bd
       -0.041534085 0.04168947 0.0055315755 -0.08421365
000060 ca 5f 91 3e 02 c4 bd 3e 97 16 3a be 92 4f 33 be
       0.28393394 0.37063605 -0.1817268 -0.17510822
000070 ad c4 c0 bd 45 7d 84 3e 55 35 1f bd 8b 9d 8b 3e
       -0.09412513 0.25876823 -0.03886922 0.27268633
000080 6a 0f 4a bd fd 16 22 be 31 09 b6 3d c5 9e d5 bd
       -0.049331106 -0.15829082 0.08888472 -0.104306735
000090 17 28 3e be a4 be 41 3e b7 4c ab bc 00 b3 26 be
       -0.1856998 0.1892038 -0.020910604 -0.1627922
0000a0 3c 54 c2 3e 30 b2 93 3d a2 2a 8e be 00 07 31 be
       0.3795489 0.07211721 -0.277669 -0.17287827
0000b0 81 43 c0 bd 0c d0 55 be e6 47 4d be a8 84 59 3e
       -0.09387875 -0.20880145 -0.20046958 0.2124201
0000c0 a7 57 12 be 5d 9d 84 3e 8d b4 22 bd 7c 92 c3 bc
       -0.14291249 0.2590131 -0.039722968 -0.02387356
0000d0 6a 3b e4 3d fb f1 96 3d da ed d7 3d 76 d2 7b be
       0.11144145 0.07370373 0.105434135 -0.24592003
0000e0 fb f9 d4 bc 22 ac 8d 3e 89 c3 94 3e af a1 81 3d
       -0.025998106 0.2767039 0.2905543 0.06329667
0000f0 44 3a 49 be 52 c9 67 3e 08 19 27 be 03 a4 d7 3e
       -0.19651133 0.22635391 -0.16318142 0.4211732
000100 5b 17 6d 3e 49 f0 15 3e 36 7f 2b 3e 24 ac 96 3e
       0.2315344 0.14642443 0.16747746 0.29428208
000110 8b 20 3a be 64 1d 77 be 4d 5f 0b be ac 27 2e 3e
       -0.18176477 -0.24132305 -0.13610573 0.17007321
000120 1e 9f 34 be 90 9b 41 be 24 74 a5 3c 47 36 1d be
       -0.17638823 -0.18906999 0.020196982 -0.15352736
000130 07 4b 02 be a7 fa 7d be 63 05 45 bd be a4 35 bd
       -0.12723933 -0.24802648 -0.04810084 -0.044346564
000140 86 82 8d 3d a7 1b 2e 3e e8 fd 29 be a6 4e e5 bd
       0.06909661 0.17002736 -0.16600764 -0.111966416
000150 aa 55 19 be 97 08 52 3e f6 c1 fd bd b2 a4 4f 3e
       -0.14974084 0.2051109 -0.12390511 0.2027767
000160 16 e9 0b bd e7 e1 24 be 5e 3e d5 bd 7a ab 29 bd
       -0.034157835 -0.161018 -0.10412286 -0.0414233
000170 b8 9c 2d be a1 f5 f8 3d 4d aa 28 3e 07 59 99 bd
       -0.16954315 0.12156225 0.16471215 -0.07487684
000180 b4 2b a6 3d c8 68 1c 3e 9d 1a 1b 3e 8c 8e 91 bd
       0.081138045 0.15274346 0.15146871 -0.07107267
000190 a0 29 e6 bd 69 9a 16 be fc 0c 7e bd fd c3 2d 3e
       -0.11238408 -0.1470734 -0.0620241 0.16969295
0001a0 1f 11 06 be 15 9e c8 3e ac 81 f1 3d 5e 57 4d be
       -0.13092469 0.39183107 0.11792311 -0.20052859
0001b0 47 41 8d 3d dd b5 14 3d 81 76 80 bd 80 12 bb bc
       0.06897216 0.03630625 -0.06272603 -0.02283597
0001c0 1b fc 5e bd d6 54 43 3d a3 b8 a5 3e f3 1c e4 bd
       -0.054439645 0.047688328 0.3236743 -0.11138334
0001d0 75 19 b8 3e 34 5a 12 3e 71 07 1d be 10 b3 b0 3e
       0.35956922 0.14292222 -0.1533487 0.34511614
0001e0 d0 c6 38 3b e5 9e 88 3e 1a 0d 34 3e da 71 82 be
       0.0028194673 0.26683727 0.17583123 -0.25477487
0001f0 10 29 7f be c2 d8 06 be be ba bc 3d 41 11 33 3d
       -0.24918008 -0.13168624 0.09215306 0.043717626
000200 76 9c 6b be 62 aa 73 3e ca 9d 03 be 79 af 82 3d
       -0.23008904 0.23795465 -0.1285316 0.06381125
000210 4e 82 29 3e ec f0 80 bd 4f 4e 6f 3e d4 e9 e5 3c
       0.16553614 -0.06295952 0.23369716 0.0280656
000220 6a a6 f3 bd 35 af 18 3d c8 26 6e 3e 49 9a 11 3e
       -0.11896975 0.037276465 0.23256981 0.14219011
000230 93 d9 0f be 85 d6 1c 3e 0b 0c 33 be de e5 4a be
       -0.14047842 0.15316208 -0.17485063 -0.1981425
000240 39 2b 04 be e2 9a 50 be b3 df a8 3d 47 a8 2b bd
       -0.12907113 -0.20371583 0.08245792 -0.04190853
000250 ee 20 86 3d a9 3a 28 be 95 7d b5 3d ca 81 13 bd
       0.065492496 -0.16428627 0.088618435 -0.03601245
000260 06 46 35 be f8 b6 02 3e 3e ef da 3d 04 1a 51 be
       -0.17702493 0.1276511 0.10690163 -0.2042008
000270 8d 9b a4 bd 87 34 28 be 15 bf a7 3e 43 e5 12 3e
       -0.080374815 -0.16426288 0.32762972 0.14345269
000280 9d ac f1 bd a6 0c 64 3e 3d 45 13 be 71 50 66 bd
       -0.118005015 0.2227045 -0.14381881 -0.05622906
000290 20 f3 19 bd 9c f6 c5 bd 47 0f b6 3e 57 c5 92 3e
       -0.037585378 -0.09666178 0.3555853 0.28666183
0002a0 83 0c 11 bb 92 8d 87 bd be b0 13 3d ca db 4e be
       -0.0022132702 -0.06618799 0.036057226 -0.2020103
0002b0 a4 42 6f be 0d 71 2d 3e e9 47 ff bd f0 6b f3 bd
       -0.23365265 0.16937657 -0.12464888 -0.11885822
0002c0 1c a3 18 be 7b 86 29 3e df 87 14 be 7d 2f de 3c
       -0.14905971 0.16555206 -0.14504956 0.027122254
0002d0 43 33 3d bc 33 9f 99 3e f6 b2 ff bd 08 be 8d be
       -0.011547866 0.30004272 -0.12485306 -0.27684045
0002e0 e0 df 2a be 69 74 7d 3e 69 aa 55 3d 1a 77 e9 bc
       -0.16686964 0.24751438 0.05216447 -0.028499175
0002f0 c1 fa 6e 3e d5 89 33 3e 77 d8 c5 bd 6d 7a b6 bd
       0.23337843 0.17533047 -0.09660428 -0.089100696
000300 d3 13 5f be db 01 3a 3e cc 11 89 3e 48 3c a9 bd
       -0.21784906 0.1816477 0.2677139 -0.08263451
000310 ca d3 11 be 55 52 2a 3e 85 9c 6b bd 34 b0 83 3e
       -0.14240947 0.1663297 -0.057522316 0.2572037
000320 f1 a0 2c bd 8b c0 bb 3d 5d c2 1b be 45 5e 82 bc
       -0.042145673 0.09167584 -0.15210862 -0.015914092
000330 5c 9f 74 3d b0 50 38 3c ba df 36 3e 17 1f 48 3e
       0.05972229 0.011249706 0.17858782 0.1954311
000340 c7 9b 72 bd 80 a2 28 bd fd 1b eb bd 41 ca 62 3e
       -0.059230592 -0.041170597 -0.11479948 0.22147466
000350 e3 d2 ae 3e e3 29 87 bd e2 47 b8 3e d4 3a cb 3e
       0.3414527 -0.06599786 0.35992342 0.3969332
000360 44 d4 2d 3e 5f 6d 86 3e d1 da e3 3d 00 be a3 bd
       0.16975504 0.2625532 0.1112572 -0.07995224
000370 cc ca 3d 3d cc 37 2b 3e 5d a9 a6 bd e5 b1 16 3e
       0.04633598 0.16720504 -0.08137772 0.14716299
000380 25 19 b3 bd 32 f7 50 bd 56 15 33 3e 9e 48 4c 3e
       -0.0874503 -0.051016994 0.17488608 0.19949576
000390 44 f8 bb 3d db 23 59 3e d6 f8 e3 bd 03 e9 ac 3e
       0.09178212 0.21205084 -0.11131446 0.33771524
0003a0 20 67 29 3e ce 9b a9 3e 7f e8 84 be d4 eb b5 bd
       0.16543245 0.33126682 -0.2595863 -0.08882871
0003b0 96 39 6b be 90 c9 ad 3d ba 94 6a 3e 37 2a 3e be
       -0.22971186 0.084857106 0.22908297 -0.18570791
0003c0 dd e9 cf 3d a0 f8 8c 3c 9a 5f 78 be 14 a5 0d bd
       0.10152028 0.017208397 -0.24255219 -0.03458126
0003d0 56 3e 82 bd 6a 88 99 bd fa 4d 10 be 17 44 4c 3e
       -0.06359546 -0.07496722 -0.14092246 0.19947849
0003e0 b7 75 c7 3c 9d c4 c3 bc 43 56 03 be 77 67 db 3b
       0.024348123 -0.023897463 -0.12825875 0.0066956836
0003f0 d7 8d b5 bd 84 54 12 be 5a 9e 46 3e e2 67 ef 3b
       -0.088649444 -0.14290053 0.19396344 0.007306085

fc2.weight f4 [256, 256]
000000 c9 d4 59 bd 15 1d 16 bd 62 9b a7 bc 7d e3 dc bc
       -0.053181443 -0.03664883 -0.020459834 -0.026963944
000010 9d 00 a2 3b 59 3a 54 3d c3 19 5d bd b3 1a 9c bc
       0.0049439208 0.051813457 -0.053979646 -0.0190557
000020 a3 d0 31 3d 2b 74 1e bd 73 bb 59 bd 40 ce 12 3c
       0.043411862 -0.038685005 -0.05315728 0.008960307
000030 b4 86 ae bc 02 0e 1b bc cb b9 c8 3c 2e ab 7f bd
       -0.021304466 -0.009463789 0.024502655 -0.06241911
000040 52 87 3e bd 11 42 08 3d 22 06 4a bd 72 ac 90 bc
       -0.04651577 0.03326613 -0.049322255 -0.017660353
000050 33 3d 5d 3c 0c 54 42 bd 71 43 4e bd be 18 2c bd
       0.013503361 -0.047443435 -0.050357286 -0.042015783
000060 21 26 59 bd 40 6b 77 bd c6 6c b2 bc 4a 9a 96 bd
       -0.05301488 -0.060405016 -0.021780383 -0.07353647
000070 34 9e 5c bd f7 61 39 3b c2 be 6e 3d bc c5 50 3d
       -0.05386181 0.0028287151 0.05828739 0.050969824
000080 92 b8 1c 3d a2 78 6e bc 3f 0f af 3c 4b 6e 27 bd
       0.038261957 -0.014555128 0.021369575 -0.040876668
000090 76 b1 6a bd d8 bb 70 3c 84 08 6b 3c eb 1b 22 bb
       -0.057298146 0.014693223 0.014345292 -0.0024735879
0000a0 77 c0 b8 3b 3a 54 ad bc 3f 4f ab 3c 55 cd db 3c
       0.005638178 -0.021158326 0.02091181 0.026831308
0000b0 ab 92 de bc e7 b6 22 3d e6 aa 4b 3c 96 d2 fb bb
       -0.027169546 0.03972521 0.012430882 -0.007685016
0000c0 81 1f df ba 74 95 44 3d aa 64 bb bb 11 a0 29 3a
       -0.0017022939 0.047994092 -0.005718787 0.000647069
0000d0 79 dd bb 3c a8 a5 28 bc 7e 38 08 3d e0 3b 4d bd
       0.022932755 -0.010293402 0.033257 -0.05010593
0000e0 0d f3 cb bc fe 92 45 3b 23 c8 9a 3b 7c d5 92 bd
       -0.02489617 0.0030147429 0.004723565 -0.07169625
0000f0 e1 d0 2a 3d b2 8b 15 bd 2a b2 10 3d 42 30 1f bd
       0.04170311 -0.036510177 0.03532616 -0.03886438
000100 e2 5a e1 3b ed 6b 20 bd 60 af 12 bd 29 76 00 3b
       0.006877289 -0.039165426 -0.035811782 0.001960168
000110 fc b9 ef 3c 73 36 35 bc b4 3a 32 ba 3b c7 38 bd
       0.029263489 -0.011060345 -0.00067989086 -0.045111876
000120 3d b2 ec 3b d5 2d ff bb 12 07 f2 bc 6c 00 86 3c
       0.007223396 -0.007787446 -0.029544387 0.016357623
000130 23 7e ec bc 5d d5 40 bd b0 8a ca bc 25 e4 a2 3c
       -0.02886874 -0.04707848 -0.024724334 0.019884178
000140 e5 6f 6e 3d ef e1 40 3d 83 67 01 3d 1c 9f 4a bd
       0.05821218 0.047090467 0.031592857 -0.049468145
000150 0c d9 2a 3d e0 2f 34 3b c8 f3 a0 bb 50 ae 33 bd
       0.0417109 0.0027494356 -0.0049118735 -0.04386741
000160 ba cb 35 bd c7 85 5f 3c 6b b0 90 bc da f9 92 bc
       -0.044383742 0.013642735 -0.017662248 -0.017941404
000170 d8 eb 46 bd 89 cf 14 3d 05 47 db b9 c1 c7 a4 bb
       -0.048564762 0.036330733 -0.0004182385 -0.0050286953
000180 15 a8 a6 ba 33 d2 18 3d 44 3a 69 bd 5e 7d 05 bc
       -0.0012714887 0.037309837 -0.056940332 -0.008147566
000190 f0 db 33 3d 3a 33 c0 bc 96 61 69 bd 83 35 37 bd
       0.04391092 -0.023461927 -0.05697783 -0.044728767
0001a0 8a 79 03 3d 10 af 81 3c 12 4c d3 3c b8 e8 e6 bc
       0.03209833 0.015830547 0.02579311 -0.02818714
0001b0 45 7d 22 bd 3c b3 87 bd 4b 64 8e bc 90 c2 f1 bc
       -0.039670248 -0.06625983 -0.017381808 -0.02951172
0001c0 47 18 14 3d f5 87 1e bd db eb 29 bd a5 a7 8f 3c
       0.036155965 -0.038703877 -0.041484695 0.017535994
0001d0 e8 d6 e1 bc 97 1a 67 bc 82 8e 3a 3d 7c fa ba 3c
       -0.027568296 -0.014105461 0.045546062 0.022824518
0001e0 98 02 9b bd 10 0a 66 ba 2f 08 45 bc ea 5d 75 3d
       -0.07568854 -0.0008775303 -0.012025877 0.059904017
0001f0 77 93 7d bd a2 1d d8 3c 6d d6 8e bd 48 3b 9a bd
       -0.06190821 0.026381318 -0.06974492 -0.07530838
000200 13 aa 30 bd d9 81 93 bd 27 d0 cb bc 02 c9 06 3d
       -0.043130945 -0.07202501 -0.024879528 0.03290654
000210 66 47 03 bd 50 ef 4e bd ae 37 5d bc 11 9c 8e bd
       -0.032050513 -0.050521195 -0.013502045 -0.06963361
000220 d6 3a d3 3c 80 69 11 3c 6a b5 2b 3d 0e 14 bd 3c
       0.025784891 0.008875251 0.041921057 0.023080852
000230 d3 ee 7f 3b ee 67 5b 3c 88 f8 35 3d b3 c6 29 bd
       0.0039052262 0.013391478 0.04442647 -0.04144926
000240 d3 3f 54 bd d8 75 11 3d 0e e6 71 3c cc ab 1c 3d
       -0.05181868 0.035512775 0.014764322 0.038249776
000250 9a 0f 8e 3a 22 e4 1d 3c de c0 03 3d 62 aa 20 3d
       0.001083839 0.009636911 0.032166354 0.03922499
000260 c6 5c e2 3c 33 41 84 bd 94 10 2e b9 fc f0 83 bd
       0.027632128 -0.06457748 -0.00016600109 -0.064424485
000270 57 93 f7 39 b0 12 13 3d f7 bc 1b bd 2f 9e 71 3d
       0.00047221288 0.035906494 -0.038022008 0.058988746
000280 e7 6a 56 3d 02 3b 12 3c fd 01 5c bd 77 45 8d bc
       0.052348044 0.008925201 -0.053712834 -0.017245037
000290 76 56 26 3d 1f 93 65 3b 64 e7 29 3d 4c 2d d0 bb
       0.0406098 0.0035030318 0.041480437 -0.006353056
0002a0 97 57 35 bd 71 42 07 3d ee 0e 5b 3b ba 78 a0 3c
       -0.044272985 0.033022348 0.0033425647 0.019588817
0002b0 c9 a5 4e bd 38 6f 5a bd fe f5 14 3d 37 53 60 3c
       -0.050451074 -0.053328723 0.03636741 0.013691715
0002c0 cc b1 f9 3c e8 5b 85 bd 08 e8 23 bd a2 af ce bc
       0.030480288 -0.0651167 -0.040016204 -0.025230233
0002d0 fc cb 17 bd 43 fa 05 3d 97 87 0e 3d 9a c7 4d 3d
       -0.03705977 0.03270937 0.034797277 0.050239183
0002e0 aa 14 e6 bb 75 ed 68 bd d5 c5 e3 bc 41 5e 41 3c
       -0.0070215063 -0.05686708 -0.027804295 0.011802257
0002f0 a9 e8 db bc 60 20 ef 3b 21 c4 dd bc 9e f4 21 3d
       -0.02684434 0.0072975606 -0.02707106 0.039539926
000300 ec bf 62 3d 7b 4d 3e 3d df b4 04 3c 18 48 32 bd
       0.055358812 0.04646061 0.008099764 -0.043525785
000310 40 f5 b9 bc 7a 99 24 bd ea 2b 72 3c ad 75 c4 bc
       -0.022699952 -0.04018543 0.014780978 -0.023981893
000320 1a 15 76 3c a4 58 fe 3b 78 a8 0e bd 45 46 1a bc
       0.015019679 0.0077620316 -0.034828633 -0.009416168
000330 5d d1 06 bd 77 20 d2 3b 37 60 36 bd 0b 1f 15 bc
       -0.032914508 0.0064125615 -0.04452535 -0.0091016395
000340 db b5 10 3d fd 06 8c 3c 5e 0e 6e bd 6e 11 2b 3d
       0.03532968 0.017093176 -0.05811917 0.04176467
000350 c0 75 fe bc 65 ed 5a 3d d7 dd d8 bc 8b 65 3c 3d
       -0.031062007 0.053449053 -0.026472969 0.045995276
000360 68 d8 88 3c ca 9d 98 bc bb 84 11 3d b1 04 21 3d
       0.016704753 -0.018629927 0.035526972 0.039311115
000370 79 e4 88 bd 03 28 c3 bb b2 81 dc 3c 8d 5f 4c bc
       -0.06684203 -0.0059556975 0.026917312 -0.012473953
000380 b5 85 02 3d 4c aa 28 3d a0 c5 77 bd eb 31 56 3c
       0.031865794 0.041178033 -0.060491204 0.013073425
000390 d1 1b 7a bd ec 6f da 3c 59 e4 37 bd 96 d0 0e bd
       -0.061061684 0.026664697 -0.044895504 -0.03486689
0003a0 d4 90 77 ba 4c 1d 99 bd b9 e8 a4 bc 31 da 12 bd
       -0.00094438833 -0.07476291 -0.020130502 -0.035852615
0003b0 12 73 bc 3b 8e 78 2c bc dd 32 6e bd ac 26 b2 bc
       0.005751022 -0.010526789 -0.058153976 -0.021746956
0003c0 2d bb 72 3a 8e cb ff 3c 6a 73 2d bd 85 bc 3f bd
       0.0009259459 0.031224992 -0.042346396 -0.046810646
0003d0 b6 88 d0 3c 9e f4 53 bd 47 0a 96 bc bc 38 93 bd
       0.025455814 -0.051746957 -0.018315447 -0.071885556
0003e0 c2 ed 08 bd d7 9e 8d bd b6 e8 f5 3b f4 3d 36 3d
       -0.03342987 -0.06915062 0.007504548 0.044492677
0003f0 33 7e 0f 3c c9 1f 80 bd 0d 62 26 3d 4e 7b 86 bd
       0.008758116 -0.062560625 0.040620852 -0.06566487

fc2.bias f4 [256]
000000 de 5f 17 bc ec 89 61 bc c6 2c c0 3d c1 af eb bd
       -0.009239165 -0.013765793 0.0938354 -0.11508132
000010 4b 11 a2 bd aa 05 27 3c 30 a3 85 bd ee 48 3a 3e
       -0.079134546 0.0101942215 -0.06525266 0.18191883
000020 2d 55 25 3d 88 ab 3e bd 64 8d b8 3b f3 95 8b bd
       0.040364433 -0.046550304 0.0056320895 -0.0681571
000030 53 6d f8 3c 43 73 ad 3b 79 c0 fa bd ab 7e ea 3d
       0.030325567 0.0052932813 -0.122437425 0.11449941
000040 8d 53 4a bd b8 af 05 bb 47 c4 63 bd e8 9d 29 bd
       -0.049396086 -0.0020398926 -0.055607107 -0.041410357
000050 f7 a5 98 bd 91 4e 0e bd 84 9e f6 3d 88 16 13 bb
       -0.0745353 -0.034742896 0.12041953 -0.002244385
000060 22 10 a0 bd 8d 2f ba 3d 01 7c 30 bd 06 99 91 bd
       -0.07815577 0.09091101 -0.04308701 -0.07109265
000070 e9 9f dc bd 8c 8d 10 3e 4d 19 d1 bd aa c1 55 bd
       -0.10772688 0.14116496 -0.10209904 -0.052186646
000080 a1 fb 23 3e 43 b7 6f bd f4 4d 2b bd 22 6a 4c 3d
       0.16013958 -0.05852438 -0.04182239 0.049905904
000090 f5 a1 8e bc 7b 48 30 3c a2 48 e0 bd fc c9 8d bc
       -0.017411212 0.010759468 -0.109513536 -0.017308228
0000a0 09 95 03 be 35 61 1a bd 8d 3b d8 bd 01 a2 64 bd
       -0.12849821 -0.03769036 -0.105582334 -0.05581856
0000b0 ce 27 72 3d e2 61 37 bd a1 c0 c1 bd b0 08 30 3e
       0.059119992 -0.044771083 -0.09460569 0.17190814
0000c0 6d 92 79 3c ab 57 9b 3d f8 50 55 bd 32 24 92 3b
       0.0152326645 0.07585081 -0.05207917 0.004459881
0000d0 35 80 f1 bd a3 20 6a 3c e3 5d ca bc 45 e1 54 3c
       -0.11792032 0.014290008 -0.024702972 0.012993162
0000e0 49 99 08 be de c6 39 3e 0b 88 09 be 38 40 de 3d
       -0.13339724 0.18142268 -0.13430803 0.108520925
0000f0 30 ad 6b bc 3a 4b dd bc 35 9a 12 39 a1 57 8f 3c
       -0.014384553 -0.02701341 0.00013981092 0.01749784
000100 41 10 2e be bf 54 d3 3c 32 a7 5c bd b0 57 5a bd
       -0.16998388 0.025797246 -0.053870387 -0.05330628
000110 59 5c 20 be 07 39 fc 3d 31 52 db 3d 9c 6e 32 3e
       -0.15660228 0.123155646 0.10709036 0.17425007
000120 cb f0 26 bd 60 59 0d be db 6a 39 bd 45 36 db 3d
       -0.04075698 -0.13803625 -0.04526792 0.107037105
000130 da ba 0c be 95 d6 88 bd 21 e1 0d bd 67 e6 95 bc
       -0.13743153 -0.06681553 -0.034638528 -0.018298341
000140 09 cd b1 bd f8 f8 5b bd a0 f4 98 bc 18 48 8b 3c
       -0.086816855 -0.053704232 -0.018671334 0.01700215
000150 97 f8 14 3e da f1 1a 3e 30 dc 85 bd 09 03 a0 bd
       0.14547954 0.15131322 -0.06536138 -0.07813079
000160 e7 b2 4b bd e3 53 8d 3c dc 90 84 bd de 67 31 3d
       -0.04973116 0.017251914 -0.06472942 0.043311946
000170 67 d1 13 be ef 03 89 3c 2c a6 15 3d 62 bb ad 3c
       -0.1443535 0.016725508 0.036535427 0.021207515
000180 df 36 6c 3c 48 75 a8 3d 56 0a 2c 3d 8a ae 7d bd
       0.014417379 0.082254946 0.042002045 -0.06193403
000190 53 1b 53 bd 5f 12 4d bc 08 e0 96 bc 52 e0 97 3d
       -0.05153973 -0.012516587 -0.018417373 0.074158326
0001a0 8f 67 b4 3d 0d f2 14 3d b6 e9 da 3b 48 5d 4a 3c
       0.08808815 0.03636365 0.0066806925 0.012351342
0001b0 86 49 b6 bc 74 37 e8 bd 5e 36 9f bd 63 d6 c4 3c
       -0.022251856 -0.11338702 -0.077740416 0.024028009
0001c0 3f 1d 75 bc 19 21 31 bd 3f 57 a9 3a 2e e6 03 bd
       -0.014960586 -0.043244455 0.0012919678 -0.03220194
0001d0 e4 8a 5d 3c 03 48 01 be 71 ab f6 bd a9 25 41 3d
       0.013521884 -0.12625127 -0.120444186 0.047155056
0001e0 a0 fb 1f bd fd 1c b7 bd a1 f5 22 bd e3 92 5c bd
       -0.039058328 -0.08941076 -0.03978503 -0.05385102
0001f0 a1 95 4a bc 78 ff d7 bd c2 bb 05 3d 91 35 b1 3d
       -0.012364776 -0.10546774 0.032649763 0.08652795
000200 ac c5 d7 bb 3e c1 a5 bd 8a f8 b7 3d 0b e7 54 be
       -0.0065848436 -0.08093499 0.08982952 -0.20791261
000210 76 d8 20 bc 27 03 94 bd 22 59 dd bb 33 c7 98 3c
       -0.009817233 -0.07227164 -0.00675501 0.018649673
000220 e0 32 12 3d 05 32 e9 3b 3a 67 3d bc aa 93 14 3e
       0.03569305 0.0071165585 -0.011560256 0.14509454
000230 55 1d 4f 3d 5a c1 2f 3e 80 a6 33 be 09 96 ab bc
       0.050565083 0.17163602 -0.17543983 -0.020945566
000240 ab 44 f6 bc ea e9 f9 bc c3 80 55 3d 1a b9 6a 3d
       -0.03006204 -0.030507047 0.05212475 0.057305433
000250 9f 67 9a bc 76 48 97 bd 1c 64 1c 3d 55 50 60 3d
       -0.018848239 -0.07386868 0.03818141 0.05476411
000260 5e b2 70 bd 38 40 a5 bd ee 32 8c bc da ef e4 bc
       -0.058763854 -0.080688894 -0.017114129 -0.027946401
000270 1d f2 f9 3d 57 b4 8d 3d a2 ed 9e bd 6b a8 d8 bc
       0.122043826 0.06919163 -0.077601686 -0.026447495
000280 63 7c 39 3c 5a 22 ae 3d cd 84 c0 39 82 31 00 3b
       0.01132116 0.08502646 0.00036720038 0.001956076
000290 bf 0a c3 3c 51 27 30 3c 00 7a 64 bd f8 0f 0d 3d
       0.023808835 0.010751561 -0.05578041 0.034439057
0002a0 e7 30 25 3c d5 20 df 3d 17 f9 ed 3b 63 6b 29 bd
       0.01008246 0.10894934 0.00726236 -0.041362178
0002b0 8c 9c 03 be 84 33 24 3e b9 fa aa 3c a5 7f a1 bd
       -0.12852687 0.16035277 0.020871507 -0.078856744
0002c0 68 8b d0 bc d1 df 9d 3c ee a0 90 bd 08 ac b6 3c
       -0.0254571 0.019271763 -0.07061945 0.022298828
0002d0 ca aa b4 bd d7 31 6f bd 2b f5 81 3b ec 63 c9 b9
       -0.08821638 -0.05839714 0.003965994 -0.00038412155
0002e0 29 b0 44 3d 23 3e 57 bd 8b a6 83 3d 38 f5 23 bd
       0.048019562 -0.052549493 0.0642825 -0.04002878
0002f0 31 da 5e bd a3 fc 25 3d 83 4f 2c 3d 06 29 26 3e
       -0.054407302 0.040524136 0.042068016 0.16226587
000300 15 89 83 bd e8 f0 8a 3d 3b af a1 bc 37 90 b8 bd
       -0.06422631 0.067842305 -0.019736877 -0.09011882
000310 b0 9c f3 3d a4 93 c7 bd 6e e1 37 3c 21 19 1b bd
       0.1189512 -0.09744957 0.01122318 -0.03786576
000320 92 77 72 3c 28 f5 ed bc 70 68 87 bc 64 6e 46 bd
       0.014799016 -0.029047564 -0.016529292 -0.04844512
000330 37 d8 cb bd de 5e a9 bd 88 59 74 bd bc 33 19 3d
       -0.09953349 -0.082700476 -0.059655696 0.037402853
000340 e3 6e ac 3c e5 29 19 bd de 9a 85 bd fd ff ce bd
       0.021048969 -0.03739347 -0.06523679 -0.1010742
000350 fe f0 81 bd 1a 39 8e bd ab f5 c0 bc 69 91 11 3e
       -0.06344794 -0.06944485 -0.023554644 0.14215626
000360 16 4f a7 3c fa 03 77 3c d8 b6 d7 bd 54 68 ad 3b
       0.020423453 0.015076632 -0.105329216 0.005291978
000370 d5 5c d9 3b ea 8e 65 bc 43 01 61 bc b9 4f 5d 3c
       0.006633381 -0.014011124 -0.013733211 0.013507777
000380 83 8d 7c bd 6b fc cf bd 1f 0e 99 3d f3 14 05 3e
       -0.061658394 -0.10155567 0.074733965 0.12996273
000390 59 b6 0b bd b8 b6 87 bd 38 4a 24 bd ef 81 0b be
       -0.034109447 -0.06626648 -0.040109843 -0.13623784
0003a0 88 4c 95 3d 3e 19 c8 bc fc 9b a1 3d 9e 00 22 3e
       0.07289988 -0.024426099 0.0789108 0.15820548
0003b0 31 bb 11 3d 42 a9 cc bd 8f 35 43 bb 23 ac c8 3d
       0.03557891 -0.09993221 -0.0029786562 0.097984575
0003c0 3b cc 8f 3d 26 84 7f bd 2d 6f 25 3e 2d 4f 48 3e
       0.07021376 -0.062381886 0.16155691 0.19561453
0003d0 c3 56 17 3d bf 12 01 3c 8f d8 86 3d be 7d 0d bd
       0.036947977 0.007878005 0.06584274 -0.034543745
0003e0 e7 8d c2 3d 68 a9 85 3c 5c 3f 24 3d 5e 5d 0b 3e
       0.09499722 0.01631613 0.040099487 0.13609836
0003f0 fa de 7c 3c 84 d5 08 3a ac 69 a4 bd 30 73 7b bd
       0.015434021 0.00052198046 -0.08027968 -0.06138915

fc3.weight f4 [256, 256]
000000 49 17 8f 3c bb 42 90 3d b0 0d 80 3d 16 5e 79 be
       0.017467158 0.07043978 0.06252611 -0.24352297
000010 02 3a f2 3c fc 33 bf 3d 3b aa b5 3d 63 10 23 3d
       0.029568676 0.09336087 0.088703595 0.03981055
000020 bc e0 9e bd bf e9 3b bd f2 15 d3 3b 87 a3 a2 3b
       -0.077577084 -0.045877215 0.006441825 0.0049633416
000030 29 22 7b bd d5 46 ab bd 87 2a a8 be df 67 be 3d
       -0.061311875 -0.083631195 -0.32844946 0.092971556
000040 b6 c4 ef bd 81 c2 f0 bd 5c 3b e7 bd 74 53 f6 bd
       -0.117074415 -0.11755849 -0.11290619 -0.12027636
000050 3b e9 d4 3d c1 e5 10 3c 2d 9f f5 3d a0 ae 2b bc
       0.10396048 0.00884384 0.11993251 -0.010478646
000060 89 8c c3 3d df ba 6f bd 4c 5d 7a 3b 79 c8 02 be
       0.09548289 -0.058527824 0.0038202582 -0.12771787
000070 3c 73 3a be 3d 19 b7 3d 64 f7 9c be 89 22 47 3a
       -0.18208021 0.08940361 -0.30657494 0.00075963937
000080 d2 9e 41 3d 80 1a 71 bc ba d9 ab bc 4d 80 0e 3d
       0.047270603 -0.014715791 -0.020977844 0.034790326
000090 86 17 ad 3a e2 f2 54 3c 2d 99 bd bd 10 ab 6c 3d
       0.0013205863 0.012997361 -0.092577316 0.057780325
0000a0 c8 5c a1 bd 9a 15 8a 3d aa d0 08 be 9d 93 4d bd
       -0.07879025 0.067424014 -0.13360849 -0.050189603
0000b0 96 11 81 3d 34 d3 dc 3b de 50 df bd 90 d4 f8 3d
       0.063021824 0.0067390446 -0.10904096 0.12149918
0000c0 c0 68 a2 bb e4 0e a6 bc 15 29 84 3c ae 0f e5 bc
       -0.004956335 -0.020270772 0.01613287 -0.027961578
0000d0 88 3e f8 bd 95 a4 26 3d fa 89 6f 3d 29 33 a1 bd
       -0.12121302 0.0406843 0.058481194 -0.07871086
0000e0 42 31 77 be e1 20 ab 3c 7a ff c8 be 73 62 88 bc
       -0.24139884 0.020889701 -0.39257413 -0.016648507
0000f0 f5 64 88 3c 1c e8 d1 bd f0 64 7f 3d 72 38 4e bd
       0.016649703 -0.102493495 0.06235212 -0.0503468
000100 40 0b 3f be 8d aa 86 3d f7 31 f1 bd 2c 9c 8c bd
       -0.18656635 0.06575499 -0.11777108 -0.06865725
000110 f8 de 02 bf c8 8d fd 3c 9b f6 c9 3c fa cb 72 3d
       -0.51121473 0.030951396 0.024653723 0.05927656
000120 d6 fe 09 3e 1c 88 7e be 3b cd 00 3d 4b d5 c0 3d
       0.13476118 -0.24856609 0.031445723 0.094156824
000130 52 c0 06 be ea 62 af bd 9f c5 83 bc 96 64 c7 ba
       -0.13159302 -0.08563788 -0.016085444 -0.0015212472
000140 a5 71 2d bc 28 dd 04 be d9 ac be 3c b8 12 77 bc
       -0.010586177 -0.1297499 0.02327578 -0.0150801465
000150 e9 6a 24 bb 1d c7 1f 3d 24 a0 4c bc d9 ad 99 bc
       -0.0025088137 0.03900825 -0.012489352 -0.018759655
000160 29 4b a8 3c 58 34 39 bd f0 40 10 3d ed 12 59 bd
       0.020543652 -0.045215935 0.03521818 -0.052996565
000170 72 14 9d be e3 a7 98 bd 85 c0 4d 3c b5 ec 42 bd
       -0.3067966 -0.07453897 0.012558107 -0.047589023
000180 d7 40 d5 bb 2a de ea 3d 3a ee 8a 3d 04 19 93 bd
       -0.0065079737 0.11468156 0.06783719 -0.07182506
000190 42 79 5a 3d 41 2e 28 3d 90 d6 93 bd 71 24 89 ba
       0.053338297 0.041059736 -0.07218659 -0.0010463131
0001a0 ff 27 1f 3d 33 94 33 bc c9 4b 2d 3d 6e f4 fc 3c
       0.038856503 -0.010960626 0.042308602 0.030878272
0001b0 57 08 a3 bb ab b9 22 be 4e a9 f6 3c ec 03 bb bc
       -0.0049753594 -0.15891139 0.030110028 -0.022829019
0001c0 b8 4e 4b bd 40 ce 02 bd 4e 89 2c bd 5c 7f bf 3d
       -0.04963562 -0.031934977 -0.04212313 0.09350464
0001d0 aa 4b 42 3d 86 84 28 be 4b b8 c5 bd ec d2 55 bd
       0.04743544 -0.16456804 -0.09654292 -0.052203104
0001e0 f4 2a 02 3d b9 d9 8e 3d 52 71 6e 3d e7 f2 a2 bd
       0.031779245 0.06975121 0.05821354 -0.07956486
0001f0 0e f1 86 bc 72 bd 9d bd 3b 04 4c 3c 22 cc f2 3c
       -0.016472366 -0.077021495 0.0124521805 0.029638354
000200 57 ad 4f bd 63 4f ac bd d8 38 5b b9 b5 e0 e0 be
       -0.05070242 -0.08413579 -0.00020906643 -0.43921438
000210 a1 23 cf bb 1c a9 9f bc 6c 44 a4 bb 35 75 13 bd
       -0.006321386 -0.019489817 -0.0050130393 -0.03600045
000220 28 74 aa 3d f3 3c 08 3d c6 c2 c8 3c 11 a6 88 3d
       0.08322936 0.03326125 0.024506938 0.066723
000230 f8 4d ab 3d a4 55 85 3d ff 94 77 bc 14 94 b2 bd
       0.08364481 0.06510475 -0.015111207 -0.0871965
000240 67 f2 96 bd cf 1f 6d bd b0 44 25 3a 98 35 97 3d
       -0.07370453 -0.057891663 0.0006304486 0.07383269
000250 f9 4e bd 3c 60 d9 a1 bd 44 c4 a7 bc ee a2 98 ba
       0.023108946 -0.07902789 -0.020479329 -0.0011645237
000260 96 13 72 3d 75 7e 81 bd f5 d7 fa bd f9 b1 fa bd
       0.05910071 -0.06322948 -0.12248222 -0.12240977
000270 15 b1 9f 3c e2 75 c7 3d 70 c9 0d be 37 6f a8 bc
       0.019493619 0.09739281 -0.13846374 -0.020560844
000280 ce 96 cd 3a 75 4a f0 3c 0f 57 94 3d b2 ab db 3c
       0.0015685202 0.029332379 0.072431676 0.02681527
000290 67 46 98 3c 82 5d 1a ba 6c f1 da 3c e6 70 f3 3c
       0.018588258 -0.00058885675 0.026726447 0.02971692
0002a0 6b b1 5b 3d c3 5d c8 3d 4d a6 78 3d 07 d9 df bc
       0.053635996 0.09783509 0.06070547 -0.027325166
0002b0 99 59 1b be bb da b3 3d a7 f3 8e bc f3 da e1 bd
       -0.15170898 0.08781954 -0.017450167 -0.110280894
0002c0 1e 5f 0b 3d 51 8a 7d 3d c8 56 10 3d dc 05 66 3d
       0.034026258 0.061899487 0.03523901 0.05615793
0002d0 1c bf 78 bc e2 e2 2d bd 2e fb 58 bb df ba 4d bd
       -0.015182283 -0.0424527 -0.00331087 -0.050227042
0002e0 83 f1 b8 3a 98 a8 23 bd a8 39 9e 3d c3 60 d1 bc
       0.0014110062 -0.039955705 0.07725841 -0.025558835
0002f0 52 54 b1 3d 71 42 55 bd bf fc b0 bd 9a ea 03 3d
       0.08658661 -0.052065317 -0.086419575 0.032206155
000300 a8 88 32 be a1 48 8a 3d 87 4e aa be 19 16 f7 bc
       -0.17434943 0.06752134 -0.33263037 -0.030161904
000310 fc 54 2c 3d 01 eb 52 be 6e 16 74 bc 65 25 6e bd
       0.042073235 -0.2059746 -0.014897926 -0.05814113
000320 ef 77 3b bc ef a3 ca bc fa b1 07 3d ef 63 3f 38
       -0.011442169 -0.024736373 0.033128716 4.563102e-05
000330 5f 75 f5 bd 2f c5 9b bd 46 b2 81 be f9 36 89 3d
       -0.119852774 -0.07605969 -0.25331324 0.06699938
000340 54 44 9f bc 7c b6 9d 3c 52 f6 8f 3c 85 36 68 be
       -0.019441761 0.019252054 0.01757351 -0.22677048
000350 fa d5 4f 3e 51 e0 b9 bd f5 b9 09 bd e4 1e b1 3d
       0.2029647 -0.09075988 -0.033624608 0.0864847
000360 11 19 97 3c 6a 5d 0f 3d 5e bc 54 3d 06 f5 94 3d
       0.01844457 0.035001196 0.051937453 0.07273297
000370 33 44 f1 3c fa 04 00 bb c5 c4 ac 3c e2 81 43 3d
       0.029451465 -0.0019534216 0.02108992 0.047731288
000380 71 d7 98 bc ed e4 ad bd e0 37 ff bb ab a0 26 3a
       -0.018657418 -0.0849093 -0.0077886432 0.0006356339
000390 00 35 39 be 0a 3d 02 3d 4f 63 83 bd 40 1f 87 be
       -0.18086624 0.031796493 -0.06415426 -0.2639103
0003a0 96 43 35 3d 3c db 75 bd 6e ce 8b bd 4c 4f 44 3d
       0.044253908 -0.06002353 -0.06826483 0.047927186
0003b0 c9 e2 cd bc 5c 1a 38 bd 16 7a 98 bc 7d 92 70 3d
       -0.025132554 -0.044947013 -0.018612903 0.058733452
0003c0 a2 d5 12 3d 02 03 6b bd 54 16 09 3e a2 de a0 bb
       0.035848267 -0.057375915 0.13387424 -0.0049093524
0003d0 cb cb a6 3d 5a 9a 00 3d c1 f0 7e 3d 70 45 67 bd
       0.08144339 0.0313972 0.06224132 -0.056462705
0003e0 04 c3 10 3d 7a 53 9a bd 33 f8 67 bb b3 5b 77 3c
       0.03534223 -0.07535453 -0.003539574 0.015097546
0003f0 a2 05 83 3c 2a ec cc 3d b9 be 81 be a1 7d 04 bc
       0.015993897 0.10005982 -0.25340822 -0.008086593

fc3.bias f4 [256]
000000 9e 5d 8e 3d 5c 01 6a 3d 38 88 f7 bc 91 03 8a bc
       0.0695145 0.057130203 -0.030216321 -0.016847404
000010 b4 9c da 3b 6b 67 79 bd 4b 9c 64 bd be 03 5b bd
       0.0066715125 -0.060889643 -0.055813115 -0.053470366
000020 97 55 7c 3d 0b 0a 82 3c ce 81 5d 3d 9b d6 f8 3c
       0.061605062 0.01587393 0.05407887 0.03037577
000030 43 86 d6 3d fe 6b 9f bd 93 26 a9 3c 6b 2d 86 ba
       0.10474827 -0.0778427 0.020648276 -0.0010236924
000040 13 01 86 bd 0a a4 4f bd 7f 65 d0 3d b1 77 a7 3b
       -0.06543174 -0.05069355 0.10175609 0.005110704
000050 5a 92 c6 bc 11 cf 3b bd 48 b1 80 3d 7f e3 94 3d
       -0.024239708 -0.04585177 0.06283814 0.07269954
000060 80 4a 64 bd 14 5b db 3d 92 1a 96 3d 6c 13 b6 3d
       -0.05573511 0.10710731 0.07329287 0.08890423
000070 ce 05 29 3c 34 b1 24 bd 04 24 31 3d de b0 11 3d
       0.010316325 -0.040208057 0.043247238 0.035569064
000080 72 23 91 3d 06 65 20 3d ce 02 3e 3b f2 4c f5 bc
       0.07086839 0.039158843 0.002899337 -0.029943917
000090 b6 51 32 3d 42 10 cb bb 50 99 9c 3d c7 72 09 3d
       0.043534957 -0.0061970064 0.076464295 0.033556726
0000a0 d1 e5 d4 3c d1 44 94 bc 73 a6 b6 bc bb 79 0d bd
       0.025988491 -0.01809922 -0.022296166 -0.03453992
0000b0 05 e9 59 3d b9 96 a1 3d 56 bb 8b bd 33 3e 47 bd
       0.05320074 0.07890076 -0.06822841 -0.048643302
0000c0 39 aa 98 3c 5a 7b a8 3d 94 18 c8 bc fa 75 74 3d
       0.018635856 0.082266524 -0.024425782 0.059682824
0000d0 80 a1 82 3d 3a 54 4f bc 88 a1 8a 3d da c6 76 3d
       0.0637846 -0.0126543585 0.06769091 0.060248233
0000e0 71 2b 31 bd 7b f1 05 3d 99 e9 8c bd 03 4a 9b 3d
       -0.04325432 0.032700997 -0.06880493 0.07582476
0000f0 17 58 df 3c ed 53 6d 3d 6a 73 98 3d e1 64 45 bd
       0.027263684 0.057941366 0.074438885 -0.04819191
000100 7b 15 70 3d 2f ea 47 3d ed dc 27 3d f3 23 2b 3c
       0.058614235 0.04880732 0.040982176 0.010445583
000110 59 cb 88 3d d0 32 bf 3d 05 e6 42 bd 7c 44 45 bd
       0.066794105 0.093358636 -0.047582645 -0.048161015
000120 43 d2 7b 3d 7f 20 9c 3d fe 80 af 3c db fc 8d 3d
       0.061479818 0.07623386 0.021423813 0.06932994
000130 ec b0 b8 3d fc e2 8d 3d 36 06 e6 3c a5 46 4e 3b
       0.0901812 0.069280595 0.028079133 0.0031475213
000140 2b 65 57 bd 37 f1 80 3d 56 e6 96 bc 9c 84 4e 3d
       -0.052586716 0.06296008 -0.01842038 0.050419435
000150 a3 3c ae 3c d5 40 3a bc 00 7e d4 bc 29 d1 6d bd
       0.021269148 -0.011367996 -0.025938988 -0.0580608
000160 a4 a5 8a bd a1 08 05 bc 33 68 9d 3d 0f 69 83 3d
       -0.06769875 -0.008119733 0.0768589 0.06416523
000170 48 94 01 be ed 18 e9 bc 24 3b 70 3d 8c bd 9d bc
       -0.12654221 -0.028454268 0.05865015 -0.019255422
000180 9a 50 a8 3c db 55 86 bb 24 1f 2d 3d 7c cc 07 bd
       0.020546246 -0.0040995902 0.042266026 -0.033153996
000190 2d 20 67 3d fe 8b 43 bd 70 5a 35 3d 0b 7c 9c bd
       0.05642717 -0.04774093 0.0442757 -0.07640847
0001a0 a8 98 05 3d cb 9a 9b 3d 70 0a 96 3d 07 1f f5 3d
       0.032616287 0.07597884 0.073262095 0.119688086
0001b0 0b c5 70 bd 7d 2e e8 bc 36 35 a5 bd a3 33 08 bd
       -0.058781665 -0.02834248 -0.0806679 -0.03325237
0001c0 c4 6d 24 3c 3d c9 8d 3d ec fd 95 bc f8 39 29 bd
       0.010035936 0.06923149 -0.018309556 -0.04131505
0001d0 f4 11 a7 3d 39 49 df bb ff 5c bc 3d cf 29 84 bd
       0.08157721 -0.0068141487 0.09197425 -0.06453287
0001e0 aa bb 17 bd 12 2f 91 bc dd 6b 98 3d 90 ff 65 3d
       -0.037044205 -0.01772264 0.07442448 0.056151927
0001f0 06 ed aa 3d 9c 51 d6 bc 29 c1 c8 3c d8 42 c7 3d
       0.0834599 -0.026161961 0.024506168 0.09729546
000200 8f e1 d3 bc be 9d 91 3c 0a cb 0c 3d 5c 60 85 3d
       -0.02586439 0.017775413 0.03437332 0.0651252
000210 aa dc 02 3d 24 1e ad bd 3d 72 76 3d 8a d0 cc 3d
       0.031948723 -0.084530145 0.06016754 0.10000713
000220 e0 fd 83 bc bb b5 c7 bd 2a 03 83 3d 31 f7 57 bd
       -0.016112268 -0.09751459 0.06397088 -0.052725974
000230 77 7f 47 3c 5d 9b 2d bd b5 74 99 3d 80 93 7a 3d
       0.012176386 -0.042384494 0.07492963 0.061175823
000240 e6 21 ee bc 23 75 0d 3d af 6f 9e 3c 3a ee 97 3d
       -0.029068898 0.03453554 0.019340364 0.07418485
000250 90 54 d2 3c 86 b4 b6 bc 23 c1 e1 bd 02 dc 24 3b
       0.025675088 -0.022302877 -0.11023166 0.002515555
000260 fb fe 77 3d 78 c9 95 3d 49 91 0e bd db 97 40 bd
       0.060545903 0.07313818 -0.034806523 -0.04701982
000270 bb c1 b5 3d 53 75 11 bd c5 84 3c 3d 55 60 9f bc
       0.08874842 -0.03551228 0.046025056 -0.019455114
000280 7c 96 54 3d 37 3e e6 3b 13 8a 94 bd d3 4e 91 3d
       0.051901326 0.0070264596 -0.07252898 0.07095113
000290 94 3e b8 bc ae 79 99 bd 90 8d 68 3b be 2f 33 3d
       -0.022490777 -0.07493912 0.0035484768 0.043746702
0002a0 0c 56 b0 bd 52 ea 7b 3d 5c 5c 0e be c9 d1 a3 bc
       -0.08610162 0.061502762 -0.1390242 -0.019997494
0002b0 15 6d 6b 3c 25 5c 92 3d a6 50 8e 3d 54 5e 8a bd
       0.014369269 0.071464814 0.06948976 -0.06756273
0002c0 5f 76 2c 3d d6 0f 38 bd 7a bb b1 3d 08 b4 a0 3d
       0.042105075 -0.044936977 0.086783364 0.07846838
0002d0 a7 3b 8c 3b db d4 85 3c 4b 66 9a 3c 09 7f 5b bb
       0.004279572 0.016336849 0.018847605 -0.0033492467
0002e0 8a 27 8c 3b 8b 9c 3e bb 62 e8 63 3d ce 0b a9 3d
       0.0042771744 -0.0029085006 0.05564154 0.08254205
0002f0 3a 61 93 3d 50 48 2f 3d 90 55 3e 3d fc 1b 06 3d
       0.07196279 0.042793572 0.046468318 0.03274153
000300 a4 f5 07 bd 8b c9 93 3d bc 02 9c 3d 0c d4 d9 3d
       -0.033193246 0.07216176 0.07617709 0.10636148
000310 e9 39 a4 3d 8c e0 9d bd 49 0a ba 3d 77 5d c2 3d
       0.08018858 -0.077088445 0.09083993 0.09490483
000320 15 d0 13 bd e3 dc 53 3d 49 94 f6 bc 9d 43 96 3d
       -0.036087114 0.051724326 -0.030100005 0.07337115
000330 3e 62 26 bd 0e 7f d4 bd 3b d6 a5 3d 5d 1a d3 3d
       -0.040621035 -0.10375796 0.08097502 0.10307763
000340 09 03 86 3d 60 32 9d 3d b0 cd 25 3d 4b f7 e7 bd
       0.06543548 0.07675624 0.040479362 -0.11326464
000350 a3 c6 4a 3d 8c d3 b4 39 c5 e6 a0 3d 14 0a 91 bd
       0.04950584 0.0003448989 0.07856516 -0.070820004
000360 2a 4f 80 3d 2b c1 15 bd a1 1c d0 3c e6 72 f2 bd
       0.06265099 -0.036561172 0.025404276 -0.118383214
000370 ab 1e 9f 3d c3 61 03 be ce bc ce bd e7 49 87 3d
       0.07769521 -0.12830262 -0.100946054 0.06605893
000380 ef c2 91 3d 73 08 9a 3d a1 06 36 bd 0d de a3 bd
       0.07117259 0.07521143 -0.044439916 -0.08001337
000390 1a 4b d5 3c db 48 33 3d 84 be f9 bd cb 6f 93 3d
       0.026036788 0.043770652 -0.12194541 0.07199057
0003a0 a7 37 0d 3d 27 71 4d bd 05 9d a9 bd 08 bb e6 3c
       0.034476902 -0.05015674 -0.08281902 0.028165355
0003b0 73 71 d1 3c a2 5e 36 bd 1f b3 23 bb c6 45 ac 3d
       0.025566792 -0.044523843 -0.002497859 0.08411746
0003c0 7f 44 06 bd a3 3a c1 3c 80 53 b5 bd ed 48 79 bc
       -0.032780167 0.02358753 -0.08853817 -0.015215141
0003d0 25 6b 4b 3d 7c 38 89 bd 87 79 78 bd 84 72 f9 bc
       0.049662728 -0.06700227 -0.060662773 -0.030450113
0003e0 8a 2a 87 3c 75 33 f9 bb b8 d3 d7 3c af a0 0f 3d
       0.016499776 -0.007605011 0.026346073 0.03506535
0003f0 38 3f cb bc f0 70 9d 3c 8a 13 5b 3c 79 4f c4 3d
       -0.024810418 0.019218892 0.013371358 0.09585471

output.weight f4 [4, 256]
000000 35 ca 41 be 31 8a 37 bd a5 8b d6 3c ff 19 f5 3d
       -0.18924792 -0.044809524 0.026189635 0.11967849
000010 03 c7 21 bc 1b 65 a8 bd 82 6d 29 bd 70 07 0c bc
       -0.009874108 -0.08222409 -0.0413642 -0.008546695
000020 3c 1c 7f 3d a1 e6 ea bc b0 53 59 bd 6a 14 0a be
       0.062282786 -0.028674426 -0.053058326 -0.1348435
000030 61 eb bc bd 36 68 47 be 94 9c 4e b9 c0 96 42 3d
       -0.092245825 -0.19473347 -0.00019704021 0.047507048
000040 e5 5f ea bc 0c fb 6c 3a 01 f1 f6 bd 48 bb df 3c
       -0.02861018 0.00090400944 -0.120576866 0.027310982
000050 3e c7 42 bc 59 86 3e bd 9f 14 f0 3d 0a d1 20 be
       -0.011888323 -0.046514843 0.11722683 -0.15704742
000060 72 37 44 3c ba a3 8a bd 26 b2 35 bd c7 56 4f 3d
       0.01197611 -0.067695096 -0.04435935 0.050619867
000070 64 00 8e bd 60 8b 92 3c fc 00 fe 3c 82 ea 60 bd
       -0.06933668 0.017888725 0.031006329 -0.054911144
000080 ed e0 98 bd b7 4c 46 bd 25 bc f0 bc 96 9e 52 3d
       -0.07464776 -0.048413005 -0.02938659 0.05142077
000090 f9 3e 90 bd 3f c2 ac 3c 66 b2 63 bd 9e 33 88 bc
       -0.07043261 0.021088718 -0.055590056 -0.016626175
0000a0 10 ab 67 bc 37 c8 9e bd 0c 39 16 bc ed 03 eb bc
       -0.014139906 -0.07753032 -0.0091688745 -0.028688395
0000b0 bf a0 82 3d 03 97 22 3d 55 74 35 bd 0c b5 0f 3a
       0.06378316 0.039694797 -0.044300396 0.0005481995
0000c0 ce 62 c2 bd ce c2 07 3d d1 f8 70 3c 15 63 27 bd
       -0.09491502 0.033144765 0.01470776 -0.040865976
0000d0 fe 2b 31 bd 8b 67 46 bd c0 a2 d7 3d 75 f7 c6 bc
       -0.043254845 -0.04843859 0.10529089 -0.024287919
0000e0 e8 e3 01 bd a3 91 db bd 0f af d4 bc f8 d1 cc bd
       -0.03171149 -0.107211374 -0.02596238 -0.10000986
0000f0 d2 ec 0d 3c a4 26 9b 3c 61 d2 fd 3d de 38 d7 bb
       0.008662419 0.018939324 0.12393642 -0.0065680584
000100 fb 93 4f 3d 29 b1 71 bc be 1c 5b 3c 04 48 32 3d
       0.050678235 -0.014751711 0.013373552 0.04352571
000110 ba 2b 26 be ba 49 12 bd 39 35 4e 3d 34 c2 0b 3e
       -0.16227618 -0.035714842 0.050343726 0.13648301
000120 4f d6 26 3d e3 3b 1a 3c bf 7d 73 3d a6 5e f4 bd
       0.040731724 0.009413692 0.059446093 -0.11932115
000130 f4 c4 75 bd 19 a1 a8 3d ca dc d9 3d 8b a5 9f 3d
       -0.060002282 0.08233852 0.10637815 0.07795247
000140 f8 66 ac bd 6e 00 ed 3d a4 ab a4 3c 88 f8 1d 3c
       -0.08418077 0.115723476 0.020101376 0.009641774
000150 6d cf 0e 3e f6 cf ef 3d 86 c7 3d bd ad 9f 65 3d
       0.13946314 0.11709587 -0.04633286 0.05606048
000160 d6 0c ac bc f7 4c 06 3e b8 ae 92 3d 7f 5b ee bd
       -0.021002214 0.13115297 0.07162231 -0.11638545
000170 d7 cc 76 bd 2b d0 53 bd f2 b1 97 bc fb f6 5d 3c
       -0.060253944 -0.051712196 -0.018517468 0.013547654
000180 81 78 3b bd a3 28 01 3d 89 27 a3 3d ef 63 e5 bc
       -0.04576922 0.031532895 0.07966525 -0.028001754
000190 b4 ea 52 bd 90 6a 8f bd 22 b2 7a 3d b3 aa 99 3d
       -0.05149336 -0.07002747 0.061205037 0.075032614
0001a0 c1 1e 7b 3d 5f 03 87 be 4c 26 80 bd d3 4f 2b 3e
       0.061308626 -0.2636976 -0.062573045 0.1672967
0001b0 1a fa 36 3d 7b fe 89 bc 41 89 bb 3d 08 ca 56 3d
       0.04467211 -0.016844979 0.091570385 0.052438766
0001c0 23 7e 8d 3d 53 af c6 3d 26 2a 2d 3d 58 58 65 3d
       0.06908824 0.09701409 0.042276524 0.055992454
0001d0 5f 91 d7 3d fe c1 f2 bc 92 ca 0c be 72 ca 0e bc
       0.10525774 -0.029633518 -0.1374915 -0.008715259
0001e0 52 a4 6c 3b c5 a2 e3 bc 6e e2 df 3a fa 63 6f ba
       0.0036108685 -0.027787575 0.0017081031 -0.0009132024
0001f0 28 1b e3 bd f2 0d 04 3c 8b d6 e3 bd 9e 22 2e bd
       -0.11089164 0.008059965 -0.11124905 -0.042513482
000200 52 82 96 3c a3 03 d7 3d 6d b7 1b 3e f7 54 bc bd
       0.018372688 0.104987405 0.1520669 -0.09195893
000210 ff 06 d9 bc 81 4c 08 bc 65 db f0 bd a8 ee 8b bd
       -0.026492594 -0.008319021 -0.11760596 -0.068326294
000220 ad e3 47 3b 08 6d 89 bc c6 72 27 be 70 28 e1 3c
       0.0030500696 -0.016775623 -0.16352376 0.027485102
000230 d3 11 b4 3d 14 8f 42 3d 38 46 52 bd e0 a3 bb ba
       0.08792462 0.04749973 -0.051336497 -0.0014315806
000240 6a 7a b3 bd 8e 29 30 3d 12 46 23 3e d5 6d c6 bd
       -0.08763583 0.04300838 0.15944698 -0.096889175
000250 39 5b 96 3c cd 7b d8 3a b9 67 2d be 92 51 f2 3b
       0.018354045 0.0016516388 -0.16934098 0.007394978
000260 fd e2 4f bd 4f 11 00 bd 47 38 59 3c 5a ce ca bd
       -0.050753582 -0.031266507 0.0132580465 -0.0990264
000270 16 b4 38 bd 8c c5 1c 3e a8 22 ce 3d 92 7e 8b bc
       -0.04509362 0.15309733 0.10065204 -0.017028127
000280 9b c4 be 3d 8d 63 01 3c 87 d7 5d bd ef 90 66 bd
       0.09314843 0.00789727 -0.05416062 -0.056290563
000290 01 13 2b 3c 1b 0a 92 3d a9 15 1f bb dc f4 4c be
       0.010441543 0.07130834 -0.0024274385 -0.20015281
0002a0 8e bf 24 be ce c5 d8 bc 3e cc 14 3e fc af 9c 3d
       -0.16088697 -0.026461508 0.14531037 0.07650754
0002b0 8a ae 6e 3d 9d 51 80 3d 46 e0 65 3d 3c 31 9b bc
       0.058271922 0.062655665 0.056122087 -0.018944375
0002c0 f8 e5 00 bd 7d ae 55 bd 47 9b 5d bb 2e db 34 3d
       -0.031469315 -0.052168358 -0.0033814476 0.04415434
0002d0 a3 9d a6 3d 99 fe a9 3d f1 0a 33 bc 88 81 60 3c
       0.081355356 0.08300514 -0.010927902 0.013702758
0002e0 9c 40 b9 3d 5e 73 3f 3d 47 03 af bd 71 5c 1c be
       0.090455264 0.046740882 -0.08545547 -0.15269639
0002f0 df cb 9d ba e0 1a f0 3c c9 8c b2 bc 7e f1 c8 bd
       -0.0012038908 0.02930969 -0.021795647 -0.09811686
000300 58 3a 01 bc b2 91 99 bd b6 0a 5b bd d0 40 17 be
       -0.007887445 -0.07498492 -0.05347701 -0.14770818
000310 50 10 4f 3d ab f1 ec bc a2 c4 1c be e3 54 51 bd
       0.050552666 -0.02892383 -0.15309384 -0.051106345
000320 5e 03 26 3d 4a fc aa 3d b1 92 5a bd d6 dc 04 3c
       0.040530555 0.083489016 -0.053362552 0.008109292
000330 9e 66 3f bd c1 25 1e be 2d 12 92 bd 5e cb 43 3c
       -0.046728723 -0.1544409 -0.07132373 0.011950342
000340 76 5d 1e be ec 0f c2 bd c9 0a cd 3c 4b 7f 1a 3e
       -0.1546534 -0.09475693 0.025029557 0.15087621
000350 ee 15 84 bd fa 00 f9 3d ef 9a c4 bc 75 41 ac bd
       -0.06449495 0.121583894 -0.02399966 -0.084109224
000360 2f 4a 95 bd 5d 6d af 3d 07 22 13 3e ea 2e 15 be
       -0.0728954 0.08565781 0.14368449 -0.14568678
000370 52 32 1c 3e 56 3e 2e 3e ce fa ed 3d bd 26 f2 bd
       0.1525357 0.17015967 0.11620103 -0.11823795
000380 ac a5 14 3d 01 d6 17 3d 79 34 f5 3d ae 38 1b 3e
       0.03629081 0.037069324 0.11972899 0.1515834
000390 a9 a2 9d bc 52 b6 5d bd 09 d1 21 bd cd c5 d8 3c
       -0.019242601 -0.054128952 -0.039505992 0.026461506
0003a0 66 84 2d bd e9 c4 2c bd 8c 8c f0 3c 25 c9 47 bd
       -0.042362593 -0.042179976 0.029363893 -0.04877581
0003b0 b6 9f b3 bc 8d 8e 43 3d 04 fb 09 3d d6 c7 a3 bc
       -0.021926742 0.04774337 0.033686653 -0.01999275
0003c0 19 1a 7a bd a9 4f 92 3d 6a 3d bb bc 93 59 a5 bb
       -0.061060045 0.071441 -0.022856433 -0.0050460785
0003d0 fb 04 3f 3e 75 4c 25 bb f2 87 f0 bc 00 d0 b0 3c
       0.18654244 -0.0025222574 -0.029361699 0.021583557
0003e0 ba 9f 67 3c 4a 3a 90 3e 57 a4 1c 3d 02 71 f3 bc
       0.014137203 0.2816947 0.038242664 -0.029716972
0003f0 22 4e 27 3d ce 80 cd 3d 66 7f 71 bd 55 03 39 be
       0.040845998 0.10034333 -0.058959387 -0.18067677

output.bias f4 [4]
000000 3a 78 3b 3d ca 77 27 bd 0d e3 0c bd 83 c8 a1 3c
       0.045768954 -0.040885724 -0.03439622 0.019748932
